state_dict.pth (torch, 59042 bytes, 38 tensors)

conv1.0.weight f4 [32, 1, 3, 3]
0	0x3b8ba968	0.004262138
1	0xbd4ea44c	-0.050449654
2	0xbe4560ea	-0.19275251
3	0xbe3a9628	-0.18221343
4	0xbe7b1828	-0.24520934
5	0xbe6e69ba	-0.23282519
6	0x3e14ae84	0.14519697
7	0x3dafc29a	0.08582039
8	0xbe4d63f5	-0.20057662
9	0xbe267955	-0.16257222
10	0xbc7254aa	-0.014790693
11	0xbe56cb35	-0.20975955
12	0xbb8ce3af	-0.004299603
13	0x3e099dc5	0.1343909
14	0x3e112476	0.14174065
15	0x3e8c9707	0.27458975
16	0x3e7f5b72	0.24937227
17	0xbdf26952	-0.118364945
18	0xbd92381b	-0.071396075
19	0x3de29579	0.11063666
20	0x3e80999e	0.251172
21	0xbddc9faa	-0.10772641
22	0xbe538d70	-0.20659423
23	0xbe01c524	-0.1267286
24	0xbe786d84	-0.24260527
25	0x3e569271	0.209543
26	0xbe61b385	-0.22041138
27	0xbe90790d	-0.28217354
28	0x3e89f39b	0.2694367
29	0xbe769c55	-0.24083073
30	0xbe958849	-0.2920554
31	0xbe0e1331	-0.13874508
32	0x3e8face5	0.28061596
33	0x3e6d96bd	0.23202033
34	0xbe2de7b5	-0.1698292
35	0xbc6809b3	-0.014162469
36	0x39fc82cb	0.00048162634
37	0x3d9fdd70	0.07805908
38	0xbe3c681c	-0.1839909
39	0xbe2df42e	-0.16987678
40	0xbe73cbf8	-0.23808277
41	0x3de84724	0.11341694
42	0xbd99892f	-0.07496869
43	0xbcef6a74	-0.029225565
44	0x3e1da138	0.15393531
45	0x3e717158	0.23578393
46	0xbe816997	-0.2527587
47	0xbe736007	-0.237671
48	0x3e575b30	0.21030879
49	0x3dbfa1f6	0.093570635
50	0x3dfca1f2	0.12335576
51	0xbe2bb814	-0.16769439
52	0xbe117600	-0.1420517
53	0xbda5ec1a	-0.081016734
54	0x3e87e76d	0.2654375
55	0x3e4d93f7	0.20075975
56	0x3e5a4278	0.21314418
57	0x3d4ad3b2	0.049518295
58	0x3d7ac4a9	0.061222706
59	0xbd5afb4f	-0.053462323
60	0xbe60b89b	-0.21945421
61	0x3d9bab90	0.07601082
62	0xbe124125	-0.14282663
63	0x3e62e911	0.2215922
64	0x3d7ce0f2	0.061737962
65	0xbea44fcb	-0.32092127
66	0xbe29505d	-0.16534562
67	0xbb7802e0	-0.003784351
68	0xbe15ca5a	-0.14627972
69	0x3d572d62	0.052533515
70	0x3a29b275	0.00064734305
71	0xbe2b1773	-0.16708164
72	0x3e04bf00	0.12963486
73	0xbe8d50ee	-0.27600807
74	0x3e16bef2	0.14721277
75	0x3dd5bb34	0.10436097
76	0x3e66aef6	0.2252768
77	0x3baeaf8e	0.0053309863
78	0xbe11b502	-0.14229205
79	0x3b8a8d84	0.0042282958
80	0xbe64629c	-0.22303241
81	0x3cecd31f	0.028909264
82	0xbe1ffa25	-0.15622766
83	0xbe325795	-0.17416222
84	0xbdefbc26	-0.11705808
85	0xbe04dbef	-0.12974523
86	0xbe5adc57	-0.21373115
87	0x3e4130a1	0.18866207
88	0x3e9211d0	0.28529215
89	0x3e9fe845	0.31231895
90	0xbe98eadc	-0.29866683
91	0x3e9bb488	0.30411172
92	0x3dddd02f	0.108307235
93	0xbdc79a9b	-0.097462855
94	0xbe387f6c	-0.18017358
95	0xbe7c3864	-0.24630886
96	0xbdbedd77	-0.09319585
97	0xbda53ee0	-0.08068633
98	0x3e24752a	0.1606032
99	0xbd40b783	-0.04705001
100	0x3c6d91b1	0.014500068
101	0x3d9fe66c	0.07807621
102	0x3df08b7c	0.117453545
103	0xbd8eb9ce	-0.06969033
104	0x3e124fbd	0.1428823
105	0x3e91c682	0.28471762
106	0x3e14d5ec	0.1453473
107	0xbe97ef64	-0.29674828
108	0x3c9f0ab3	0.019414281
109	0xbe0c940d	-0.13728352
110	0x3e091180	0.13385582
111	0x3e8f336a	0.27968913
112	0x3e42bef4	0.19018155
113	0x3d7df930	0.06200522
114	0x3e54adc5	0.20769413
115	0xbdece9c5	-0.115680255
116	0xbe9a1340	-0.30092812
117	0xbe23c6ce	-0.15993807
118	0x3e86561b	0.26237568
119	0xbe74646a	-0.2386643
120	0xbe07b25e	-0.13251635
121	0xbe128ba1	-0.14311077
122	0x3cb0e617	0.02159409
123	0x3e85cd32	0.26133114
124	0xbe00ccc0	-0.12578106
125	0xbd7e7c07	-0.06213
126	0xbe8ce4af	-0.27518222
127	0x3e8b3c59	0.2719448
128	0x3d05e32e	0.03268736
129	0xbea0a978	-0.31379294
130	0x3e8c3876	0.27386826
131	0x3e289629	0.16463532
132	0xbc137007	-0.008998877
133	0x3d19c938	0.037545413
134	0x3d587f1b	0.052855592
135	0xbe8a9595	-0.27067247
136	0x3e8b2290	0.27174807
137	0xbe1a9247	-0.15094863
138	0x3de3d284	0.11124137
139	0x3cb28f95	0.02179698
140	0xbe2ad6d9	-0.1668352
141	0x3e97b141	0.29627421
142	0xbc8aadf5	-0.016928652
143	0xbdd7bcc6	-0.105340526
144	0xbc477d84	-0.012175921
145	0xbbda3c9c	-0.006660057
146	0xbe893e42	-0.2680531
147	0xbe710a1c	-0.23539013
148	0xbe50649b	-0.20350878
149	0x3d8d9efa	0.06915088
150	0xbd40d774	-0.047080472
151	0x3e93113a	0.2872408
152	0xbd9f5d3d	-0.07781456
153	0x3d837169	0.06418116
154	0x3e814048	0.25244355
155	0xbe076c60	-0.13224936
156	0xbe55dd1f	-0.20885132
157	0xbe932bcb	-0.2874435
158	0x3e87e36e	0.26540703
159	0x3e220b13	0.15824537
160	0xbd9cf310	-0.07663548
161	0x3e090466	0.13380584
162	0xbd8ecda5	-0.06972817
163	0xbe9b6043	-0.3034688
164	0x3e36b55b	0.17842619
165	0x3e9cf783	0.30657586
166	0x3ea01edc	0.31273544
167	0xbe83eca7	-0.2576649
168	0x3cbaa92a	0.022785742
169	0x3d7e7f79	0.062133286
170	0xbea52fff	-0.3226318
171	0x3e5b4ede	0.21416804
172	0x3e5986cb	0.21242826
173	0xbe5b0049	-0.21386828
174	0x3d7b410f	0.06134134
175	0xbe136e10	-0.14397454
176	0xbe697adb	-0.22800772
177	0x3e515f03	0.204464
178	0xbe80d6ed	-0.25163975
179	0xbe8c6035	-0.2741715
180	0xbe86306d	-0.2620882
181	0xbe37bfdf	-0.17944287
182	0xbd8f44e0	-0.06995559
183	0x3e7e55bf	0.24837397
184	0x3da49658	0.08036488
185	0xbe97d754	-0.2965647
186	0xbe4472f5	-0.19184478
187	0xbe3a54d5	-0.18196423
188	0xbe7694e0	-0.24080229
189	0xbdd20ad7	-0.10255974
190	0x3e2bebc9	0.16789164
191	0x3e23bc93	0.15989904
192	0x3d9f7498	0.0778591
193	0xbc3130b1	-0.010814832
194	0xbda98c5f	-0.08278727
195	0x3e2d7da1	0.16942455
196	0x3e4308fd	0.19046398
197	0xbe521e06	-0.20519266
198	0x3d077ba6	0.033076905
199	0x3d87b338	0.0662598
200	0x3e2da079	0.16955747
201	0xbe70da2c	-0.23520726
202	0xbe6b14b1	-0.22957112
203	0x3e97d766	0.29656523
204	0xbe6ea6ef	-0.23305868
205	0x3e4ffb32	0.20310667
206	0x3e14bcd1	0.14525153
207	0xbe2098d5	-0.15683301
208	0xbd7fd160	-0.062455535
209	0xbe895aba	-0.2682703
210	0x3e9e4eb2	0.30919415
211	0x3e3d868f	0.18508361
212	0x3e43f824	0.19137627
213	0xbdcbf88d	-0.09959517
214	0xbe6353cb	-0.22199933
215	0xbe343fd7	-0.17602478
216	0xbcbf0227	-0.023316456
217	0xbdaf7533	-0.08567276
218	0xbdf6dadf	-0.12053465
219	0xbc955d91	-0.018233093
220	0x3d48ef85	0.04905655
221	0xbe19b9b9	-0.15012254
222	0x3e8997bb	0.26873574
223	0xbe9268bc	-0.2859553
224	0x3e5d3fb5	0.21606334
225	0xbe52554d	-0.20540352
226	0x3e790ae6	0.24320564
227	0x3e8be71f	0.2732477
228	0xbcfdb30e	-0.030969169
229	0x3e12e68e	0.14345762
230	0x3e43951e	0.19099852
231	0x3e8fc646	0.28080958
232	0xbdfeb9ea	-0.12437804
233	0x3c1a7c64	0.009429071
234	0x3e063911	0.13107707
235	0xbe615b55	-0.22007497
236	0x3dfbc474	0.1229333
237	0x3df12a18	0.11775607
238	0xbe95c409	-0.29251125
239	0x3d44d551	0.048054997
240	0x3e668a58	0.22513711
241	0xbd8d00ff	-0.068849556
242	0xbe3c6299	-0.18396987
243	0xbc9d2608	-0.019183174
244	0x3e81de67	0.25364992
245	0x3e65057e	0.22365376
246	0x3d7c5f48	0.061614305
247	0xbd1e3879	-0.038628075
248	0xbd84d1b3	-0.064853095
249	0xbe362aff	-0.17789839
250	0x3e9fad59	0.3118694
251	0xbdf85f3e	-0.12127541
252	0x3e8cf0da	0.27527505
253	0xbe834374	-0.256374
254	0x3e6aa8d9	0.22915973
255	0x3db58bdc	0.08864567

conv1.0.bias f4 [32]
0	0xbcaad10f	-0.02085164
1	0x3be840dc	0.00708781
2	0x36e8cd10	6.938011e-06
3	0xb69d78e7	-4.6930395e-06
4	0xb8919cec	-6.943368e-05
5	0x39039eae	0.00012552246
6	0x36ca6880	6.0322345e-06
7	0x3be928a5	0.007115441
8	0x3c8c4338	0.017121896
9	0xb493300a	-2.7415837e-07
10	0x3bc5d3b4	0.0060372
11	0xbb9676f2	-0.004591816
12	0xb6e76e16	-6.897152e-06
13	0xb61fcdca	-2.3812631e-06
14	0x398eb880	0.00027221814
15	0xbb286de4	-0.0025700266
16	0x39d68c21	0.00040921665
17	0x378fb0c6	1.7129245e-05
18	0xbac7df88	-0.0015249113
19	0xba6a1683	-0.0008929746
20	0xb8cb9854	-9.7081676e-05
21	0x38b45d62	8.600463e-05
22	0x373cea6e	1.1260256e-05
23	0x3c38e265	0.011284445
24	0xbc9f2191	-0.019425185
25	0xb706960d	-8.021959e-06
26	0xb78dd70c	-1.6908649e-05
27	0x374d6b9f	1.224401e-05
28	0x36c5973e	5.8886644e-06
29	0x3bcab368	0.0061859377
30	0xb73bebcc	-1.1200969e-05
31	0xbd165730	-0.036704242

conv1.1.weight f4 [32]
0	0x3f626a12	0.884431
1	0x3f5edb62	0.870535
2	0x3f628a7a	0.8849255
3	0x3f63e4cf	0.8902101
4	0x3f68e5b7	0.9097552
5	0x3f7522ab	0.95756024
6	0x3f5afc0c	0.85540843
7	0x3f65ca1b	0.89761513
8	0x3f74035a	0.95317614
9	0x3f5e8d6e	0.86934555
10	0x3f6ce110	0.9253092
11	0x3f66e2b7	0.9018969
12	0x3f5d2c22	0.86395466
13	0x3f66642c	0.899966
14	0x3f6e5df9	0.9311214
15	0x3f6a5626	0.915377
16	0x3f6b693f	0.9195747
17	0x3f636888	0.8883138
18	0x3f6b3129	0.9187189
19	0x3f62544c	0.88409877
20	0x3f62c722	0.885851
21	0x3f5ed1e7	0.87039036
22	0x3f67adc8	0.90499544
23	0x3f6ab09c	0.91675735
24	0x3f6b33fb	0.9187619
25	0x3f62ae2b	0.8854701
26	0x3f6ef8c2	0.93348324
27	0x3f67b03e	0.905033
28	0x3f6ab0c6	0.91675985
29	0x3f681f69	0.9067293
30	0x3f6e211c	0.9301927
31	0x3f6bb674	0.92075276

conv1.1.bias f4 [32]
0	0xbd0a3bfb	-0.033748608
1	0xbc8787ca	-0.016544241
2	0xbcbc6ef5	-0.023002127
3	0x3c3d97f3	0.011571872
4	0xbb7f3909	-0.0038943908
5	0xbc5dfa15	-0.013548394
6	0xbce96a08	-0.028492942
7	0xbcc0440e	-0.023469951
8	0xbc1ee7f0	-0.009698853
9	0xbb01d2d0	-0.0019809492
10	0xbc13357e	-0.0089849215
11	0xba0c1dd4	-0.0005345021
12	0xbcfddab6	-0.030988079
13	0xbbde9d97	-0.0067936885
14	0x3bf8e5f4	0.007595772
15	0xbceef77c	-0.029170744
16	0xbcde23e0	-0.027116716
17	0xbcb23540	-0.021753907
18	0x3c2c30d4	0.010509688
19	0xbc31d140	-0.010853112
20	0xbc8ec017	-0.01742558
21	0xbc941572	-0.018076632
22	0xbabb2e46	-0.0014280758
23	0xbcf68f27	-0.030097557
24	0x3c91810d	0.017761732
25	0xbbc5436d	-0.0060200007
26	0x3c20cd95	0.00981464
27	0xbce9b6e6	-0.028529596
28	0x3c9760f6	0.018478852
29	0x3c1f9b42	0.009741606
30	0x3a8a6385	0.0010558224
31	0xbce3b5f6	-0.027796727

conv1.1.running_mean f4 [32]
0	0xbf1fc12b	-0.62404126
1	0x3e46a8d4	0.1940034
2	0xbe7c21c0	-0.2462225
3	0xbe6867f6	-0.22695908
4	0xbe72b147	-0.23700438
5	0xbe07f5e7	-0.13277398
6	0x3ea1bf47	0.31591246
7	0xbe9c66ea	-0.30547267
8	0x3cd4e1b0	0.025986522
9	0xbd2a723d	-0.041612852
10	0xbe85c57c	-0.2612723
11	0x3e617906	0.22018823
12	0x3e66b2b0	0.22529101
13	0xbe5f1ec8	-0.21789086
14	0x3e4b8f4f	0.19878887
15	0xbca50456	-0.02014367
16	0xbea938b8	-0.33051085
17	0x3dbc3b20	0.09190965
18	0xbd1af4ab	-0.03783099
19	0xbe981fea	-0.29711848
20	0xbf320200	-0.695343
21	0x3e7056f9	0.23470677
22	0x3e1c9ac7	0.15293418
23	0xbe15aaff	-0.14616011
24	0xbe1d5faa	-0.15368524
25	0x3f05137b	0.5198285
26	0xbdf22e8f	-0.118252866
27	0x3e9a6e04	0.3016206
28	0x3e000a67	0.12503968
29	0xbdada34e	-0.084784135
30	0x3e2d0b2e	0.16898796
31	0xbe64c0c6	-0.22339162

conv1.1.running_var f4 [32]
0	0x3e002a4b	0.12516133
1	0x3d79ebeb	0.061016005
2	0x3d7c82f0	0.06164831
3	0x3d28e8fa	0.04123781
4	0x3cd8efff	0.026481627
5	0x3cccf7e8	0.025020555
6	0x3d857013	0.06515517
7	0x3d6092f2	0.054827638
8	0x3c289652	0.010289745
9	0x3d51e2c7	0.051241662
10	0x3d5ed2aa	0.054400124
11	0x3d088696	0.033331476
12	0x3d1adfc1	0.037811045
13	0x3ccc94b0	0.024973243
14	0x3d269688	0.0406709
15	0x3cfe2bf2	0.031026814
16	0x3d2bae75	0.041914422
17	0x3ca663c4	0.020311244
18	0x3d23c47b	0.0399823
19	0x3db81c5b	0.089897834
20	0x3e392a04	0.18082434
21	0x3ceb99e0	0.028759897
22	0x3d7bf414	0.061512068
23	0x3d1114ba	0.035420157
24	0x3c8f71fa	0.017510403
25	0x3db553f5	0.08853904
26	0x3cbc2623	0.022967404
27	0x3d280dbd	0.041028727
28	0x3c93c900	0.01804018
29	0x3d2cb1a1	0.042161588
30	0x3c93c540	0.018038392
31	0x3cd6079a	0.026126672

conv2.0.weight f4 [16, 32, 3, 3]
0	0xbd82a0f6	-0.06378357
1	0x3d0065e1	0.03134716
2	0x3c4773c9	0.012173601
3	0x3c971c4e	0.018446114
4	0x3cac2508	0.021013752
5	0x3c93195e	0.017956432
6	0x3cb0d177	0.021584256
7	0xbd0fd8b5	-0.035118777
8	0xbcfa626c	-0.03056451
9	0xbae2bd46	-0.001729884
10	0x3d0376dc	0.032095775
11	0x3d3bbb59	0.045832966
12	0x3cbc8897	0.02301435
13	0x3c0c6cf3	0.008570897
14	0x3d86ea4d	0.06587658
15	0xbc4f2508	-0.012643106
16	0x3d4b941f	0.049701806
17	0x3cb7feae	0.022460308
18	0x3c119642	0.008885922
19	0xbd10de90	-0.035368502
20	0xbb75d0d7	-0.0037508511
21	0x3d67fa95	0.056635458
22	0xbc836338	-0.016038522
23	0xbc13db9a	-0.009024525
24	0xbcca9b05	-0.024732122
25	0xbd20634b	-0.039157193
26	0xbd0dc53b	-0.03461192
27	0xbd7ef0b4	-0.06224127
28	0xbce305a3	-0.027712649
29	0xbce54b59	-0.02799003
30	0x3c7364a1	0.014855535
31	0x38c7235c	9.495646e-05
32	0x3bac03b0	0.005249463
33	0xbd280ef7	-0.041029897
34	0xba9e157f	-0.001206085
35	0xbd18e984	-0.037332073
36	0x3bb9cb8b	0.005670016
37	0xbca7eb1d	-0.020497853
38	0x3bbc62d1	0.0057490845
39	0xbce8b371	-0.028405877
40	0xbcbf155b	-0.023325613
41	0x3c8f2b0d	0.017476583
42	0xbd1bde23	-0.038053643
43	0xbb40704b	-0.0029363807
44	0xbd0e786c	-0.034782812
45	0x3ce30d67	0.027716352
46	0x3bde7253	0.006788531
47	0xbc976575	-0.018480996
48	0xbd683c07	-0.05669787
49	0xbd2cba41	-0.042169813
50	0xbd91b62d	-0.071148254
51	0x3cfd9e84	0.030959375
52	0xbb935631	-0.004496359
53	0xbcba9e58	-0.022780582
54	0xbd106f6f	-0.03526252
55	0x3cd895cc	0.026438616
56	0x3cb1f56b	0.02172347
57	0x3c221ccf	0.009894564
58	0x3ada9389	0.0016676049
59	0xbcbdb346	-0.023156773
60	0xbbb4b42d	-0.0055146427
61	0x3d224de7	0.039625075
62	0x3c9bb34c	0.019006394
63	0xbb8f7047	-0.004377398
64	0x3c34ea3e	0.011042176
65	0xbc5d08c9	-0.013490864
66	0x3cffe94a	0.03123917
67	0xbcc00112	-0.02343801
68	0x3d68f85e	0.056877486
69	0x3d0ff6c3	0.03514744
70	0xbd3c29ef	-0.04593843
71	0xbbe896b0	-0.0070980415
72	0xbd5ad4f0	-0.05342573
73	0x3d17ecff	0.03709125
74	0x3ca11e89	0.01966788
75	0x3cdb7e67	0.026793672
76	0xbc5ac576	-0.013352742
77	0xbd055041	-0.03254724
78	0x3be4ae2d	0.006978771
79	0xbd872f97	-0.06600874
80	0xbcb4130c	-0.021981739
81	0x3c223847	0.009901113
82	0xbd0eb1f3	-0.034837674
83	0x3c53b8b8	0.012922458
84	0x3b8faf2b	0.0043848953
85	0xbc7837ac	-0.015149992
86	0xbc103fae	-0.008804245
87	0xbc667c16	-0.01406767
88	0xbca2c398	-0.019868657
89	0x3cefa4e5	0.029253433
90	0x3c5fbe0f	0.013656153
91	0xbd7c0bbf	-0.06153464
92	0x3d3201d2	0.043458767
93	0x3d354e9c	0.04426442
94	0x3d1c8514	0.03821285
95	0x3cfceab6	0.030873638
96	0xbd400a25	-0.046884675
97	0x3d23a617	0.039953317
98	0xbd563e91	-0.05230576
99	0x3b406a14	0.0029360102
100	0x3d4e7102	0.05040074
101	0xbb992b8f	-0.004674382
102	0x3d66db5a	0.056361534
103	0xbb9075b0	-0.0044085607
104	0x3cc5126e	0.02405664
105	0xbc9adbe6	-0.018903684
106	0x3cc0e3f6	0.0235462
107	0xbbd82f0c	-0.0065974053
108	0x3d560a85	0.052256126
109	0xbd7267e0	-0.059181094
110	0xbcfc8c06	-0.030828487
111	0x3d1694fc	0.036763176
112	0xbd493f02	-0.049132355
113	0xbc1e7b1e	-0.009672908
114	0xbd7f72ac	-0.06236522
115	0xbd09d764	-0.033652678
116	0x3d06fd69	0.032956515
117	0xbd031669	-0.032003794
118	0xbd6d02c1	-0.057863954
119	0xbca04057	-0.01956193
120	0xbcce41e1	-0.025177898
121	0x3cb5106b	0.022102555
122	0xbaa7344d	-0.0012756676
123	0xbbdb14d7	-0.006685834
124	0xbc0d33b5	-0.008618285
125	0xbd213bfc	-0.039363846
126	0x3d1bc842	0.038032778
127	0x3c820ac4	0.015874274
128	0x3d200275	0.039064843
129	0x3bec521d	0.007211937
130	0xbd68eb37	-0.056864943
131	0xbccfc5ae	-0.025362816
132	0xbd1d00a7	-0.0383307
133	0xbc444f97	-0.011981866
134	0xbd38ae8d	-0.04508834
135	0x3ce73ab4	0.028226234
136	0x3c8a5bc4	0.01688946
137	0x3d0aa7c3	0.033851396
138	0x3d4e289f	0.050331708
139	0x3cb51957	0.02210681
140	0x3da5fbe4	0.08104685
141	0xbd951e9a	-0.072812274
142	0xbd2118dc	-0.03933035
143	0xbccacf98	-0.024757192
144	0xbda57f55	-0.08080927
145	0xbb3e1faf	-0.0029010584
146	0xbcf3d723	-0.029765671
147	0x3c4c6d1c	0.012477186
148	0xbd183f6c	-0.03716986
149	0x3b9beeb3	0.00475868
150	0xbd44a1fd	-0.048006047
151	0xbce43d52	-0.027861271
152	0x3d4d19f7	0.05007359
153	0x3c7c0b4b	0.015383552
154	0x3af8dbf8	0.0018986454
155	0x3d27afeb	0.040939253
156	0x3b9baf23	0.0047511025
157	0x3c9f690a	0.019459266
158	0xbcafd047	-0.021461619
159	0xbbc8cdec	-0.0061280634
160	0x3c849500	0.01618433
161	0x3cda27b9	0.02663027
162	0x3d1c43fc	0.038150772
163	0xbc6945f9	-0.014237874
164	0x3d8ce604	0.068798095
165	0x3d60a74f	0.054847058
166	0x3c938242	0.018006448
167	0xbd0490a9	-0.03236452
168	0xbd2cb9a0	-0.042169213
169	0xbd812331	-0.0630554
170	0x3c16f1e9	0.009212949
171	0xbcf3ce2c	-0.029761396
172	0xbc981f1a	-0.018569518
173	0x3cb16256	0.021653336
174	0xbca1f1bd	-0.01976859
175	0xbc304c47	-0.010760373
176	0x3c6f4b9c	0.014605429
177	0xbd0674ae	-0.03282612
178	0xbd931d39	-0.07183308
179	0x3c094c4c	0.008380007
180	0xbd484195	-0.04889067
181	0xbd11679a	-0.035499193
182	0xbaecc45e	-0.0018063893
183	0xbcdbd192	-0.02683333
184	0xbd321d9d	-0.043485273
185	0x3ca5d6f9	0.020244109
186	0xbcc0154f	-0.02344766
187	0xbd003067	-0.03129616
188	0x3cf4c9db	0.029881408
189	0x3c36acd2	0.011149602
190	0xbc348373	-0.011017668
191	0x3cbf6daf	0.02336773
192	0x3c8e2031	0.017349334
193	0x3c513017	0.012767813
194	0x3d50a73a	0.05094073
195	0xbd525ebc	-0.051359877
196	0x3c382ca8	0.011241116
197	0x3c454785	0.012040977
198	0x3c9b4f5e	0.018958744
199	0xbb88de1e	-0.004176869
200	0xbc222c3c	-0.009898242
201	0xbd3a5d0a	-0.045498885
202	0x3d39e55f	0.04538476
203	0xbc62517e	-0.013813375
204	0x3d461faf	0.04837006
205	0xbc8048fa	-0.015659798
206	0xbd1c04c6	-0.03809049
207	0xbcad9b24	-0.02119214
208	0x3d0e39fd	0.03472327
209	0xbcc5e7e3	-0.024158424
210	0x3cf10d62	0.029425327
211	0x3bf4925f	0.007463738
212	0x3d2cb61e	0.042165868
213	0x3cf75bf2	0.03019521
214	0x3ceb14b2	0.028696392
215	0x3d13e30e	0.036105208
216	0xbbf710cd	-0.0075398446
217	0x3c9ac7e1	0.018894138
218	0x3d6ca178	0.057771176
219	0xbd811a40	-0.06303835
220	0x3c4feb31	0.012690351
221	0xbd1801b1	-0.037110988
222	0xbc067765	-0.008207177
223	0xbd8bb395	-0.06821362
224	0xbd8c584a	-0.06852777
225	0xbd019e68	-0.03164521
226	0x3c26d5db	0.010182823
227	0xbd3f56e2	-0.046713717
228	0xbd0c447c	-0.034245
229	0xbd0cec64	-0.034405127
230	0x3c3ccf82	0.011524083
231	0xbc89ede7	-0.016837073
232	0xbca71702	-0.020396713
233	0xbc420f49	-0.011844465
234	0xbc66a05b	-0.014076318
235	0xbcb13e62	-0.021636192
236	0xbd523386	-0.051318668
237	0xbd137acc	-0.03600578
238	0xbcffabac	-0.03120979
239	0xbd107446	-0.035267137
240	0xbcbdc39f	-0.023164568
241	0xbd98c934	-0.074602515
242	0xbd7c4c82	-0.0615964
243	0x3c85fad9	0.016354965
244	0x3d3a1c48	0.045437127
245	0x3cbbcaae	0.022923794
246	0x3d69198a	0.05690912
247	0x3b79ec37	0.003813518
248	0x3ca8b77e	0.020595308
249	0xbccb771d	-0.024837071
250	0x3cb01717	0.021495385
251	0x3cb8b37c	0.022546522
252	0x3d5d9ae6	0.0541028
253	0xbcb9393d	-0.022610301
254	0xbd8f554b	-0.0699869
255	0x3d98f2f6	0.07468216

conv2.0.bias f4 [16]
0	0xb7993282	-1.826254e-05
1	0x3842c426	4.643588e-05
2	0x342c8944	1.6068685e-07
3	0xb8024c3f	-3.1065425e-05
4	0xb6ba4dcb	-5.5522883e-06
5	0x35c1f163	1.4449873e-06
6	0x3530e234	6.589428e-07
7	0x342d482e	1.613814e-07
8	0x378af358	1.6564198e-05
9	0x38ddfc33	0.00010585077
10	0xb6a07847	-4.7823737e-06
11	0xb778af68	-1.4822792e-05
12	0x342c0970	1.6022182e-07
13	0xb6fd98ca	-7.5577746e-06
14	0xb6358097	-2.704595e-06
15	0xb7030328	-7.808943e-06

conv2.1.weight f4 [16]
0	0x3f6b960c	0.9202583
1	0x3f7030c6	0.9382442
2	0x3f7478db	0.9549691
3	0x3f71831f	0.943407
4	0x3f6aa1d0	0.91653156
5	0x3f705b95	0.93889743
6	0x3f6deb01	0.9293671
7	0x3f71ece0	0.9450207
8	0x3f765963	0.96230143
9	0x3f78bfe0	0.9716778
10	0x3f77d2f4	0.96806264
11	0x3f680c4e	0.90643775
12	0x3f6f99e4	0.93594193
13	0x3f72e065	0.9487365
14	0x3f6909f5	0.9103082
15	0x3f6a1e42	0.9145242

conv2.1.bias f4 [16]
0	0xbaac5f66	-0.001315099
1	0xbb8f97bd	-0.0043821023
2	0xbceb350a	-0.028711814
3	0xbd1c00de	-0.038086765
4	0x3ca61c4d	0.020277167
5	0xbc26e25b	-0.010185803
6	0xbb748b37	-0.0037314424
7	0x3cbb0940	0.02283156
8	0x3b883261	0.0041563963
9	0x3b1c9593	0.0023892864
10	0x3ce59fa4	0.028030224
11	0x3c1d0aca	0.009585092
12	0xbb9e4392	-0.0048298324
13	0x3c4b97b8	0.012426309
14	0xbcbd4e2c	-0.023108564
15	0xbac55ec1	-0.0015058146

conv2.1.running_mean f4 [16]
0	0xbea90cbb	-0.33017525
1	0x3e3b0fe6	0.18267784
2	0x3e2c18ea	0.16806379
3	0x3e8eaee4	0.27867806
4	0xbebf3ce0	-0.3735113
5	0x3dd62198	0.10455626
6	0xbe796fd7	-0.2435907
7	0xbdac6c48	-0.084190905
8	0x3f31caf7	0.69450325
9	0x3d48a502	0.04898549
10	0x3cb402c7	0.02197398
11	0xbd453c58	-0.04815325
12	0xbe467b9d	-0.19383092
13	0x3dd429d7	0.10359543
14	0xbeea5b96	-0.45773
15	0x3e9a433c	0.3012942

conv2.1.running_var f4 [16]
0	0x3ead78a7	0.33881113
1	0x3e9d340a	0.30703765
2	0x3e557f3d	0.20849319
3	0x3eb2e451	0.34939817
4	0x3ecb9984	0.3976556
5	0x3e370478	0.17872798
6	0x3edb24bd	0.42801467
7	0x3e689e05	0.2271653
8	0x3ea08ea3	0.31358823
9	0x3e64755b	0.22310393
10	0x3e0c6a45	0.13712414
11	0x3e62f6e3	0.22164492
12	0x3e3d83f2	0.18507364
13	0x3d80cf44	0.06289533
14	0x3f2281f3	0.63479537
15	0x3e554613	0.20827512

conv3.0.weight f4 [8, 16, 3, 3]
0	0x3d4c155c	0.049825057
1	0x3be0711a	0.0068494203
2	0xbbee84fc	-0.0072790366
3	0x3d1806ee	0.037115984
4	0x3ca87fde	0.020568784
5	0x3db0ab48	0.08626419
6	0xbc5a4d5d	-0.013324109
7	0x3da9513c	0.08267447
8	0x3d3e6f9e	0.046493165
9	0x3ce8daee	0.028424706
10	0x3d8c0b6b	0.06838115
11	0x3d05cdb4	0.032666877
12	0x3cbb3a32	0.022854898
13	0xbd46dfe7	-0.048553374
14	0xbb4a0f25	-0.003083178
15	0x3d3ef78c	0.046622798
16	0xbdade972	-0.08491792
17	0x3d82a617	0.063793354
18	0xbc8015a6	-0.015635323
19	0xbb812650	-0.003941335
20	0xbc3bcbd3	-0.01146217
21	0x3db4cc17	0.088279895
22	0x3cf496e7	0.029857112
23	0x3d809d48	0.06279999
24	0xbdb1239a	-0.086493686
25	0xbcfe854f	-0.031069426
26	0xbcfe1caf	-0.031019537
27	0x3d34cd23	0.044140946
28	0x3d100f36	0.035170756
29	0x3d0cc6df	0.034369346
30	0xbcd772e8	-0.026299909
31	0x3d8324f6	0.06403534
32	0xbb16ef3c	-0.0023030778
33	0xbd30c4db	-0.043156486
34	0x3d64e37a	0.055881
35	0xbdc2135f	-0.09476351
36	0x3d42a01f	0.047515985
37	0x3db5a273	0.08868875
38	0x3c6699a1	0.014074714
39	0x3cc08f21	0.02350575
40	0x3d680ca6	0.056652687
41	0xbdb63119	-0.088960834
42	0x3d690b34	0.05689545
43	0x3d507330	0.0508911
44	0xbd94d9b4	-0.07268086
45	0xbd1558b1	-0.036461536
46	0xbce62d75	-0.028097847
47	0xbd9e106a	-0.077179745
48	0xbda5c9cc	-0.0809513
49	0x3bab819a	0.0052339556
50	0x3d8008d1	0.062516816
51	0xbd5ecd98	-0.05439529
52	0xbcd0f598	-0.025507733
53	0xbd6851a0	-0.05671847
54	0xba436d9e	-0.0007454994
55	0xbd449f98	-0.048003763
56	0x3d0c2371	0.034213487
57	0xbd073834	-0.033012584
58	0xbd6a8c4e	-0.05726271
59	0x3d5b1cf9	0.053494427
60	0x3c93737c	0.017999403
61	0x3d501354	0.050799683
62	0xbcef3ca4	-0.02920372
63	0x3cacd1c3	0.021096116
64	0x3cc4b208	0.024010673
65	0xbd98b6d4	-0.07456747
66	0x3c1fd219	0.009754681
67	0xbb81ba14	-0.00395895
68	0x3ce18d42	0.027533177
69	0x3bedf255	0.0072615542
70	0xbd99892e	-0.07496868
71	0x3d9dd308	0.07706267
72	0x3c76afe6	0.015056586
73	0xbd00402f	-0.03131121
74	0xbd20bee4	-0.039244547
75	0xbcfef04e	-0.031120446
76	0xbd8f65ad	-0.07001815
77	0x3d3c77e4	0.046012774
78	0x3cd6b0d1	0.02620736
79	0xbc8e13ad	-0.017343367
80	0x3ca899ae	0.020581093
81	0xbd9ec4ac	-0.07752356
82	0x3c1470df	0.009060114
83	0xbdaab38b	-0.08335026
84	0x3cc805ab	0.024416765
85	0xbb22bd72	-0.0024832156
86	0xbceeb903	-0.029140955
87	0x3c200099	0.0097657675
88	0xbb6500d2	-0.0034943116
89	0xbd547a77	-0.051874604
90	0x3d1653cb	0.036701005
91	0x3da4426d	0.08020482
92	0xbdcc5978	-0.09978002
93	0x3c954b20	0.018224299
94	0x3b2fe8ba	0.0026841597
95	0x3c44b614	0.012006301
96	0xbdaab829	-0.08335907
97	0x3d3dba4f	0.046320256
98	0x3c3ae0ea	0.011406163
99	0x3d09598b	0.03353266
100	0xbaa6bf3c	-0.0012721787
101	0x3c7c497c	0.015398379
102	0x3c59f328	0.013302602
103	0x3d5c4a19	0.053781603
104	0x3c89f470	0.01684019
105	0xbd0ce67f	-0.034399506
106	0xbcf13c9f	-0.029447852
107	0xbbdb18f2	-0.0066863233
108	0x3c5288e5	0.012850021
109	0xbc203c33	-0.009779978
110	0x3da7b52d	0.081888534
111	0xbd9e44e1	-0.07727981
112	0x3c9eabed	0.01936909
113	0xbcd5bdd7	-0.0260915
114	0x3d3de81a	0.046363927
115	0xbd5ac7cf	-0.05341321
116	0x3d00a893	0.031410765
117	0x3cc97a39	0.024594413
118	0xbcc4ad4b	-0.024008414
119	0xbd97b55e	-0.0740764
120	0xbd3ea4f9	-0.04654405
121	0xbd6714c8	-0.056416303
122	0xbd4207b3	-0.047370624
123	0x3d24bab7	0.040217128
124	0xbd745380	-0.059649944
125	0x3c4d7fe1	0.012542696
126	0x3d490b31	0.04908294
127	0xbcb997a1	-0.02265531
128	0x3d594559	0.05304465
129	0xbd369dd8	-0.044584125
130	0x3d7e4dcf	0.062085923
131	0x3d32816b	0.043580454
132	0xbd6582f6	-0.056033097
133	0x3d79d5e9	0.060995016
134	0x3c74d183	0.01494253
135	0xbd82d482	-0.06388189
136	0xbd35c747	-0.0443795
137	0xbcba773c	-0.022761934
138	0x3d922af5	0.071371
139	0xbd45fdca	-0.048337735
140	0xbd596bc9	-0.053081308
141	0xbd863f8e	-0.06555091
142	0xbd903ebb	-0.07043215
143	0xbd797cd4	-0.06091006
144	0x3cef1425	0.02918441
145	0x3cefff29	0.029296475
146	0xbc82f04d	-0.015983725
147	0xbcc35688	-0.023844972
148	0x3db8fe25	0.09032849
149	0xbd256b07	-0.040385272
150	0xbd298cd3	-0.041394066
151	0xbd61fbbc	-0.055171713
152	0x3cd58fcb	0.026069542
153	0xba3b3606	-0.0007141534
154	0xbd62114c	-0.055192277
155	0xbd6f36c8	-0.058401853
156	0xbd65b1be	-0.05607771
157	0xbcfcbb49	-0.030851023
158	0x3d80d505	0.0629063
159	0x3d478948	0.048714906
160	0xbbb1bd2e	-0.0054241633
161	0x3dac75cb	0.08420905
162	0x3d5f6224	0.054536954
163	0x3d3f082d	0.046638656
164	0xbda54546	-0.080698535
165	0x3cd7321f	0.026269017
166	0x3d05f6e0	0.03270614
167	0xbcb9467a	-0.022616614
168	0x3da85e99	0.08221168
169	0x3c3872af	0.011257811
170	0xbc50a9de	-0.012735812
171	0x3d717b7f	0.058955666
172	0xbbdb315d	-0.006689234
173	0xbd19d9e1	-0.0375613
174	0xbc22cb31	-0.00993614
175	0x3d957fc1	0.07299758
176	0x3b57b78c	0.00329158
177	0xbd440be6	-0.04786291
178	0x3d354e97	0.044264402
179	0xbd3444e3	-0.044011008
180	0x3d719008	0.05897525
181	0x3d7be7fd	0.06150054
182	0x3d897fbe	0.06713818
183	0xbccab3de	-0.02474397
184	0x3d1f7a42	0.038934954
185	0xbd72a579	-0.05923984
186	0xbd4342c5	-0.0476711
187	0xbd1f686b	-0.03891794
188	0xbd1f3cdc	-0.0388764
189	0x3be956e7	0.0071209553
190	0x3d916b83	0.07100584
191	0xbc1fc7a4	-0.009752188
192	0x3d70a921	0.058755044
193	0xbd4f6b96	-0.05063971
194	0xbc8eb6be	-0.017421123
195	0x3b920236	0.00445583
196	0x3d16393f	0.036675688
197	0x3d20ba1e	0.039239995
198	0x3d39cded	0.0453624
199	0x3d8925cd	0.06696663
200	0x3cca8938	0.024723634
201	0xbc183098	-0.009288929
202	0xbc291d65	-0.01032195
203	0xbd33a67c	-0.043859944
204	0xbd857b5e	-0.06517671
205	0x3bf961f2	0.007610553
206	0x3c824272	0.015900824
207	0x3ddb00bb	0.10693499
208	0xbcb491ea	-0.022042233
209	0xbc8870d7	-0.016655369
210	0x3d736600	0.059423447
211	0xbbd7debd	-0.006587832
212	0x3d8ccad9	0.068746276
213	0xbd89ab51	-0.06722129
214	0x3d5168d9	0.05112538
215	0x3a99ebfa	0.00117433
216	0x3d13e772	0.036109395
217	0xbd4dff02	-0.050292023
218	0x3ca9ca9b	0.020726493
219	0xbd0a5f58	-0.033782333
220	0xbcab2c75	-0.020895222
221	0x3c88c8a5	0.016697237
222	0xbd527a74	-0.05138631
223	0xbc6c4606	-0.014420992
224	0x3d32b0b3	0.043625545
225	0xbd918a79	-0.0710649
226	0x3a033948	0.0005005789
227	0x3c14546f	0.009053334
228	0x3c999f36	0.018752676
229	0xb89c17a7	-7.443065e-05
230	0xba6c6692	-0.000901797
231	0xbd7c93e2	-0.06166447
232	0x3d06a762	0.032874472
233	0xbd425ed0	-0.0474537
234	0x3daf58af	0.08561837
235	0x3dad3c70	0.08458793
236	0xbd9e0590	-0.07715905
237	0xbaa1046e	-0.0012284645
238	0x3c1d3974	0.009596217
239	0x3dc5c9ac	0.096576065
240	0xbd28235b	-0.041049343
241	0x3ab5640b	0.0013839019
242	0xbd59c036	-0.053161822
243	0x3c2c6e9b	0.010524417
244	0x3d275b3c	0.040858492
245	0x3d12cc40	0.03583932
246	0xbaa58ca0	-0.001263041
247	0xbce9f661	-0.028559865
248	0xbdd42473	-0.10358515
249	0x3d49d536	0.0492756
250	0xbb1991a4	-0.0023432756
251	0xbda3070d	-0.07960329
252	0x3c8f8073	0.017517304
253	0x3b847b2a	0.0040430026
254	0x3b95dc77	0.0045734006
255	0x3d11adaa	0.03556601

conv3.0.bias f4 [8]
0	0xb55206cd	-7.824099e-07
1	0xb605a7c0	-1.9916188e-06
2	0xb61c365c	-2.3277453e-06
3	0x3632ba66	2.6632565e-06
4	0xb7b0e2b4	-2.1086402e-05
5	0xb7c32f8e	-2.3267956e-05
6	0xb72cd0e4	-1.0300635e-05
7	0x3555078e	7.9359677e-07

conv3.1.weight f4 [8]
0	0x3f6e31ee	0.93044937
1	0x3f71ebb1	0.9450026
2	0x3f7afaa4	0.980387
3	0x3f71442b	0.9424464
4	0x3f7897e6	0.9710678
5	0x3f74160a	0.9534613
6	0x3f7c8197	0.9863524
7	0x3f744a9c	0.95426345

conv3.1.bias f4 [8]
0	0xbc85d82f	-0.016338436
1	0x3c6e57ea	0.0145473275
2	0x3cc0911d	0.023506695
3	0x3cb8f5dc	0.022578172
4	0xbce27ea4	-0.027648278
5	0x3c1d01fc	0.009582993
6	0x3c31de63	0.010856244
7	0x3ce72e7f	0.028220413

conv3.1.running_mean f4 [8]
0	0xbd408377	-0.047000375
1	0x3e9e510c	0.3092121
2	0xbeb5d1af	-0.35511538
3	0xbe174b69	-0.1477486
4	0x3e1551dc	0.14582008
5	0x3daa6a13	0.08321013
6	0xbf2ecd8f	-0.6828241
7	0x3df7526c	0.120762676

conv3.1.running_var f4 [8]
0	0x3e2ccf51	0.1687596
1	0x3e187c6f	0.14891218
2	0x3de71854	0.11283937
3	0x3e52f7b9	0.20602311
4	0x3e29352c	0.1652419
5	0x3dbd0284	0.092289954
6	0x3e0ee2d7	0.1395372
7	0x3e84a831	0.2590957

conv4.0.weight f4 [4, 8, 3, 3]
0	0xbdb1a298	-0.086735904
1	0xbd3c2c72	-0.045940824
2	0xbd889674	-0.06669322
3	0xbd004a4e	-0.031320862
4	0x3dea24dc	0.114328116
5	0x3d8de3d4	0.069282204
6	0x3d742ecd	0.059614945
7	0xbdb69bfb	-0.0891647
8	0x3d2a13cb	0.041522782
9	0x3d6d6e3e	0.057966463
10	0x3da3a641	0.07990695
11	0xbcffe1c6	-0.031235587
12	0xbdac4d91	-0.08413232
13	0xbda7d83c	-0.0819554
14	0xbc7f7842	-0.015592637
15	0x3d9562d1	0.07294238
16	0xbcfa6d43	-0.030569678
17	0x3d15e11e	0.03659164
18	0x3d8334c7	0.06406551
19	0xbc42dd8b	-0.01189364
20	0x3e05a745	0.1305209
21	0xbdce8c36	-0.10085337
22	0x3caa0037	0.020752056
23	0xbca7df79	-0.020492302
24	0xbda6f157	-0.08151501
25	0xbd3e3278	-0.04643485
26	0xbdca520c	-0.098789304
27	0x3d1942ba	0.03741715
28	0xbd6df322	-0.058093198
29	0xbc0172c3	-0.0079008965
30	0x3c4a6d84	0.012355212
31	0xbca0cc69	-0.01962872
32	0x3dc08f6d	0.09402356
33	0xbdc2d22e	-0.09512745
34	0xbd4757e2	-0.048667796
35	0x3d92a619	0.07160587
36	0xbd22b10a	-0.03971962
37	0xbdc58e7d	-0.09646318
38	0x3ddb4399	0.107062526
39	0x3d771975	0.060327012
40	0xbe06ee72	-0.13176897
41	0xbd9f1fed	-0.07769761
42	0xbdeae554	-0.11469522
43	0x3c76fe90	0.015075341
44	0xbdd96f20	-0.106168985
45	0x3cd05c92	0.025434766
46	0xbd1397b9	-0.036033366
47	0x3c9f591b	0.019451668
48	0x3d890675	0.06690685
49	0xbd2b8eef	-0.04188436
50	0x3bee6f52	0.007276454
51	0xbc365916	-0.011129638
52	0x3d9b6dad	0.07589278
53	0xbd15fff2	-0.03662104
54	0x3d29f90a	0.041497268
55	0xbd1a9a04	-0.037744537
56	0x3cdf1b76	0.027234774
57	0x3cff65b3	0.031176424
58	0x3d9afba0	0.07567525
59	0x3cb505ff	0.022097586
60	0x3dcc2798	0.099684894
61	0x3dbad0b5	0.09121839
62	0xbd7cd6b8	-0.06172821
63	0x3d947675	0.072491564
64	0x3d21cbaa	0.03950087
65	0xbde8e283	-0.11371329
66	0xbdbde269	-0.092717
67	0x3d4a38b5	0.049370486
68	0xbcf850cf	-0.03031197
69	0x3d3ae1d5	0.045625526
70	0x3dde09fd	0.10841749
71	0xbc90b12b	-0.017662605
72	0x3d9f25b9	0.07770867
73	0x3d95b91b	0.07310697
74	0xbd78c6a0	-0.0607363
75	0x3da9c84d	0.082901575
76	0xbe06d339	-0.13166513
77	0x3d595bc5	0.053066034
78	0x3db78f65	0.08962897
79	0x3cebd4dd	0.028788025
80	0x3d983cd7	0.07433479
81	0xbd16b61f	-0.036794778
82	0x3d9ac628	0.075573266
83	0xbe0510b6	-0.12994656
84	0x3de2f167	0.110812
85	0xbd8a68ed	-0.06758294
86	0xbd21e2bd	-0.039522875
87	0xbd92b458	-0.07163304
88	0xbdbf1ca5	-0.093316354
89	0x3d6e405a	0.05816684
90	0xbd80f48b	-0.06296643
91	0xbd716837	-0.058937278
92	0xbc8ad665	-0.016947934
93	0x3d937a06	0.072010085
94	0xbd1de275	-0.038546044
95	0xbdd011ba	-0.10159631
96	0xbd0e1426	-0.034687184
97	0x3d783a95	0.060602743
98	0x3d2c5d5b	0.04208122
99	0x3d08ea9f	0.033426877
100	0xbda05adc	-0.0782983
101	0x3da75173	0.08169832
102	0x3d2b6773	0.041846704
103	0x3dcd60a6	0.100282
104	0x3c159bd8	0.009131394
105	0x3d830195	0.06396786
106	0xbd8a16b1	-0.06742609
107	0x3dedd518	0.1161291
108	0x3dbfb38d	0.093604185
109	0x3cbda0a5	0.02314789
110	0xbd3a55ac	-0.04549186
111	0x3dc92b02	0.09822656
112	0xb956896f	-0.00020459828
113	0xbb545fb4	-0.0032405676
114	0xbdd165b5	-0.10224477
115	0xbd1510c1	-0.03639293
116	0x3dd344f8	0.10315889
117	0xbd48d5ed	-0.04903214
118	0xbca66df6	-0.020316105
119	0xbe128f4e	-0.14312479
120	0xbdbc6b7c	-0.092001885
121	0xbd8387a9	-0.064223595
122	0xbd75d95e	-0.06002175
123	0x3d5941cb	0.05304126
124	0xbb9b691f	-0.004742756
125	0xbc9886ee	-0.018619027
126	0x3cce859c	0.025210194
127	0xbdd29505	-0.102823295
128	0x3d3921af	0.04519814
129	0xbcf7d525	-0.030253002
130	0x3d87927d	0.06619737
131	0xbd89ffbd	-0.06738231
132	0xbc864df8	-0.0163946
133	0xbc1966fe	-0.009362934
134	0x3da66eff	0.081266396
135	0xbd8b7920	-0.06810212
136	0xbbd06fe3	-0.006360994
137	0xbe10148d	-0.1407034
138	0xbd50b32d	-0.050952125
139	0xbe0bbd8a	-0.13646522
140	0x3cc602c0	0.024171233
141	0xbd98d667	-0.07462769
142	0xbddd570f	-0.10807621
143	0x3ce56521	0.028002324
144	0xbdba0b9c	-0.090842456
145	0xbd75d721	-0.060019616
146	0x3d1397d6	0.036033474
147	0xbdf87496	-0.12131612
148	0xbdab4175	-0.08362094
149	0xbce20110	-0.027588397
150	0x3dc12018	0.094299495
151	0x3d0f8e80	0.035048008
152	0x3cd89f7d	0.026443237
153	0xbd142251	-0.03616554
154	0x3dc5478e	0.096327886
155	0xbdd96e58	-0.106167495
156	0x3cd00730	0.025394052
157	0xbdbdd772	-0.092696086
158	0x3db4c403	0.08826449
159	0xbd21f9c3	-0.039544832
160	0x3d39160f	0.045187052
161	0x3df10fa7	0.117705636
162	0x3d11c25b	0.035585742
163	0x3da56676	0.080761835
164	0x3c3c2f9a	0.0114859585
165	0xbd0726ba	-0.032995917
166	0x3cd3613f	0.025803206
167	0xbd80011d	-0.06250212
168	0xbe1e77c0	-0.15475368
169	0xbc627df1	-0.013823972
170	0xbca1d38a	-0.01975419
171	0xbdcad5c6	-0.09904055
172	0x3d735b7f	0.05941343
173	0xbc89d86a	-0.016826827
174	0x3caeaae3	0.02132172
175	0xbd7b7c55	-0.06139787
176	0x3db872d9	0.090062805
177	0x3ce198ec	0.02753874
178	0xbc85a992	-0.016316209
179	0x3d3db02b	0.046310585
180	0xbda67b29	-0.0812896
181	0x3d732f03	0.059371006
182	0x3d87ddbe	0.06634091
183	0xbd88e374	-0.06684008
184	0x3d9a74b0	0.075417876
185	0xbd83581d	-0.06413291
186	0xbc6dd15c	-0.014515247
187	0xbda673bc	-0.08127543
188	0xbd9bfc7c	-0.07616517
189	0x3debc37b	0.11511894
190	0x3c7755ad	0.01509611
191	0xbcd093c9	-0.025461094
192	0xbdf65f1b	-0.12029859
193	0xbd8a5418	-0.06754321
194	0x3c65046f	0.013978108
195	0xbd7663ce	-0.060153775
196	0x3dbf778d	0.093489744
197	0x3d9af4d2	0.07566227
198	0x3dc84dc9	0.09780461
199	0x3d6e25f6	0.05814167
200	0x3de90db9	0.113795705
201	0x3d88c8a1	0.06678892
202	0xbdd72c6d	-0.105065204
203	0x3a9e3c9f	0.001207251
204	0x3d8b5b81	0.06804562
205	0x3df3d089	0.11905009
206	0xbe033e4c	-0.12816733
207	0xbd91248f	-0.07087051
208	0x3d7f6783	0.062354576
209	0xbdd4de9d	-0.103940226
210	0x3d9fd1e0	0.07803702
211	0x3ce03504	0.02736903
212	0x3d1dc862	0.038521178
213	0xbde14062	-0.10998608
214	0xbc1ac297	-0.009445808
215	0x3d35ecd8	0.044415325
216	0xbc8b52c7	-0.017007245
217	0x3d1c2c17	0.038127985
218	0x3d39c661	0.045355204
219	0x3df2fa1c	0.11864111
220	0x3d2982ac	0.041384384
221	0xbc3682b1	-0.011139558
222	0xbb671c0c	-0.003526452
223	0x3d70cd56	0.058789574
224	0x3cb5b433	0.022180652
225	0xbd276957	-0.040871944
226	0xbd01cf58	-0.03169188
227	0x3dc8bc97	0.09801596
228	0x3d4ffe20	0.05077946
229	0xbd491573	-0.04909272
230	0x3d5fae00	0.0546093
231	0xbd26db44	-0.04073645
232	0x3d319e57	0.043363895
233	0x3dc5b23a	0.09653135
234	0xbde0d58c	-0.10978231
235	0xbcb623f0	-0.022233933
236	0xbd3c39d1	-0.045953576
237	0x3d891b33	0.06694641
238	0x3d136b93	0.035991263
239	0xbde02d12	-0.109460965
240	0xbdde3c7d	-0.10851381
241	0x3dd73154	0.105074555
242	0xbe0e9a30	-0.13926005
243	0x3d9e1e76	0.07720654
244	0xbcc337a1	-0.023830237
245	0x3cf07bbe	0.02935588
246	0x3d364f36	0.044509135
247	0x3dd5c8c9	0.10438687
248	0xbe0454bc	-0.12922949
249	0x3d7fa40e	0.062412314
250	0xbd982f5e	-0.074309096
251	0xbd915425	-0.070961274
252	0xbb598d57	-0.0033195817
253	0xbd8ea378	-0.06964773
254	0xbc9213e5	-0.017831752
255	0x3d52dadc	0.05147825

conv4.0.bias f4 [4]
0	0xb5389266	-6.875838e-07
1	0xb670fcd3	-3.590995e-06
2	0xb67c88ad	-3.7630482e-06
3	0x35a51058	1.2298215e-06

conv4.1.weight f4 [4]
0	0x3f74ee81	0.9567643
1	0x3f659714	0.8968365
2	0x3f7e8085	0.99414855
3	0x3f71d3f1	0.9446402

conv4.1.bias f4 [4]
0	0x3d0126c4	0.03153111
1	0xbc87853d	-0.016543025
2	0x3dbea60b	0.09309014
3	0x3b85e214	0.0040857885

conv4.1.running_mean f4 [4]
0	0xbd830479	-0.063973375
1	0xbe9db2ab	-0.30800375
2	0xbc21dbf9	-0.009879106
3	0xbbecdc0c	-0.00722838

conv4.1.running_var f4 [4]
0	0x3dd56c96	0.10421102
1	0x3e45cbe8	0.19316065
2	0x3d9bd08f	0.07608139
3	0x3e88ebf4	0.26742518

fc1.0.weight f4 [42, 84]
0	0x3c8cfff1	0.017211886
1	0xbd7651ed	-0.060136724
2	0x3c289770	0.010290012
3	0xbdcdc076	-0.10046475
4	0xbd8027dd	-0.06257603
5	0x3dd47f4e	0.10375844
6	0xbad5099e	-0.0016253476
7	0xbd83e565	-0.06440238
8	0x3d711560	0.058858275
9	0xbd8fc2e1	-0.07019592
10	0x37000b84	7.632076e-06
11	0x3d1ee0a9	0.03878847
12	0x3d5fae86	0.054609798
13	0xbdf82bed	-0.12117753
14	0x3be40f5e	0.0069598397
15	0xbd346d29	-0.044049416
16	0xbd30232d	-0.043002296
17	0x3ce03ca6	0.02737267
18	0x3b0f4ac5	0.0021864634
19	0x3d07ed08	0.033185035
20	0xbb24f688	-0.0025171358
21	0x3d028dc8	0.031873494
22	0xbc7d8536	-0.0154736545
23	0xbd72797e	-0.059197895
24	0xb79efc49	-1.8952547e-05
25	0x3ca5fca7	0.020262076
26	0x3d9c61c5	0.076358356
27	0x3d0068a0	0.03134978
28	0x3caebb7d	0.021329636
29	0xbdd82b43	-0.105551265
30	0xbcd5f23a	-0.02611648
31	0xbd52905e	-0.05140721
32	0x3b5876b2	0.0033029732
33	0xbbf716ba	-0.007540551
34	0x3cc949c6	0.02457131
35	0xbc76c060	-0.015060514
36	0xbd36c87d	-0.044624794
37	0xbb6651fa	-0.0035144077
38	0xbd71af39	-0.059004996
39	0xbd489e57	-0.04897913
40	0xbd8ab950	-0.06773627
41	0xbcc65a02	-0.024212841
42	0x3e147b00	0.14500046
43	0x3d904297	0.07043951
44	0x3d8fc629	0.07020218
45	0xbdd6fc8a	-0.10497387
46	0xbbb515ad	-0.0055262656
47	0x39d6d72c	0.00040977576
48	0xbc6ee653	-0.014581281
49	0x3d71d4c4	0.0590408
50	0x3be072c3	0.006849618
51	0xbce96df6	-0.028494816
52	0xbd819dda	-0.06328936
53	0xbd4532a4	-0.048143998
54	0xbc8e1def	-0.017348258
55	0x3d3cfec7	0.046141412
56	0x3d38a29d	0.045076955
57	0x3dd3c577	0.10340398
58	0x3d5d37c6	0.054008268
59	0xbded04dd	-0.11573193
60	0xbc55359f	-0.013013273
61	0xbdb2803f	-0.08715867
62	0x3d130f59	0.03590331
63	0xbd722240	-0.059114695
64	0x3c7f0bb3	0.015566754
65	0x3d5830ce	0.05278092
66	0xbcb07405	-0.021539697
67	0x3d5aca82	0.053415783
68	0xbc917ad6	-0.017758768
69	0xbc3ae363	-0.011406752
70	0xbdc76044	-0.09735158
71	0xbd5e70a2	-0.054306634
72	0xbcd341b3	-0.025788164
73	0xbcf9805d	-0.030456716
74	0xbc400c99	-0.0117217535
75	0xbe2bc445	-0.1677409
76	0xbd87d49b	-0.06632348
77	0xbc24908a	-0.010044226
78	0xbcb05f6f	-0.021529881
79	0xbd0d10b5	-0.03443976
80	0xbbcdeab4	-0.0062840823
81	0x3bc08daf	0.005876265
82	0xbd84bb4c	-0.064810365
83	0xbd701cf2	-0.058621354
84	0x3dac5296	0.084141895
85	0x3c23948e	0.009984149
86	0xbd34fc88	-0.044186145
87	0x3c8e4d78	0.017370924
88	0x3d3f80aa	0.046753563
89	0xbdac40a1	-0.084107645
90	0x3dad98d7	0.084764175
91	0x3cd3c57c	0.025851004
92	0xbc23f0fb	-0.010006185
93	0x3d5ac206	0.05340769
94	0xbd429eef	-0.047514852
95	0xbda5955c	-0.08085129
96	0x3d9b10e4	0.07571581
97	0xbd51aae4	-0.051188365
98	0x3bc23e28	0.0059278198
99	0xbdd1b058	-0.10238713
100	0x3c8b9569	0.017039018
101	0xbd177a79	-0.036982033
102	0xbc80922c	-0.0156947
103	0xbb116829	-0.0022187328
104	0xbcdea4a7	-0.027178122
105	0x3c004c34	0.007830668
106	0xbd061a5e	-0.03273999
107	0x3d95091a	0.072771266
108	0x3d805583	0.0626631
109	0xba8ca645	-0.0010730705
110	0xbd39d498	-0.04536876
111	0xbd32dc60	-0.043667197
112	0xbc215d4a	-0.009848902
113	0x3d302625	0.043005127
114	0xbd815800	-0.06315613
115	0x3c5e73e3	0.013577434
116	0xbd3315a2	-0.043721803
117	0x3d21e901	0.03952885
118	0xbc52509c	-0.012836602
119	0xbdc34f5d	-0.09536622
120	0x3dcab948	0.09898621
121	0x3d0dbb1c	0.03460227
122	0x3d21e4e1	0.039524917
123	0xbd627f29	-0.05529705
124	0xbd10c7e8	-0.035346895
125	0x3dc854d5	0.097818054
126	0x3cc5ad9e	0.024130639
127	0xbe03b3f8	-0.12861621
128	0xbd0a3eda	-0.033751346
129	0x3d922ff0	0.071380496
130	0x3d50baa8	0.05095926
131	0x3d4b6141	0.049653295
132	0x3ca02931	0.019550892
133	0xbcf32cf2	-0.029684518
134	0x3d898278	0.06714338
135	0x3c2709b5	0.010195185
136	0xbdd942d0	-0.106084466
137	0x3d8d3748	0.0689531
138	0x3d3538e2	0.0442437
139	0x3dc7172a	0.09721215
140	0xbd91f6c4	-0.07127145
141	0xbd2b6e84	-0.041853443
142	0x3c973393	0.01845721
143	0x3d4714e9	0.048603926
144	0x3d096e4d	0.033552457
145	0x3d12fe59	0.035887096
146	0xbbcc2124	-0.0062295366
147	0x3d0fc967	0.03510418
148	0xbdd0e8f4	-0.10200682
149	0xbd050225	-0.03247275
150	0xbca259dc	-0.019818239
151	0xbc1645c4	-0.009171907
152	0xbdf948e9	-0.1217211
153	0x3c64b896	0.013960024
154	0xbdd3b0af	-0.10336434
155	0xbbc4273f	-0.005986124
156	0xbd12340e	-0.035694174
157	0xbda21cab	-0.07915624
158	0xbdbcad30	-0.092127204
159	0x3d0d71f0	0.034532487
160	0x3dc37c38	0.09545177
161	0xbcf3fc4b	-0.029783389
162	0xbc78288a	-0.015146384
163	0xbdaac7c5	-0.08338884
164	0xbb8852c7	-0.0041602585
165	0x3d283b80	0.04107237
166	0xbc6306ad	-0.013856572
167	0xbd88d11b	-0.06680509
168	0xbc034619	-0.008012318
169	0x3d5091b9	0.050920222
170	0x3c2bf1dc	0.0104946755
171	0x3d423a34	0.047418788
172	0x3c906532	0.017626379
173	0x3d089819	0.033348177
174	0x3d152b2e	0.036418132
175	0xbcb33478	-0.021875605
176	0xbd2ef4ad	-0.04271381
177	0x3da96c30	0.08272588
178	0x3c04e096	0.008110186
179	0xbd427f41	-0.04748464
180	0x3d81081d	0.063003756
181	0x3d214120	0.03936875
182	0x3d371750	0.044699967
183	0xbdef96a9	-0.11698658
184	0xbd9833da	-0.07431765
185	0xbc371036	-0.011173299
186	0x3ce908a6	0.028446507
187	0x3d492976	0.049111806
188	0x3d6b9dd5	0.057523567
189	0x3ce190b9	0.02753483
190	0xbc4ec171	-0.012619362
191	0x3cb5b858	0.022182629
192	0xbc53ae35	-0.012919952
193	0x3db423bb	0.087958775
194	0x3b471811	0.0030379335
195	0xbcb1f992	-0.02172545
196	0xbd58c78b	-0.052924674
197	0xbcd6cbd5	-0.026220242
198	0xbcb84386	-0.022493135
199	0x3cd784ee	0.026308503
200	0xbd8ce321	-0.06879259
201	0xbce2055d	-0.027590448
202	0xbd07cf73	-0.033156823
203	0xbc200f48	-0.009769268
204	0xbd8377f8	-0.064193666
205	0xbdd9b5c3	-0.106303714
206	0xbc0113cb	-0.007878254
207	0xbd8487bf	-0.06471204
208	0x3d911e2a	0.070858315
209	0xbd040f77	-0.03224131
210	0xbe013be0	-0.12620497
211	0x3cc4dcd1	0.024031075
212	0xbd3c849c	-0.046024904
213	0x3d523136	0.051316462
214	0x3d740244	0.059572473
215	0x3d647b72	0.05578179
216	0xbcfe5804	-0.031047828
217	0xbcd2be69	-0.02572556
218	0x3d07d9d9	0.03316674
219	0x3d643dde	0.055723064
220	0x3d172196	0.036897264
221	0x3e10109c	0.14068836
222	0x3dc3d7dc	0.09562656
223	0x3d0e2d69	0.034711275
224	0x3d909927	0.070604615
225	0x3ce87073	0.028373932
226	0x3dcb8c25	0.0993884
227	0x3de3f18a	0.11130054
228	0xbd915251	-0.07095779
229	0xbcb3897a	-0.02191614
230	0x3d530cfb	0.05152605
231	0xbdae8c25	-0.08522824
232	0x3d890293	0.06689944
233	0xbde7cd1d	-0.11318419
234	0xbcf7d398	-0.030252263
235	0xbd0230eb	-0.031784933
236	0x3d832297	0.06403082
237	0x3cdef994	0.027218617
238	0xbda4575f	-0.08024477
239	0x3d489928	0.048974186
240	0x3d341b08	0.04397109
241	0xbb3f9ee2	-0.0029238989
242	0xbdaf3d7c	-0.08556649
243	0xbc0a36bd	-0.008435902
244	0x3de3eafb	0.11128803
245	0x3c0de51e	0.008660583
246	0xbd25fca5	-0.040524144
247	0xbd0dbb29	-0.034602318
248	0x3d084a0a	0.033273734
249	0xbbf29ad0	-0.007403709
250	0xbd3e26aa	-0.04642359
251	0xbd244646	-0.04010608
252	0xbd0749e5	-0.033029456
253	0xbd858dcc	-0.06521186
254	0xbd380a60	-0.04493177
255	0xbcca641e	-0.024705943

fc1.0.bias f4 [42]
0	0xb32aeb22	-3.979506e-08
1	0xb4727654	-2.2581054e-07
2	0x32c2bac2	2.26695e-08
3	0x33071504	3.145125e-08
4	0x34031ce6	1.2210839e-07
5	0x32b22224	2.0737453e-08
6	0xb3404639	-4.476735e-08
7	0x3328e65a	3.932505e-08
8	0xb328ac27	-3.927212e-08
9	0xb3f7cfd2	-1.1539636e-07
10	0xb401f0c1	-1.2101647e-07
11	0x346bf948	2.1976768e-07
12	0x321c2b56	9.0902486e-09
13	0x341e7cb5	1.4760265e-07
14	0x2ee24e80	1.02912345e-10
15	0x350ffccb	5.3639513e-07
16	0xb412bb62	-1.3665479e-07
17	0x3183db34	3.8375223e-09
18	0x33b0d2ec	8.234005e-08
19	0x341a3449	1.4361389e-07
20	0xb2c95dd9	-2.3442157e-08
21	0x33e6c7f9	1.07465844e-07
22	0x350c990c	5.2376777e-07
23	0x34fa475d	4.6618052e-07
24	0xb4d29697	-3.9225117e-07
25	0x327e0760	1.4786423e-08
26	0x33e8b11b	1.0835557e-07
27	0x33ae3350	8.11184e-08
28	0xb38ef9c0	-6.6578195e-08
29	0xb2c84548	-2.331457e-08
30	0x346ec3f6	2.2236767e-07
31	0xb2c6ab34	-2.3128088e-08
32	0x338a7278	6.4469475e-08
33	0xb22ca1f0	-1.0048538e-08
34	0x33e51e70	1.066918e-07
35	0x349bba64	2.9006617e-07
36	0x32b9346c	2.1560673e-08
37	0x33e28f7e	1.0550046e-07
38	0xb29c4161	-1.8190521e-08
39	0x33c9121a	9.3630845e-08
40	0xb2aa7dee	-1.9847871e-08
41	0x33886814	6.351925e-08

fc1.1.weight f4 [42]
0	0x3f624136	0.88380754
1	0x3f4ca914	0.7994549
2	0x3f491f1b	0.7856309
3	0x3f3b565d	0.73178655
4	0x3f57731a	0.84160006
5	0x3f4d1662	0.8011228
6	0x3f479dff	0.7797546
7	0x3f4f6e0d	0.810273
8	0x3f47f8ae	0.7811383
9	0x3f57c557	0.8428549
10	0x3f3ffa87	0.7499165
11	0x3f52226c	0.82083774
12	0x3f3fe653	0.7496082
13	0x3f4816de	0.7815989
14	0x3f5c465a	0.8604485
15	0x3f52c9d1	0.823392
16	0x3f493d25	0.78608924
17	0x3f4f423a	0.8096043
18	0x3f4f9cbb	0.81098527
19	0x3f59b890	0.85047245
20	0x3f3ca3a0	0.7368717
21	0x3f549345	0.83037215
22	0x3f80a90c	1.0051589
23	0x3f638f28	0.88890314
24	0x3f3d0901	0.73841864
25	0x3f52f2ec	0.8240192
26	0x3f553d38	0.8329654
27	0x3f4ad803	0.7923586
28	0x3f63e868	0.890265
29	0x3f4708a6	0.7774757
30	0x3f591ae2	0.84806645
31	0x3f523f1c	0.8212755
32	0x3f42f69c	0.76157546
33	0x3f489086	0.78345525
34	0x3f56fbaf	0.8397779
35	0x3f542ba1	0.8287907
36	0x3f5c5c1a	0.86078036
37	0x3f4ac55e	0.7920741
38	0x3f4adfc8	0.79247713
39	0x3f4b538c	0.7942436
40	0x3f5c8e9c	0.86155105
41	0x3f4000cf	0.75001234

fc1.1.bias f4 [42]
0	0xbd9dfc68	-0.07714158
1	0xbdb83e3e	-0.08996247
2	0xbd8bef2a	-0.06832726
3	0xbd81bafc	-0.063344926
4	0xbd3d2169	-0.04617444
5	0xba04f87e	-0.00050724286
6	0x3ce9dd20	0.028547823
7	0x3d6d1c2b	0.05788819
8	0xbd82ce24	-0.063869745
9	0x3d931d21	0.0718329
10	0xbbea32ec	-0.0071471836
11	0xbcca69c7	-0.024708642
12	0xbd946c4f	-0.07247221
13	0xbd0e416d	-0.034730364
14	0xbda38d86	-0.07985978
15	0x3d390a31	0.045175735
16	0xbcef3e28	-0.029204443
17	0x3dae55e3	0.08512475
18	0x3ced0518	0.028933093
19	0x3ce71044	0.028205998
20	0xb9e7604a	-0.00044131494
21	0x3d66d152	0.056351967
22	0xbd7efd21	-0.06225312
23	0xbc4a276c	-0.0123385005
24	0xbdabd4ea	-0.083902195
25	0xbcf72763	-0.030170148
26	0x3dd96374	0.10614672
27	0xbcf6e187	-0.030136837
28	0xbc8bc1ac	-0.017060123
29	0xbd4402ed	-0.047854353
30	0xbdcaf892	-0.09910692
31	0xbcd34633	-0.02579031
32	0x3dc88664	0.09791258
33	0xbd96b657	-0.07358997
34	0xbccda24e	-0.025101807
35	0xbd05783c	-0.032585368
36	0xbcc8b78c	-0.024501584
37	0xbd52505f	-0.05134618
38	0x3d38ec0e	0.045146994
39	0x3d639dfc	0.055570588
40	0xbd7674a0	-0.060169816
41	0xbd6837a3	-0.056693684

fc1.1.running_mean f4 [42]
0	0xbfae5ef8	-1.3622732
1	0xbef99116	-0.48743504
2	0x3ec39314	0.3819815
3	0x3f85ddf4	1.045836
4	0x3bbeeaa0	0.0058263093
5	0xbf850fc7	-1.039544
6	0x3f40da51	0.75333124
7	0x3fd95524	1.6979108
8	0xbf141f28	-0.5786004
9	0xbf7f67ec	-0.9976795
10	0xbf8d2b0c	-1.1028762
11	0x3e902c3a	0.28158742
12	0xbfa0c13d	-1.2558972
13	0xbe3cd360	-0.18440008
14	0xbde5d8d9	-0.11223001
15	0x3f898ebe	1.0746686
16	0xbe685f58	-0.22692621
17	0xbf63b41c	-0.889467
18	0xbf05ed0e	-0.5231484
19	0xbf446bb0	-0.7672682
20	0xbe9a43df	-0.30129907
21	0x3f8cf632	1.1012633
22	0xbf3ae114	-0.7299969
23	0xbf441c60	-0.76605797
24	0x3f514ba3	0.8175604
25	0xba965a8c	-0.0011471077
26	0x3fbc5bb7	1.4715489
27	0x3eaf2fd5	0.3421618
28	0xbf0573d9	-0.52129894
29	0x3f4d88d0	0.80286884
30	0xbf73a70a	-0.95176756
31	0x3e551710	0.20809579
32	0x3fe680a9	1.8008014
33	0x3de39834	0.11113015
34	0xbf6a2bd8	-0.9147315
35	0x3eec3c7f	0.46139905
36	0xbedca99d	-0.43098155
37	0xbe0e85e6	-0.13918266
38	0xbe4b390f	-0.19845985
39	0x3fabd9e0	1.3425865
40	0xbdf8e094	-0.1215221
41	0xbf76e7a2	-0.96447194

fc1.1.running_var f4 [42]
0	0x3da0d88d	0.07853804
1	0x3d86e513	0.06586661
2	0x3dc7ecb1	0.09761942
3	0x3df20128	0.11816627
4	0x3e1ace74	0.15117818
5	0x3e0151fd	0.12628932
6	0x3dbfbe26	0.0936244
7	0x3db93908	0.09044081
8	0x3dc94dd8	0.09829301
9	0x3de9ba78	0.11412519
10	0x3d846a1e	0.06465553
11	0x3d875afa	0.06609149
12	0x3d9a454d	0.07532749
13	0x3d7b1640	0.061300516
14	0x3d8661e0	0.06561637
15	0x3d9d5c79	0.076836534
16	0x3dcbc677	0.099499635
17	0x3dee763c	0.11643645
18	0x3d6e5129	0.05818287
19	0x3dce33a2	0.10068442
20	0x3e01a6e9	0.12661327
21	0x3dc1977b	0.09452721
22	0x3d8aac48	0.06771141
23	0x3d796880	0.060890675
24	0x3d92738d	0.07150946
25	0x3da3acc8	0.0799194
26	0x3dbb8de3	0.09157922
27	0x3dafeed7	0.08590477
28	0x3d702968	0.058633238
29	0x3e103225	0.14081629
30	0x3db35ce6	0.08757953
31	0x3d7fb3b7	0.06242725
32	0x3e0cb8c4	0.13742357
33	0x3dceefb9	0.10104317
34	0x3e013919	0.12619437
35	0x3d94af84	0.072600394
36	0x3dfabe5e	0.12243341
37	0x3e335117	0.17511402
38	0x3d865138	0.0655846
39	0x3db00746	0.08595137
40	0x3de36fc6	0.111053035
41	0x3d853c61	0.06505657
