state_dict.pth (torch, 59042 bytes, 38 tensors)

conv1.0.weight f4 [32, 1, 3, 3]
0	0xbe67737d	-0.22602649
1	0xbe0f8d1c	-0.14018673
2	0x3defd479	0.11710448
3	0xbe84d1af	-0.25941226
4	0xbdc97f72	-0.098387614
5	0xbdd8be50	-0.10583174
6	0xbd71ae3f	-0.059004065
7	0x3ea116ef	0.3146281
8	0xbe685db1	-0.2269199
9	0x3e57c21e	0.21070144
10	0xbc0e9d55	-0.008704503
11	0xbd868565	-0.06568412
12	0x3d895f72	0.06707658
13	0x3d9a209c	0.07525751
14	0x3e6319e5	0.22177847
15	0xbe1d1e9c	-0.15343708
16	0xbe33d539	-0.17561807
17	0xbe985e30	-0.2975936
18	0x3e5980f5	0.212406
19	0xbe21068e	-0.15725157
20	0xbd93b511	-0.0721227
21	0x3bf7176d	0.0075406344
22	0xbe1f5526	-0.15559825
23	0xbe84ca02	-0.2593537
24	0xbd1d6a0e	-0.03843122
25	0x3e85b90a	0.26117736
26	0xbbcd9fab	-0.0062751374
27	0xbe6333d0	-0.22187734
28	0x3e0972a6	0.13422641
29	0xbdc7f1b1	-0.09762896
30	0xbe775c75	-0.24156363
31	0x3e7a6f68	0.2445656
32	0x3c4b8a1c	0.012423065
33	0x3e5067df	0.20352124
34	0xbe9e6c82	-0.3094216
35	0x3e606e3d	0.21917053
36	0xbe6a9f0e	-0.22912237
37	0x3e23ee1c	0.160088
38	0xbe34653b	-0.17616741
39	0x3caa4bd5	0.020788113
40	0xbe090525	-0.13380869
41	0xbe63233e	-0.22181413
42	0xbe06addb	-0.13152258
43	0x3ea2be59	0.3178585
44	0x3d0c3734	0.034232333
45	0x3ea6078e	0.3242764
46	0xbe93244b	-0.28738627
47	0x3e990538	0.29886794
48	0xbd208605	-0.03919031
49	0x3e212bc2	0.15739349
50	0xbdf4bd84	-0.1195021
51	0xbe44e7fd	-0.19229122
52	0xbe05d594	-0.13069755
53	0xbd469922	-0.048485883
54	0x3e080c77	0.13286005
55	0xbe63a0e0	-0.22229338
56	0x3dcfa322	0.10138537
57	0xbe9656b2	-0.29363018
58	0x3dea7130	0.1144737
59	0xbe0cb60b	-0.13741319
60	0x3e9b031f	0.3027582
61	0x3e81d737	0.25359508
62	0x3d2de702	0.042456634
63	0xbeab6534	-0.3347565
64	0xbe034560	-0.12819433
65	0xbdb80be8	-0.08986646
66	0x3e24acf1	0.16081597
67	0x3e24d037	0.16095053
68	0x3e801858	0.25018573
69	0x3e7c6e0a	0.24651352
70	0xbda5cc4f	-0.080956094
71	0xbe6bded6	-0.23034224
72	0x3cca0d50	0.024664551
73	0x3dea29ea	0.11433776
74	0xbc93eb6e	-0.018056598
75	0xbe9dfd23	-0.3085719
76	0xbc906666	-0.017626952
77	0x3e6fef1c	0.23431057
78	0x3e316799	0.17324676
79	0x3e950f40	0.29113197
80	0xbe9df520	-0.30851078
81	0xbd847b65	-0.06468848
82	0xbd923e87	-0.071408324
83	0xbe4c12a1	-0.19928981
84	0x3def5127	0.116854005
85	0xbe99f257	-0.30067703
86	0x3e7a3767	0.24435197
87	0x3e9e1a77	0.30879566
88	0xbd3677e7	-0.04454794
89	0x3dc604c0	0.09668875
90	0xbe9e5c7f	-0.30929944
91	0x3d6bc46d	0.057560373
92	0x3d86bf1a	0.065794185
93	0xbe190d9d	-0.149466
94	0xbe143b67	-0.14475785
95	0xbe27bf44	-0.16381556
96	0xbe8401cc	-0.2578262
97	0x3e8c3f43	0.27392015
98	0x3e6fb4f0	0.23408866
99	0xbe6d4e70	-0.23174453
100	0xbe50ce64	-0.20391232
101	0x3dc5c1c9	0.09656102
102	0xbdf93853	-0.12168946
103	0x3c65ebc3	0.014033261
104	0x3e79450b	0.24342744
105	0x3e67a228	0.22620451
106	0xbde07f87	-0.10961824
107	0x3dc84b81	0.09780026
108	0x3e1f49b0	0.15555453
109	0x3e56ffdb	0.20996039
110	0x3dd198b9	0.10234208
111	0x3e97079d	0.29497996
112	0x3c329fb4	0.010902334
113	0xbe178b80	-0.14799309
114	0x3d415636	0.047201358
115	0x3d73e0ee	0.05954068
116	0xbe4f893e	-0.20267197
117	0x3ea6bf15	0.3256766
118	0x3d80151b	0.062540255
119	0xbe3c4011	-0.18383814
120	0x3e87e80d	0.26544228
121	0xbe78c7d9	-0.24294986
122	0xbe829ec4	-0.25511754
123	0xbcc50f2e	-0.02405509
124	0x3e891c19	0.2677925
125	0xbe8211f0	-0.2540431
126	0x3e138ba5	0.14408739
127	0xbdde6cdc	-0.10860607
128	0x3d966795	0.073439755
129	0xbdf945bb	-0.12171503
130	0xbe89ab49	-0.26888493
131	0xbc394bb9	-0.011309558
132	0x3de47107	0.11154371
133	0xbd870ba3	-0.065940164
134	0x3e385ec7	0.18004905
135	0x3c786bd7	0.01516243
136	0x3e79b899	0.24386825
137	0x3ddb02ba	0.106938794
138	0x3e6fa337	0.23402105
139	0xbd769d21	-0.060208444
140	0x3d100fe0	0.03517139
141	0xbe1e8278	-0.15479457
142	0xbe2570ca	-0.16156307
143	0x3d9edf42	0.07757427
144	0x3e749919	0.23886527
145	0x3d3f89db	0.04676233
146	0x3d8fa7c5	0.070144214
147	0x3e60000b	0.21875016
148	0x3db33007	0.08749395
149	0xbe1fe9fe	-0.15616605
150	0xbb3c8b11	-0.0028769413
151	0x3a2e1b67	0.00066416565
152	0x3e84e833	0.25958404
153	0x3e40c386	0.18824586
154	0xbdaabd6f	-0.08336913
155	0x3d9b58f4	0.07585326
156	0xbe31cff9	-0.17364492
157	0xbe973ff1	-0.2954097
158	0x3e86ae37	0.2630479
159	0xbdc89587	-0.09794145
160	0x3dc580c5	0.096437015
161	0xbe84c9fb	-0.2593535
162	0xbdb21726	-0.086958215
163	0x3e272e51	0.16326262
164	0x3dcfd1a4	0.10147408
165	0x3dc44095	0.095826305
166	0x3e5c2140	0.21497059
167	0x3d0e04c7	0.034672525
168	0xbbad0090	-0.005279608
169	0xbe7f6829	-0.24942078
170	0x3e20e25d	0.1571135
171	0x3e349ff4	0.17639142
172	0x3ce73e00	0.028227806
173	0x3e02497a	0.12723342
174	0x3ded4e28	0.11587173
175	0x3d91a917	0.071123295
176	0x3dc41af6	0.09575455
177	0x3d9d11df	0.07669424
178	0xbe9be648	-0.30449128
179	0x3e18ab43	0.14909081
180	0xbe30c164	-0.17261273
181	0xbe36cbd0	-0.17851186
182	0xbea1d222	-0.3160563
183	0xbe1b00d0	-0.15137029
184	0x3dff5b7f	0.12468623
185	0x3dfba336	0.122869894
186	0x3b3632ca	0.0027801269
187	0xbe8ae8db	-0.2713078
188	0xbe8b0d2d	-0.2715849
189	0xbe21aa2a	-0.15787569
190	0x3dff4a7d	0.124653794
191	0x3e6a23cb	0.22865216
192	0xbdbd90be	-0.09256123
193	0xbdf9174b	-0.12162646
194	0x3e1a745c	0.1508345
195	0xbe78cb9c	-0.24296421
196	0x3e70f32a	0.2353026
197	0x3e2c5cda	0.16832295
198	0x3dc9a4ec	0.098459095
199	0x3dfd6d0e	0.12374316
200	0x3e25adc6	0.1617957
201	0x3d10fe74	0.035398915
202	0xbdb5f0f6	-0.0888385
203	0xbe89b42d	-0.26895276
204	0x3d227309	0.039660487
205	0xbdbc6358	-0.09198636
206	0x3d74ae7c	0.059736714
207	0xbe37ddf2	-0.17955759
208	0xbda40a5c	-0.080097884
209	0x3e55d45b	0.20881788
210	0x3b1c28ab	0.002382795
211	0x3de5ae8f	0.11214935
212	0xbe119460	-0.14216757
213	0xbe2ef5ac	-0.17085904
214	0xbdae2bf9	-0.08504481
215	0x3e8967a7	0.26836893
216	0xbd80560f	-0.062664144
217	0xbe806d67	-0.25083467
218	0x3e0ff8a0	0.14059687
219	0x3e827870	0.25482512
220	0xbe5ab2c8	-0.21357262
221	0xbd6b187d	-0.0573964
222	0x3d412a0f	0.04715925
223	0x3e0bcfa6	0.1365343
224	0xbe61c4d4	-0.2204774
225	0xbe1ba52b	-0.15199725
226	0x3e1b17d1	0.15145804
227	0x3c7d9e72	0.015479671
228	0xbe51a78e	-0.20474073
229	0xbe81f765	-0.2538406
230	0x3e75aa96	0.23990855
231	0xbcc9a671	-0.024615498
232	0xbe8a6da5	-0.27036777
233	0x3e831cc9	0.256079
234	0xbda910f8	-0.0825519
235	0x3bf25c79	0.0073962775
236	0x3d966ce0	0.07344985
237	0x3e95f849	0.2929099
238	0xbe80f704	-0.25188458
239	0xbcdc168b	-0.026866218
240	0x3e93ba28	0.28852963
241	0xbd83f0ae	-0.064423904
242	0xbdf11fe3	-0.1177366
243	0x3e17466a	0.14772955
244	0xbe3f1b7f	-0.18662833
245	0x3e902137	0.2815034
246	0x3d8a2547	0.06745391
247	0x3e29945f	0.16560505
248	0x3e0b4a0d	0.13602467
249	0x3e8f0714	0.27935088
250	0x3b408676	0.002937702
251	0x3e5c119e	0.21491095
252	0xbe33353b	-0.17500775
253	0xbe9a6070	-0.301517
254	0xbe7c653e	-0.24647996
255	0xbe21aaf3	-0.15787868

conv1.0.bias f4 [32]
0	0xb615f30e	-2.2344207e-06
1	0x3c51f66c	0.012815099
2	0xb53e90b2	-7.0991075e-07
3	0x33be88d3	8.8724526e-08
4	0x32262c64	9.672565e-09
5	0xb46b88f4	-2.1935904e-07
6	0x337c432c	5.8734415e-08
7	0x3c99908d	0.018745685
8	0xbb620d4c	-0.003449279
9	0xb935a50d	-0.00017322991
10	0xbaa77178	-0.0012774905
11	0xb5b94b47	-1.3805483e-06
12	0x3bccb983	0.0062477007
13	0x3908321f	0.00012988642
14	0xb9c98ac0	-0.00038441084
15	0xb4ff9958	-4.7609024e-07
16	0x31027860	1.8985915e-09
17	0xbb32d284	-0.0027286122
18	0xb56759fa	-8.618514e-07
19	0xb9362f94	-0.00017374597
20	0xb9dfa058	-0.0004265334
21	0x34e817cf	4.323069e-07
22	0x3b30b344	0.002696232
23	0x3acd3822	0.0015656988
24	0x34a51cdd	3.0754646e-07
25	0x340d5f4d	1.3166319e-07
26	0xb54be718	-7.595968e-07
27	0xbbfd8650	-0.0077369586
28	0xbb1e973e	-0.0024199034
29	0x34838df2	2.450393e-07
30	0xb618b63d	-2.2755842e-06
31	0x37f14f28	2.8766299e-05

conv1.1.weight f4 [32]
0	0x3f652072	0.8950263
1	0x3f62a953	0.8853962
2	0x3f5c7951	0.86122614
3	0x3f6c593c	0.9232366
4	0x3f626f10	0.8845072
5	0x3f68833b	0.9082524
6	0x3f5ef3e3	0.8709089
7	0x3f68f87f	0.91004175
8	0x3f6c9855	0.9241994
9	0x3f68e467	0.90973514
10	0x3f6c5d52	0.92329895
11	0x3f690949	0.91029793
12	0x3f5ef061	0.8708554
13	0x3f61a59f	0.8814334
14	0x3f664d77	0.8996195
15	0x3f655a1f	0.8959064
16	0x3f5cadcf	0.8620271
17	0x3f693579	0.9109722
18	0x3f69451a	0.91121066
19	0x3f61c96a	0.8819796
20	0x3f5cad68	0.86202097
21	0x3f66df7d	0.90184766
22	0x3f686aa3	0.90787715
23	0x3f691809	0.910523
24	0x3f652ec8	0.8952451
25	0x3f60c162	0.8779508
26	0x3f6060be	0.87647617
27	0x3f5d0e2d	0.86349756
28	0x3f65b284	0.8972552
29	0x3f5f24aa	0.8716532
30	0x3f5e7caf	0.86909
31	0x3f5fe88c	0.87464213

conv1.1.bias f4 [32]
0	0xbc6e2537	-0.01453524
1	0xbcb78609	-0.02240278
2	0xbd045dee	-0.03231614
3	0xbcfe6073	-0.03105185
4	0xbce49c0e	-0.027906444
5	0xbc94cbf5	-0.01816366
6	0xbd1b608f	-0.037933882
7	0x3c9980c9	0.018738167
8	0xbb1218a5	-0.0022292521
9	0x3ccf25b1	0.025286527
10	0x3c5addae	0.013358517
11	0x3741adf8	1.1544202e-05
12	0xbcb5f263	-0.022210306
13	0xbb321e83	-0.002717883
14	0x3c425470	0.011860952
15	0xbb02fdda	-0.0019987733
16	0xba21068b	-0.00061426376
17	0xbc281f79	-0.01026141
18	0x3c8ea39d	0.017412001
19	0xbc74cf0c	-0.014941942
20	0xbd0a831d	-0.033816446
21	0x3c2a7a8e	0.010405196
22	0xbce7d5fe	-0.028300282
23	0xbd14440b	-0.036197703
24	0xbcbb075b	-0.022830656
25	0xbd0faaa9	-0.035074864
26	0xbb68450e	-0.003544155
27	0xbcbaa2b4	-0.022782661
28	0xbce8dbaa	-0.028425056
29	0xbcc5c640	-0.024142385
30	0xbbf6180a	-0.00751019
31	0xbc15d7de	-0.009145705

conv1.1.running_mean f4 [32]
0	0xbee2d96d	-0.44306508
1	0xbd10171d	-0.035178293
2	0xbe2b5c64	-0.16734463
3	0xbccbe89c	-0.02489119
4	0xbe6eebde	-0.23332164
5	0xbc84145a	-0.016122986
6	0x3e1eec2a	0.15519777
7	0x3b67b6a9	0.0035356677
8	0x3df9a1ef	0.121890895
9	0x3c252037	0.010078481
10	0xbe812401	-0.2522278
11	0xbae68c3b	-0.0017589399
12	0x3eb709fd	0.35749808
13	0xbd52c966	-0.0514616
14	0xbdaec538	-0.0853371
15	0x3e715baf	0.23570131
16	0x3ef66d11	0.48130086
17	0xbe421615	-0.18953736
18	0x3e98be0b	0.2983249
19	0x3eb08425	0.34475818
20	0xbf3357ac	-0.7005565
21	0x3e573bc7	0.21018897
22	0x3d08748b	0.03331427
23	0xbcf94c98	-0.03043203
24	0xbe2f2c74	-0.17106801
25	0xbe226224	-0.1585775
26	0x3d245b93	0.040126394
27	0x3f306365	0.68901664
28	0xbeedfb1f	-0.46480653
29	0xba2ed470	-0.0006669229
30	0x3eb21eff	0.34789273
31	0x3e9e4a8a	0.30916244

conv1.1.running_var f4 [32]
0	0x3dad4b31	0.08461607
1	0x3cda9a78	0.026684985
2	0x3cd7647b	0.02629303
3	0x3c93525c	0.017983608
4	0x3d0b40b5	0.033997256
5	0x3cea9deb	0.028639754
6	0x3d108d33	0.035290908
7	0x3d127628	0.035757214
8	0x3c827c69	0.015928464
9	0x3d097067	0.03355446
10	0x3d608533	0.05481453
11	0x3d1032c1	0.035204653
12	0x3d98dbe7	0.07463818
13	0x3d9f2551	0.077707894
14	0x3c5ae35e	0.013359873
15	0x3d025bf1	0.031825963
16	0x3dc32439	0.09528393
17	0x3d14e235	0.03634854
18	0x3d08e0ca	0.0334175
19	0x3d4cfb2b	0.05004422
20	0x3e3754a0	0.17903376
21	0x3d59eb07	0.053202655
22	0x3c84939d	0.016183669
23	0x3cb7c160	0.022431076
24	0x3cd2609c	0.025680833
25	0x3d86f458	0.065895736
26	0x3cc43a8d	0.0239537
27	0x3e38e214	0.18054992
28	0x3dc6ed40	0.097132206
29	0x3d941f6a	0.07232554
30	0x3d6d84c0	0.05798793
31	0x3d8f7d98	0.07006377

conv2.0.weight f4 [16, 32, 3, 3]
0	0x3d60ad59	0.054852817
1	0x3b8abe3a	0.0042341026
2	0xbd3ee4fb	-0.04660509
3	0xbd3854a4	-0.045002595
4	0x39c07424	0.00036707625
5	0x3cd57f3a	0.026061643
6	0x3d744a8f	0.059641417
7	0xbb258bb5	-0.0025260274
8	0xbc0c0f72	-0.008548604
9	0xbcf17e25	-0.029479096
10	0x3d054e01	0.032545093
11	0xbd268acb	-0.040659707
12	0xbc26cab7	-0.010180167
13	0xbd202b5e	-0.03910386
14	0x3c3cd758	0.011525951
15	0xbd5790f3	-0.05262847
16	0xbd306ed5	-0.043074448
17	0x3d036630	0.032079875
18	0x3d2aa5f6	0.04166218
19	0xbd4be038	-0.04977438
20	0x3cc4d25a	0.024026085
21	0xbd3254d7	-0.04353794
22	0xbd21ea47	-0.039530065
23	0xbc9b3a00	-0.018948555
24	0x3d89ed1c	0.06734678
25	0xbd182af0	-0.037150323
26	0x3c334685	0.010942106
27	0x3d2e76ba	0.042593695
28	0xbd26810a	-0.040650405
29	0x3d238c63	0.039928805
30	0xbc8cb6d7	-0.017177029
31	0xbd8c9bc1	-0.06865645
32	0xbd31b342	-0.043383844
33	0x3b9cfdb3	0.0047909855
34	0xbc812e0c	-0.015769027
35	0x3c865b64	0.016401
36	0xbc894325	-0.01675565
37	0xbd0df158	-0.03465399
38	0xbcf3ecf1	-0.029776068
39	0x3d51b699	0.05119953
40	0x3cf10ba2	0.029424492
41	0xbceed50f	-0.029154329
42	0x3d9ca160	0.07647967
43	0x3cd74b0b	0.0262809
44	0x3d0123f2	0.03152842
45	0xba5ac2da	-0.0008345075
46	0x3d3ef637	0.046621528
47	0x3d51dd82	0.051236637
48	0x3c584c08	0.013201721
49	0x3a2a475b	0.0006495618
50	0xbd75976a	-0.059958853
51	0x3a6a3979	0.00089349557
52	0xbbef82c2	-0.0073092887
53	0x39f22aac	0.0004618963
54	0x3d463902	0.04839421
55	0xbcb3f61b	-0.021967938
56	0x3c4fea7c	0.012690183
57	0x38cc33b9	9.737112e-05
58	0xbcf70aaa	-0.030156452
59	0xbb8fb75d	-0.0043858723
60	0xbcf07c9f	-0.029356299
61	0x3bdeda0c	0.0068008956
62	0xbcf26373	-0.029588437
63	0xbd12f19a	-0.03587494
64	0x3d1359de	0.035974376
65	0x3cc9c723	0.024631089
66	0x3cfd4ac8	0.030919448
67	0x3cec3c3e	0.02883732
68	0x3d76cd27	0.060254242
69	0x3d31764c	0.043325707
70	0xbd85168a	-0.064984396
71	0xbc88c9ba	-0.016697753
72	0x3d0fdba0	0.03512156
73	0xbd45d5ec	-0.048299715
74	0xba6bad50	-0.0008990364
75	0x3c9ff2f1	0.019525023
76	0x3d08693e	0.03330349
77	0x3b8c2628	0.0042770095
78	0xbd0832ea	-0.03325168
79	0x3cd776c9	0.026301758
80	0x3d4f0b8c	0.05054812
81	0xbc526e40	-0.012843668
82	0xbab0c045	-0.0013485035
83	0x3d561bde	0.05227267
84	0xbd0325ca	-0.03201846
85	0x3d3d90b9	0.046280596
86	0x3c9549ce	0.01822367
87	0xbbdee206	-0.0068018464
88	0x3d51e993	0.051248144
89	0xbd9efec9	-0.0776344
90	0x3cdc14cd	0.026865387
91	0x3c4bd677	0.012441269
92	0xbadac915	-0.0016692007
93	0x3c1a124e	0.009403778
94	0x3d272ee1	0.04081619
95	0x3bea72b4	0.007154787
96	0xbcab542f	-0.020914165
97	0x3cd51f3f	0.026015876
98	0xbd1e2e7d	-0.038618553
99	0x3cdb1c9b	0.026747039
100	0x3d70dbdb	0.05880342
101	0x3cdabc98	0.026701257
102	0xbba596f3	-0.005053395
103	0x3c81ec93	0.015859878
104	0x3d056524	0.03256716
105	0xbc24214d	-0.010017705
106	0x3c855970	0.016277999
107	0xbd960111	-0.07324422
108	0x3d4b5408	0.049640685
109	0xbd8108ae	-0.06300484
110	0x3d26fe28	0.040769726
111	0xbd5f48ef	-0.054512914
112	0x3cc3d3b7	0.023904664
113	0x3ca88fcb	0.020576378
114	0x3cf3297b	0.029682865
115	0x3d4db32e	0.050219707
116	0xbcc55eec	-0.024093114
117	0xbbbdb2f9	-0.0057891575
118	0xbb7423f6	-0.003725288
119	0x3d744b83	0.059642326
120	0xbd088e8a	-0.03333906
121	0xbd7b05fc	-0.061285004
122	0x3d195afd	0.03744029
123	0xbc5188ac	-0.012788933
124	0x3be32bcb	0.0069327108
125	0x3bb55100	0.0055333376
126	0xbb9ae21d	-0.004726662
127	0xbd24f136	-0.0402691
128	0xbd168481	-0.03674746
129	0x3cdcaaca	0.026936907
130	0xbd71eda2	-0.059064515
131	0xbcf11a7f	-0.02943158
132	0x3d20a693	0.039221358
133	0xbd319c8b	-0.04336218
134	0xbd07065a	-0.03296504
135	0xbd5d9e4b	-0.054106038
136	0xbd8e9b1a	-0.06963177
137	0x3d173a8a	0.03692106
138	0xbdad7b59	-0.08470792
139	0xbd4a1cc8	-0.049343854
140	0xbda1ab42	-0.07893993
141	0xbc9aeca1	-0.018911662
142	0xbb3e0fb9	-0.002900107
143	0xbd39a522	-0.0453235
144	0x3c893f58	0.016753837
145	0x3d561f5a	0.052275993
146	0xbc824d19	-0.015905904
147	0x3c050fe7	0.008121467
148	0x3d293c86	0.041317485
149	0xbd7f7f9a	-0.06237755
150	0xbd19e55d	-0.037572253
151	0xbbd8c869	-0.0066156876
152	0x3d2f8b49	0.042857442
153	0x3d4dbf18	0.05023107
154	0xbcc66f7f	-0.024223087
155	0x3d585ea3	0.052824628
156	0xbd2da5c7	-0.042394426
157	0xbcb55049	-0.02213301
158	0xbcd570b2	-0.026054714
159	0xbd44ccec	-0.04804699
160	0xbd81cf68	-0.06338388
161	0xbd192f5c	-0.03739868
162	0xbc553005	-0.013011937
163	0xbd95f3d0	-0.07321894
164	0x3cc87cb5	0.024473527
165	0xbd0989c8	-0.033578664
166	0xbd1a98d1	-0.037743393
167	0xbd28155b	-0.04103599
168	0xbc05d914	-0.008169431
169	0x3cd4d121	0.025978627
170	0xbd31854d	-0.043340016
171	0xbd52c22f	-0.05145472
172	0xbb8c8666	-0.0042884825
173	0x3d3e1710	0.046408713
174	0xbd4c4497	-0.0498701
175	0xbcbeb033	-0.023277378
176	0x3c71f5eb	0.014768104
177	0x3d102e0f	0.035200175
178	0xbc7f633a	-0.015587622
179	0xbbc274f3	-0.0059343516
180	0x3ce2d3cc	0.027688883
181	0xbc7b7ed5	-0.015350063
182	0xbd38abb1	-0.045085613
183	0xbbe266e3	-0.0069092377
184	0x3bc6e5fe	0.0060698977
185	0xbccfd723	-0.02537114
186	0xbd4c2392	-0.04983861
187	0xbcd68afd	-0.026189322
188	0xbb2ae9c8	-0.0026079286
189	0xba945b7a	-0.0011318766
190	0xbd51a8f1	-0.051186506
191	0x3d71e7b8	0.059058875
192	0x3ca31ed6	0.019912165
193	0xbd49870e	-0.049201064
194	0xbd761d3d	-0.060086478
195	0x3d9ad96a	0.07561
196	0x3bae56c4	0.005320402
197	0x3c588d48	0.013217278
198	0x3d1b003b	0.037842017
199	0xbd2b2903	-0.04178716
200	0x3d1e9f04	0.038725868
201	0xbb651f69	-0.003496135
202	0x3cd853c6	0.026407134
203	0x3b4b6df4	0.003104088
204	0xbd9a34aa	-0.07529576
205	0x3c957e56	0.018248718
206	0xbb4da7b3	-0.0031380474
207	0xbcad1e78	-0.021132693
208	0x3d91fc07	0.071281485
209	0xbcc970f6	-0.024589997
210	0x3d73150f	0.059346255
211	0x3d0133e4	0.031543627
212	0x3c7bd4d6	0.015370568
213	0x3cce2413	0.025163686
214	0x3cda2493	0.026628768
215	0x3d462d9e	0.048383348
216	0x3b023124	0.0019865716
217	0x3d5a10a1	0.053238515
218	0xbd126abe	-0.03574633
219	0x3d4871b5	0.048936564
220	0xbd592f2c	-0.053023502
221	0xbbc7cd56	-0.006097476
222	0x3cb7a666	0.022418212
223	0x3cab9bf9	0.020948397
224	0x3cbec530	0.023287386
225	0x3bc69728	0.0060604997
226	0xbca653ee	-0.020303693
227	0x3cf0cbc0	0.02939403
228	0xbd1b2325	-0.037875313
229	0x3c8a2427	0.016862942
230	0x3d6dca8a	0.058054484
231	0xbd420c41	-0.047374967
232	0x3c9b0556	0.018923443
233	0xbd71354a	-0.05888871
234	0x3c128743	0.008943382
235	0xbb89c4f6	-0.004204388
236	0x3d109f56	0.035308205
237	0x3d8a310a	0.06747635
238	0xbd5280a2	-0.051392205
239	0x3c9c613b	0.019089332
240	0x3d0e8513	0.03479488
241	0x3d0ba718	0.0340949
242	0xbcf70373	-0.030153012
243	0x3a78537e	0.00094728905
244	0xbc82e0e0	-0.01597637
245	0x3d0818eb	0.03322689
246	0xbd3d9f94	-0.046294764
247	0x3d3198e4	0.0433587
248	0x3cfb3e10	0.030669242
249	0x3c7e4e5b	0.015521611
250	0x3d780b59	0.060557697
251	0x3cc25264	0.023720928
252	0x3d3d8c0f	0.04627615
253	0xbc8979c9	-0.016781705
254	0xbc62f266	-0.013851738
255	0x3d34a039	0.044098113

conv2.0.bias f4 [16]
0	0x34b338b4	3.3382605e-07
1	0x357b0cc4	9.3523363e-07
2	0xb5fc675c	-1.8805545e-06
3	0xb2327550	-1.0387637e-08
4	0x34aacae9	3.1812604e-07
5	0xb40b2353	-1.2958235e-07
6	0x35282079	6.263213e-07
7	0xb485a135	-2.4890474e-07
8	0x35de8b67	1.658086e-06
9	0xb405fa68	-1.2477688e-07
10	0x34f9aa0e	4.6503595e-07
11	0xb2107ac0	-8.409813e-09
12	0xb53439f8	-6.713958e-07
13	0x35464265	7.3857365e-07
14	0x3498bd73	2.845005e-07
15	0x35999446	1.1442542e-06

conv2.1.weight f4 [16]
0	0x3f6ce4ed	0.92536813
1	0x3f6f8c2c	0.9357326
2	0x3f60c0c0	0.87794113
3	0x3f724cb5	0.94648296
4	0x3f6eec79	0.9332958
5	0x3f6fbfda	0.9365212
6	0x3f6c682b	0.9234645
7	0x3f6fa62f	0.9361295
8	0x3f748d31	0.9552794
9	0x3f6d12f0	0.9260702
10	0x3f6c3d24	0.92280793
11	0x3f6b5318	0.91923666
12	0x3f6860d9	0.9077278
13	0x3f6a9c41	0.91644675
14	0x3f7022eb	0.9380328
15	0x3f6cb713	0.9246685

conv2.1.bias f4 [16]
0	0x3ba744ed	0.005104652
1	0xbbe49e0d	-0.006976849
2	0xbd2cf2bd	-0.04222368
3	0x3bbbc3a4	0.0057301093
4	0xbadc9d6f	-0.0016831587
5	0x3ac176f9	0.0014760188
6	0xbd0aaa9a	-0.033854105
7	0xbc4782e5	-0.012177204
8	0x3b73d619	0.003720647
9	0x3bfe79b6	0.007765974
10	0xbbf0e7f0	-0.007351868
11	0xbbeae379	-0.00716823
12	0xbbfc49de	-0.0076992353
13	0xbb1aff7e	-0.002365082
14	0x3c11f6fd	0.008908984
15	0xbcc5cc19	-0.024145173

conv2.1.running_mean f4 [16]
0	0xbdef53f9	-0.116859384
1	0xbe963c27	-0.29342768
2	0x3daf2926	0.0855277
3	0xbedef3fc	-0.4354552
4	0xbd987595	-0.07444302
5	0xbf008f2d	-0.5021847
6	0x3d0622a1	0.03274787
7	0x3d56481b	0.05231486
8	0x3e27082a	0.16311708
9	0xbe889cc0	-0.2668209
10	0xbeac3972	-0.33637577
11	0x3ca1cab6	0.01974998
12	0x3e18c4c9	0.14918818
13	0xbe6ebf6b	-0.23315208
14	0x3e18e020	0.14929247
15	0x3d4c5b3b	0.04989169

conv2.1.running_var f4 [16]
0	0x3e345acb	0.1761276
1	0x3e31387d	0.17306705
2	0x3e1384eb	0.14406173
3	0x3e42d894	0.1902793
4	0x3e4b65b8	0.19863021
5	0x3e18bfe3	0.14916949
6	0x3e18ee6e	0.14934704
7	0x3dec3979	0.115343995
8	0x3e17ceba	0.14824954
9	0x3e8ea97f	0.2786369
10	0x3e490078	0.19629085
11	0x3e3b3647	0.18282424
12	0x3e29a273	0.16565876
13	0x3ef3e0b5	0.47632375
14	0x3e842476	0.25809067
15	0x3e21d48c	0.15803736

conv3.0.weight f4 [8, 16, 3, 3]
0	0x3d93b87b	0.07212921
1	0xbc991df0	-0.018691033
2	0xbd82edf5	-0.06393043
3	0xbc2f4bbd	-0.01069921
4	0xbd41610b	-0.047211688
5	0x3d93b863	0.07212903
6	0xbd073c0e	-0.033016257
7	0xbd8fa609	-0.070140906
8	0x3d81f070	0.06344688
9	0xbbfaeed0	-0.007657863
10	0xbd49f7a9	-0.049308453
11	0x3d83ac00	0.06429291
12	0xbcbd5046	-0.023109566
13	0x3d289409	0.041156802
14	0xbd49352a	-0.049122967
15	0xbd7b9344	-0.06141974
16	0xbd26962d	-0.040670563
17	0x3d10efc7	0.03538492
18	0xbbe3fb8c	-0.006957477
19	0x3d524d8c	0.051343486
20	0x3d811434	0.063026816
21	0x3b44f0cb	0.003005075
22	0xbd283396	-0.04106482
23	0x3d5fee0a	0.05467037
24	0x3d40560c	0.04695706
25	0xbcee531d	-0.029092366
26	0xbdbf1409	-0.09329993
27	0xbcc6c4e5	-0.024263809
28	0xbdbaf0d9	-0.09127969
29	0xbd760ce6	-0.060070895
30	0xbd12e048	-0.035858423
31	0xbd140e2e	-0.036146335
32	0x3d370cd6	0.044689976
33	0x3dccd9a3	0.100024484
34	0x3d9adb49	0.075613566
35	0xbd458052	-0.04821808
36	0x3d076f5e	0.033065192
37	0x3db85cf2	0.09002103
38	0xbbda85b2	-0.0066687698
39	0xbc98ce55	-0.018653074
40	0xbda8d052	-0.08242859
41	0xbd973e20	-0.07384896
42	0xbd4ba0f1	-0.049714033
43	0xbc70dc82	-0.014701011
44	0x3ca9c0de	0.020721849
45	0xbca7a5b4	-0.020464756
46	0x3d793af1	0.060847227
47	0x3d616743	0.05503012
48	0x3d214cb6	0.039379798
49	0xbd09bc14	-0.03362663
50	0x3d37b679	0.044851754
51	0xbd53c115	-0.05169781
52	0x3d5e4354	0.054263428
53	0x3d0cd058	0.03437838
54	0x3d89b8c3	0.067246936
55	0xbd8e253d	-0.069406964
56	0x3ce0a4db	0.02742236
57	0x3c4070a4	0.011745606
58	0xbd9d00fa	-0.07666202
59	0xbbc9e15f	-0.0061608995
60	0xbd010a92	-0.03150422
61	0x3d6db71a	0.058035947
62	0xbd5dec2a	-0.0541803
63	0xbd8f8f96	-0.07009809
64	0xbcf4a1be	-0.029862281
65	0x3c67016e	0.014099462
66	0xbc98961b	-0.018626263
67	0xbd1157f4	-0.03548427
68	0x3d5c4070	0.05377239
69	0x3dbe2760	0.09284854
70	0xbdbe31a7	-0.09286814
71	0xbc6e0f0b	-0.014529954
72	0xbc9910ec	-0.018684827
73	0x3c9b3f53	0.018951094
74	0xbd9dd966	-0.07707481
75	0x3da468b2	0.080277815
76	0xbc96c4d6	-0.018404406
77	0xbd8bf5ec	-0.06834015
78	0xbd76eacd	-0.060282517
79	0xbdcf72d2	-0.10129322
80	0x3d863792	0.06553568
81	0xbc809047	-0.015693797
82	0xbd9acff0	-0.07559192
83	0x3d66d5c0	0.05635619
84	0xbd8bd1c4	-0.06827119
85	0x3dd354d3	0.10318913
86	0x3d99e405	0.075141944
87	0xbd61021f	-0.054933663
88	0x3c42ed7d	0.011897442
89	0x3c6de27d	0.014519331
90	0x3d2a5e12	0.04159362
91	0x3c8f60af	0.017502157
92	0x3cf139c7	0.029446496
93	0x3db81365	0.08988074
94	0x3d0eca7a	0.034861065
95	0xbbe941cb	-0.007118439
96	0xbd7d68bf	-0.06186747
97	0xbc998716	-0.018741172
98	0x3d1ee3a6	0.03879132
99	0xbbf0aa35	-0.007344509
100	0xbde2a398	-0.11066359
101	0xbce5ab67	-0.028035833
102	0xbca9015f	-0.020630537
103	0xbbb89ec3	-0.0056341602
104	0x3d7eda1f	0.062219735
105	0xbc49a67a	-0.0123077575
106	0x3cb36307	0.021897806
107	0xbd425f44	-0.047454134
108	0x3d6504ec	0.055912897
109	0xbd85b09c	-0.06527826
110	0x3da946ba	0.08265443
111	0xbd8ceb7b	-0.06880852
112	0x3d4cdf8a	0.05001787
113	0x3caaa4a6	0.020830464
114	0x3d9ccbb9	0.076560445
115	0xbd3c67bf	-0.045997377
116	0xbd9c4cbf	-0.07631826
117	0xbd5cd1a0	-0.05391085
118	0x3d58ea36	0.052957736
119	0xbdc7886a	-0.09742816
120	0xbd43d402	-0.04780961
121	0x3aa05248	0.0012231553
122	0x3d3ff92b	0.046868484
123	0x3d1b460b	0.037908595
124	0x3d7ebe70	0.062193334
125	0x3b90ea9e	0.0044225
126	0x3d6aeede	0.057356708
127	0xbcf0209f	-0.02931243
128	0xbd8e2fc3	-0.069427036
129	0x3d992c32	0.07479133
130	0xbd8b8dc0	-0.06814146
131	0x3ca003fb	0.019533148
132	0xbd1c2e6a	-0.0381302
133	0x3c9ab241	0.018883826
134	0xbcd897fb	-0.026439657
135	0x3d9f9f3b	0.07794043
136	0x3d50ab1f	0.050944444
137	0xbcd9b900	-0.026577473
138	0x3d47e485	0.048801918
139	0xbd9e078b	-0.077162825
140	0xbc3f1ade	-0.0116641205
141	0xbda6f5de	-0.08152364
142	0xbd82b067	-0.06381302
143	0xbd1b60fe	-0.037934296
144	0xbd40f669	-0.047109995
145	0x3d4b66a1	0.04965842
146	0xbc7658f3	-0.015035856
147	0xbca6b4bf	-0.020349858
148	0x3c7434ac	0.014905136
149	0x3d280ce5	0.041027922
150	0xbd67a46a	-0.05655328
151	0x3c9351cd	0.017983342
152	0x3d7328f4	0.059365228
153	0xbc86268e	-0.016375806
154	0xbd727c97	-0.05920085
155	0xbbec0e77	-0.007203873
156	0xbd28e7ba	-0.041236617
157	0x3dd4eabc	0.103963345
158	0xbd9c7792	-0.07639994
159	0x3d0bb756	0.03411039
160	0xbdb6af6a	-0.08920176
161	0x3c10f6ef	0.008847936
162	0xbc259b44	-0.010107819
163	0x3d54041a	0.051761724
164	0xbd27c7c7	-0.040962007
165	0x3da2cc06	0.07949071
166	0xbcbfec6a	-0.02342816
167	0x3d71f159	0.059068058
168	0xbd61d9cc	-0.055139348
169	0xbcd4ae93	-0.02596215
170	0xbca34af6	-0.019933205
171	0xbbbc9cc8	-0.0057559945
172	0xbd7a6feb	-0.06114189
173	0x3c98fa0a	0.018673915
174	0xbd9dee7c	-0.07711503
175	0xbbedf192	-0.0072614634
176	0x3d7951d4	0.060869053
177	0x3d76d9e5	0.060266394
178	0xbd270b27	-0.04078212
179	0xbd1ca41a	-0.038242437
180	0x3a2971f5	0.00064638193
181	0xbd87fce5	-0.06640033
182	0x3d9a7521	0.07541872
183	0xbd1ef47e	-0.038807385
184	0x3cf90756	0.030399006
185	0x3d90ba29	0.07066757
186	0xbd20e180	-0.039277554
187	0xbd9afebc	-0.07568118
188	0x3cff79b7	0.031185968
189	0xbd453c87	-0.048153426
190	0x3dab3758	0.08360165
191	0x3c92bd35	0.017912487
192	0xbd8c4c0b	-0.068504415
193	0x3d832f85	0.06405548
194	0x3ce01ad7	0.027356548
195	0xbc84b18b	-0.01619794
196	0x3d3dfe1a	0.04638491
197	0x3ad37a74	0.0016134516
198	0xbd5ae9dd	-0.053445686
199	0x3d4d24d9	0.05008397
200	0x3d878c5c	0.06618568
201	0x3d9fd870	0.07804954
202	0x3d55f9c5	0.052240152
203	0xbbb9551a	-0.005655897
204	0x3c7f0716	0.015565654
205	0x3cc66436	0.024217706
206	0xbd50de53	-0.050993275
207	0xbd5625ee	-0.052282266
208	0x3c2c7aaa	0.010527292
209	0xbd94b273	-0.07260599
210	0xbd795345	-0.060870428
211	0x3d80d8e1	0.06291366
212	0xbc11aab7	-0.008890799
213	0x3c62d71a	0.0138452295
214	0x3b6a3c31	0.0035741443
215	0x3b90dbd2	0.004420736
216	0x3d6eacb6	0.05827018
217	0xbd45896a	-0.04822675
218	0xbd2a1fef	-0.04153436
219	0xbc7d41d1	-0.015457586
220	0xbdcb0503	-0.09913065
221	0x3d9925e1	0.07477928
222	0x3c89a779	0.01680349
223	0xbcce59e6	-0.025189351
224	0xbd7a7bab	-0.061153095
225	0xbd980509	-0.074228354
226	0x3d5653c4	0.05232598
227	0xbd8c8dcf	-0.06862985
228	0xbd2a5294	-0.04158266
229	0x3c70eeea	0.014705399
230	0x3b824b91	0.0039762934
231	0x3d518aaa	0.05115763
232	0xbd2fee0b	-0.042951625
233	0x3db847b1	0.08998049
234	0xbc41b8c1	-0.011823834
235	0xbc9d8038	-0.019226179
236	0x3d984f1f	0.07436966
237	0xbda18b6f	-0.07887923
238	0x3cb34cfe	0.021887299
239	0xbd503492	-0.050831385
240	0x3d827618	0.06370181
241	0xbc7b80a2	-0.015350493
242	0xbd79b28a	-0.060961284
243	0xbd832cf1	-0.06405056
244	0x3ba1b600	0.004935026
245	0x3d73829e	0.059450738
246	0x3ddb4dbe	0.107081875
247	0x3d61ed91	0.0551582
248	0xbda1124c	-0.07864818
249	0xbd9f649e	-0.07782863
250	0xbd022e88	-0.031782657
251	0x3d9a3cf2	0.07531156
252	0x3c8b3db2	0.016997192
253	0x3c81d5f1	0.015849086
254	0xbd6196d9	-0.0550755
255	0xbcd68dc8	-0.026190653

conv3.0.bias f4 [8]
0	0x34d04eb2	3.8800277e-07
1	0x35f025ef	1.7892434e-06
2	0x353f2bf6	7.1217016e-07
3	0x351a9e8a	5.7600175e-07
4	0xb5cf6dfc	-1.5454712e-06
5	0xb44258e6	-1.8099999e-07
6	0x35bee0eb	1.4221563e-06
7	0x35d2ed3d	1.5715265e-06

conv3.1.weight f4 [8]
0	0x3f702bda	0.9381691
1	0x3f70d3c4	0.9407313
2	0x3f7b28f0	0.9810934
3	0x3f7647e4	0.96203446
4	0x3f72b787	0.9481129
5	0x3f6934db	0.91096276
6	0x3f72ff93	0.94921225
7	0x3f72a340	0.9478035

conv3.1.bias f4 [8]
0	0xbd038ef9	-0.03211877
1	0xbcc1e77f	-0.023669956
2	0x3cc3d0df	0.023903308
3	0x3a934651	0.0011236166
4	0xbb9632d8	-0.0045836978
5	0xbcc44ecd	-0.023963356
6	0xbc238bfb	-0.009982104
7	0x3ba8c94b	0.005150949

conv3.1.running_mean f4 [8]
0	0xbe280bbb	-0.16410725
1	0xbd525788	-0.051353008
2	0x3c5e388f	0.013563289
3	0xbe59f1ff	-0.2128372
4	0x3ca41f13	0.020034349
5	0x3dbc08d1	0.09181369
6	0xbda8f585	-0.08249954
7	0x3daa461e	0.08314155

conv3.1.running_var f4 [8]
0	0x3ddbcd28	0.1073249
1	0x3da17ed9	0.078855224
2	0x3e532276	0.20618615
3	0x3e09e379	0.1346568
4	0x3dba4ceb	0.09096702
5	0x3e25bb8b	0.16184823
6	0x3e37f5ab	0.17964809
7	0x3def7053	0.11691346

conv4.0.weight f4 [4, 8, 3, 3]
0	0xbd7dcd6a	-0.061963476
1	0xbda1f747	-0.079084925
2	0x3bb077eb	0.005385389
3	0x3da3733e	0.07980965
4	0x3db7c4d5	0.089730896
5	0x3dc7c04b	0.09753474
6	0xbd8733ff	-0.06601714
7	0xbd08258c	-0.033238932
8	0x3da9f59b	0.08298799
9	0x3dd4c67b	0.1038942
10	0x3c9e1d69	0.019301133
11	0xbd88cec0	-0.066800594
12	0xbd2b0d54	-0.041760758
13	0xbd0c3fe0	-0.034240603
14	0xbd73a1e4	-0.059480563
15	0x3d4b27ad	0.049598385
16	0x3da004b6	0.078133985
17	0x3d3274be	0.043568365
18	0x3ba612bf	0.0050681527
19	0x3e088382	0.13331416
20	0xbcdfe233	-0.02732954
21	0x3d2779fe	0.040887825
22	0x3dcb2940	0.09919977
23	0x3d1673a5	0.03673138
24	0x3c5302f7	0.012879125
25	0xbd05ef8c	-0.032699153
26	0xbd3c628a	-0.04599241
27	0x3df3c268	0.119023144
28	0xbdd84d08	-0.105615675
29	0xbde4feb5	-0.11181394
30	0xbb3eed15	-0.002913301
31	0xbc5497a4	-0.012975607
32	0xbd9af830	-0.07566869
33	0x3c5be5d0	0.013421491
34	0x3dc41150	0.095736146
35	0x3d8fb6ae	0.07017265
36	0x3d246b6f	0.04014152
37	0xbe0eb2dc	-0.13935417
38	0x3c9251da	0.017861295
39	0x3d7aa5fd	0.061193455
40	0x3c298423	0.010346445
41	0xbdca4259	-0.09875936
42	0xbd84b1c4	-0.064792186
43	0x3c07bbe1	0.00828454
44	0xba1bf4de	-0.0005949269
45	0xbd84b792	-0.06480326
46	0x3d89ee78	0.067349374
47	0xbdcfcb1e	-0.101461634
48	0xbccd8135	-0.025086025
49	0xbd06470e	-0.032782607
50	0xbd998015	-0.07495133
51	0x3d1add7a	0.037808873
52	0xbd258ec8	-0.04041937
53	0x3d9ee3e3	0.0775831
54	0xbc648cc9	-0.013949581
55	0xbda89634	-0.08231774
56	0xbd03faca	-0.032221593
57	0xbd524967	-0.051339533
58	0xbdaf0318	-0.08545512
59	0x3de328f7	0.11091798
60	0x3d822b38	0.063558996
61	0xbbe0007a	-0.0068359943
62	0x3e0065d2	0.12538841
63	0x3c55c29a	0.013046885
64	0xbdbb4d93	-0.091456555
65	0x3cb8c647	0.022555484
66	0xbc6ca8dd	-0.014444557
67	0xbd072be8	-0.033000857
68	0x3b7ce3f3	0.0038588017
69	0xbcf3c6a1	-0.0297578
70	0x3d962aca	0.0733238
71	0xbdb29f7c	-0.087218255
72	0xbd415991	-0.047204558
73	0xbc954108	-0.018219486
74	0xbdc16015	-0.09442154
75	0x3c9e8cbf	0.019354222
76	0xbd5b4aca	-0.05353812
77	0xbe169665	-0.14705808
78	0xbdb18b84	-0.086691886
79	0xbd772e27	-0.06034675
80	0xbd8d548b	-0.06900891
81	0x3cda55a7	0.02665217
82	0x3dbc02a9	0.09180195
83	0xbdead4ff	-0.11466407
84	0x3dc6b2ce	0.09702073
85	0x3d0f2346	0.03494575
86	0x3dd98eb0	0.106229186
87	0x3bc6e9a4	0.0060703326
88	0xbdebb034	-0.115082175
89	0x3c128f74	0.008945335
90	0x3dcbeda9	0.099574395
91	0xbd6ecb57	-0.05829939
92	0xbde35443	-0.11100056
93	0x3dfcc646	0.12342505
94	0xbd2e8534	-0.0426075
95	0x3da58e04	0.08083728
96	0x3dcf1e6f	0.101132266
97	0x3d816b7b	0.063193284
98	0x3afb7b1b	0.0019186469
99	0xbc83570c	-0.016032718
100	0x3d1dbfc5	0.038512964
101	0x3d8d88b0	0.06910837
102	0xbdba69f4	-0.0910224
103	0x3dc5cffb	0.0965881
104	0xbddfb6fe	-0.10923575
105	0x3dbd8bc2	0.09255172
106	0xbd5dd6ec	-0.054160044
107	0x3dd5dd2a	0.10442574
108	0xbd283e54	-0.041075066
109	0x3c981ae2	0.018567506
110	0xbdd3064b	-0.10303935
111	0x3d3a7b3c	0.04552768
112	0xbcb232e5	-0.021752784
113	0xbd960e70	-0.073269725
114	0xbd45b84d	-0.048271466
115	0x3db6cb0c	0.08925447
116	0x3caf8ca5	0.02142937
117	0xbcf47dc9	-0.029845135
118	0xbda5542e	-0.080726966
119	0xbd88485f	-0.06654429
120	0xbe03e7cd	-0.12881394
121	0xbd395c10	-0.045253813
122	0x3d5fb437	0.054615226
123	0xbd66046d	-0.056156565
124	0x3ddb1cf1	0.106988795
125	0x3d815b62	0.06316258
126	0xbc9efff4	-0.019409157
127	0x3d15ed3d	0.0366032
128	0x3d4aa6ef	0.049475607
129	0xbdb6d18b	-0.08926686
130	0x3da44a51	0.08021987
131	0xbd4f6266	-0.05063095
132	0x3d6d5c64	0.05794944
133	0x3bd14f92	0.0063876593
134	0xbd45e75e	-0.048316352
135	0x3a80ab43	0.0009816665
136	0x3d98f312	0.07468237
137	0x3d61483b	0.055000525
138	0xbcaab989	-0.020840423
139	0x3dd6363b	0.104595624
140	0xbdbf0a9b	-0.09328195
141	0x3db6bc95	0.08922688
142	0xbdc3aaf6	-0.095540926
143	0x3c09d96f	0.008413657
144	0x3db5a0f0	0.08868587
145	0xbd510b22	-0.051036008
146	0x3ddfdda9	0.1093095
147	0x3b8bfc51	0.004272022
148	0xbdf0112e	-0.11722027
149	0xbd17d948	-0.03707245
150	0x3d0f5801	0.034996036
151	0xbc32dbdb	-0.010916675
152	0xbd06cabf	-0.032908197
153	0xbd94df20	-0.0726912
154	0x3db429b5	0.087970175
155	0x39fa9aff	0.00047799197
156	0xbd0acfcf	-0.033889588
157	0xbdae972b	-0.08524927
158	0x3bf1e47c	0.007381974
159	0xbd15b6c9	-0.03655127
160	0xbcd45971	-0.025921555
161	0x3de8423c	0.11340758
162	0xbd92f0ef	-0.07174861
163	0x3d5ff381	0.054675583
164	0x3d244590	0.040105402
165	0xbe168c96	-0.14702067
166	0xbcf472c1	-0.029839875
167	0xbd2b348e	-0.041798167
168	0x3c812cb3	0.015768385
169	0xbd71eed4	-0.059065655
170	0xbc0783b5	-0.0082711475
171	0xbe0f4cda	-0.1399416
172	0x3db88438	0.09009594
173	0x3db66084	0.08905128
174	0x3d736e0b	0.059431117
175	0xbc4ed693	-0.012624401
176	0x3c968f62	0.018378917
177	0x3cea025d	0.02856558
178	0xbd7e0f43	-0.062026273
179	0xbd4e9e53	-0.05044396
180	0x3e194062	0.14965966
181	0xbdae8d47	-0.0852304
182	0x3d932455	0.07184664
183	0x3b0ba987	0.0021310763
184	0xbd59b8bf	-0.053154703
185	0xbdeeec4a	-0.11666162
186	0x3c18a1bf	0.009315907
187	0x3d0426f2	0.032263704
188	0x3d0e1eee	0.034697466
189	0xbd65b65b	-0.05608211
190	0x3d6a2f1a	0.057173826
191	0xbd10e765	-0.035376925
192	0x3d56b378	0.05241725
193	0xbc998db5	-0.018744329
194	0x3dbe21e9	0.092838116
195	0x3d66d593	0.056356024
196	0xbd926125	-0.07147435
197	0xbda97d43	-0.08275845
198	0xbce4bfa5	-0.027923414
199	0x3d85de90	0.06536591
200	0x3daf1c8e	0.08550368
201	0xbccb4501	-0.024813177
202	0x3d2540e0	0.040345073
203	0xbcc954d6	-0.024576586
204	0xbcba46d6	-0.022738855
205	0xbdb66cc1	-0.08907462
206	0x3dd9e6b2	0.10639705
207	0xbd722033	-0.05911274
208	0x3dc9a4ef	0.09845912
209	0xbd92f585	-0.071757354
210	0xbc6e0b52	-0.014529066
211	0xbdc0850a	-0.09400375
212	0xbd9ab97f	-0.07554912
213	0xbcdeb686	-0.027186643
214	0xbd8932d7	-0.0669915
215	0x3d70935e	0.05873429
216	0x3d6a1478	0.057148427
217	0xbe011f72	-0.12609652
218	0xba3c611f	-0.0007186103
219	0xbc0e56f2	-0.008687722
220	0x3d23def3	0.040007543
221	0xbcef04f8	-0.029177174
222	0xbe0b18f3	-0.13583736
223	0xbd1b5542	-0.037923105
224	0x3be5ea74	0.0070164744
225	0x3dd43e0a	0.103633955
226	0xbdbf21cc	-0.09332618
227	0xbd6542a4	-0.055971757
228	0x3cb6d931	0.022320362
229	0x3e0cd947	0.1375476
230	0x3dd50026	0.10400419
231	0x3b75526a	0.0037433156
232	0xbc4fe733	-0.0126893995
233	0x3d41939f	0.047259923
234	0xbdb5de26	-0.08880262
235	0xbc391e5f	-0.011298745
236	0x3d9429f3	0.07234564
237	0xbc75ca23	-0.015001806
238	0xbe03c32a	-0.12867418
239	0x3dbf7fbe	0.09350537
240	0x3d3fea92	0.046854563
241	0x3dd5c57e	0.10438059
242	0xbdbc6fc5	-0.09201006
243	0x3d263e6f	0.040586885
244	0x3d981a28	0.07426864
245	0x3c9ad412	0.018899951
246	0xbdbcfe02	-0.09228136
247	0xbd93d86a	-0.07219012
248	0xbdad6287	-0.08466058
249	0xbddfbef7	-0.109250955
250	0x3cba3251	0.02272907
251	0xbd57d464	-0.052692786
252	0x3c7466b8	0.014917068
253	0x3d9ed7ff	0.07756042
254	0xbbd6ca22	-0.006554858
255	0xbe1f3a31	-0.15549542

conv4.0.bias f4 [4]
0	0x33c839bc	9.3237276e-08
1	0x345dde7d	2.066317e-07
2	0xb59ca9dc	-1.1672341e-06
3	0x35843638	9.850546e-07

conv4.1.weight f4 [4]
0	0x3f7cfda5	0.9882453
1	0x3f68c3e0	0.9092388
2	0x3f715036	0.9426302
3	0x3f6bfd3e	0.9218329

conv4.1.bias f4 [4]
0	0xbdc1b56e	-0.09458433
1	0xbc724cf6	-0.014788857
2	0x3adcf37c	0.0016857232
3	0x3d06f051	0.032944027

conv4.1.running_mean f4 [4]
0	0x3d25d0c3	0.040482294
1	0xbb9cdd06	-0.0047870902
2	0xbe1375e1	-0.14400436
3	0xbe38a27d	-0.18030734

conv4.1.running_var f4 [4]
0	0x3db8a658	0.090161026
1	0x3dc5c611	0.09656919
2	0x3d36aefa	0.044600464
3	0x3e10e25b	0.14148848

fc1.0.weight f4 [42, 84]
0	0xbc02d7b4	-0.007985998
1	0x3d3ce9a6	0.046121262
2	0x3d0aea1e	0.033914678
3	0xbd35da39	-0.044397566
4	0xbbbb08ad	-0.0057078213
5	0xbc39c033	-0.011337328
6	0x3d6ed6b3	0.058310222
7	0xbb926a3f	-0.004468232
8	0xbd55b566	-0.05217495
9	0xbd25fdc2	-0.040525205
10	0xbc8f142b	-0.017465672
11	0xbd7a74f0	-0.061146677
12	0x3ce565c7	0.028002633
13	0xbd874dee	-0.06606661
14	0x3d2cd284	0.04219295
15	0xbbba42f3	-0.0056842505
16	0xbb7f7c23	-0.0038983903
17	0x3ce2461b	0.02762132
18	0x3dc350a0	0.095368624
19	0x3c06a3fc	0.008217808
20	0x3db04b27	0.08608084
21	0x3cad7d7d	0.021178002
22	0xbc1b1592	-0.009465592
23	0x3d78f5fa	0.060781457
24	0x3b20a3fa	0.00245118
25	0x3cbeef01	0.023307325
26	0xbcafeb31	-0.021474453
27	0x3dc05267	0.09390717
28	0xbd928845	-0.071548976
29	0xbdccb5df	-0.09995627
30	0xbb1c00b8	-0.002380414
31	0x3d69a843	0.057045233
32	0xbd9a818f	-0.075442426
33	0xbb4cbc31	-0.00312401
34	0xbd913e43	-0.070919536
35	0x3c2e08e1	0.010622234
36	0x3d06383a	0.032768466
37	0xbc990ef1	-0.018683882
38	0xbb86442b	-0.0040974817
39	0xbd192526	-0.037388943
40	0x3b273b7c	0.0025517633
41	0xbdf467ff	-0.11933898
42	0x3d77596c	0.060388014
43	0x3d2573d6	0.040393673
44	0x3cd5da84	0.026105173
45	0x3d076974	0.033059552
46	0x3d47b7f2	0.04875941
47	0x3d49799f	0.049188253
48	0xbbd5c332	-0.0065235132
49	0xbc7f47d4	-0.01558109
50	0xbe19e225	-0.15027674
51	0x3d44fc7c	0.04809235
52	0xbd1e527d	-0.038652886
53	0x3b46b68f	0.0030321216
54	0x3d1705bf	0.036870714
55	0x3ca86afa	0.020558823
56	0xbd3b7566	-0.045766257
57	0xbd62d6b0	-0.055380523
58	0x3db3c982	0.08778669
59	0xbc273980	-0.01020658
60	0x3d561504	0.052266136
61	0xbcc2fe52	-0.02380291
62	0xbd6b2d7d	-0.057416428
63	0xbdb9f174	-0.09079257
64	0x3c212cf8	0.009837382
65	0xbba6bb02	-0.005088211
66	0xbac025ee	-0.0014659741
67	0xbd4486a9	-0.047979984
68	0x3d077581	0.033071045
69	0xbcbb2852	-0.022846375
70	0xbb53c480	-0.0032313168
71	0x3d61c8d6	0.055123173
72	0xbd12f72c	-0.035880253
73	0xbdaa00f6	-0.083009645
74	0xbdb70fb8	-0.08938545
75	0xbd9da377	-0.07697194
76	0x3b64f96e	0.003493871
77	0x3d1c6429	0.038181458
78	0xbc0d26ec	-0.008615237
79	0xbcba34b9	-0.022730218
80	0x3ccf06c0	0.025271773
81	0x3d496002	0.049163826
82	0x3bbe8977	0.005814727
83	0xbd36981a	-0.04457865
84	0x3d0b03a9	0.033939037
85	0xbd735346	-0.059405588
86	0xbb4c8c10	-0.0031211413
87	0x3db1db42	0.08684398
88	0x3b9b933b	0.004747776
89	0xbd58487d	-0.052803505
90	0x3d147e07	0.036253
91	0x3ab2a191	0.0013628473
92	0x3d04bef2	0.032408662
93	0xbd42932f	-0.047503646
94	0xbd684ab4	-0.056711867
95	0xbd6cfb2e	-0.05785673
96	0x3d28598a	0.041101016
97	0xbcfa3d64	-0.030546851
98	0xbd59a329	-0.053134117
99	0x3d84c479	0.06482787
100	0x3dc007cc	0.09376487
101	0xbdd67e6a	-0.1047333
102	0x3d8b29b4	0.067950636
103	0x3d3a6352	0.045504875
104	0xbdab80c0	-0.083741665
105	0xbcaef737	-0.021358116
106	0xbce082a6	-0.027406048
107	0x3d19f6d4	0.03758891
108	0x3a8dbe8e	0.0010814236
109	0xbd68ac94	-0.05680521
110	0xbc9b3fd4	-0.018951334
111	0xbd9b3ce9	-0.07579977
112	0x3d2a4750	0.041571915
113	0xbc170db6	-0.009219578
114	0xbd815474	-0.06314936
115	0xbdc3b866	-0.095566556
116	0xbc1e3aca	-0.009657571
117	0x3dc544f1	0.0963229
118	0xbd9f3bdc	-0.07775089
119	0xbd721aec	-0.059107706
120	0x3d3da533	0.046300124
121	0xbd2c8e41	-0.04212785
122	0x3d1d714f	0.038438138
123	0xbc0147f8	-0.007890694
124	0x3c99ecc6	0.01878966
125	0xbd953b47	-0.07286697
126	0xbb4780d7	-0.0030441785
127	0x3b897a8c	0.004195517
128	0xbdf0a0bf	-0.1174941
129	0x3db44fec	0.088043064
130	0xbd61f651	-0.055166546
131	0x3d1f78a1	0.0389334
132	0x3df319fc	0.118701905
133	0x3dc5be34	0.09655419
134	0x3c1a9658	0.009435259
135	0x3d35dac3	0.04439808
136	0x3dc8db86	0.09807496
137	0xbcd9f1c1	-0.026604535
138	0x3b1ba141	0.0023747238
139	0xbd66b96f	-0.056329187
140	0xbb93f95e	-0.004515811
141	0x3d875424	0.066078454
142	0x3d99af14	0.075040966
143	0xbd894c05	-0.06703953
144	0xbc838c5f	-0.016058145
145	0x3d50949e	0.050922982
146	0x3db76c06	0.08956151
147	0x3d6dbcc0	0.058041334
148	0xbdaed629	-0.085369416
149	0x3db0d2ec	0.0863398
150	0x3882d806	6.2391206e-05
151	0xbc8b8497	-0.017030997
152	0xbdcc6f9c	-0.09982225
153	0xbdb5afc1	-0.08871413
154	0xbc8ade55	-0.01695172
155	0x3d75c232	0.059999652
156	0x3d09e3b9	0.03366444
157	0x3c51adc8	0.01279778
158	0xbd758ffd	-0.05995177
159	0x3d83e1cd	0.064395525
160	0x3cc4d292	0.024026189
161	0x3d29dd22	0.041470654
162	0xbd77168c	-0.060324237
163	0xbd495c7a	-0.04916046
164	0xbcf0fffa	-0.029418934
165	0xbdb1fc55	-0.08690707
166	0x3d925797	0.07145613
167	0xbc5fd23f	-0.013660966
168	0x3dbf7368	0.09348184
169	0x3d94d424	0.07267025
170	0xbdaed83e	-0.08537339
171	0xbd091601	-0.03346825
172	0xbcbbfdff	-0.022948263
173	0x3c876166	0.016525935
174	0xbd9c367b	-0.07627579
175	0x3d1d1cd4	0.03835757
176	0xbd1890e2	-0.037247546
177	0xbbbf22d2	-0.0058330083
178	0xbc504767	-0.012712336
179	0x3cae213e	0.021256085
180	0xbdbf489a	-0.093400195
181	0xbcf9daed	-0.0304999
182	0xbdaaa10b	-0.08331498
183	0x3db7b571	0.08970154
184	0x3bbbd7a0	0.0057324916
185	0xbdb1bcf5	-0.08678619
186	0xbc89002f	-0.01672372
187	0xbd894bbd	-0.06703899
188	0x3cc253c5	0.023721585
189	0xbd02defa	-0.03195093
190	0x3b5710d0	0.0032816418
191	0xbd8c9d32	-0.0686592
192	0xbd9b247d	-0.07575319
193	0x3dac183a	0.08403058
194	0xbc3a2eab	-0.011363666
195	0x3d9922be	0.0747733
196	0x3cf37d9e	0.029722985
197	0xbdac57a2	-0.08415152
198	0x3d2aa6f6	0.041663133
199	0xbd50b933	-0.05095787
200	0xba99207c	-0.0011682655
201	0xbd6f6e4b	-0.058454793
202	0xbb09a46b	-0.0021002542
203	0xbd97a50b	-0.07404526
204	0xbdea1a94	-0.114308506
205	0xbd886f10	-0.066618085
206	0x3d3a6a50	0.045511544
207	0xbb0de51f	-0.002165146
208	0xbcded468	-0.027200893
209	0x3ca5624b	0.020188471
210	0x3d4323c2	0.047641523
211	0xbd9a8914	-0.07545677
212	0xbd78ced7	-0.060744133
213	0x3ceba731	0.028766247
214	0x3d515743	0.05110861
215	0xbd016bac	-0.031596825
216	0xbd3309c2	-0.043710478
217	0xbd821cda	-0.06353159
218	0xbce25f5f	-0.027633367
219	0xbd1b3e0a	-0.037900962
220	0x3d24aaed	0.04020207
221	0xbcb56a25	-0.02214534
222	0xbe0ec9c1	-0.1394415
223	0x3bf24ada	0.007394177
224	0x3dc8a2a6	0.09796648
225	0xbd29501c	-0.041336164
226	0xbd6d9f95	-0.058013517
227	0x3d60665a	0.05478511
228	0xbd38fa09	-0.045160327
229	0x3cd1a434	0.025590993
230	0xbd70c340	-0.058779955
231	0xbacc1d3f	-0.0015572681
232	0xbca85ead	-0.020552957
233	0x3d6df89c	0.05809842
234	0xbd3f1a76	-0.046656094
235	0x3ce9a00a	0.028518695
236	0x3dbf3334	0.09335938
237	0x3c841b2f	0.016126243
238	0xbcc152e9	-0.023599105
239	0xbd68e371	-0.05685753
240	0x3c792cfe	0.015208481
241	0xbd6adcec	-0.057339594
242	0xbd39ad57	-0.045331325
243	0x3cef886d	0.029239858
244	0xbcca812f	-0.024719803
245	0xbca5fde2	-0.020262662
246	0xbc6c8a2e	-0.0144372415
247	0x3c05aaeb	0.008158426
248	0x3d87d039	0.06631512
249	0xbdb6112e	-0.088899955
250	0xbdbb05ef	-0.09131991
251	0x3c4174ad	0.011807603
252	0xbd76097d	-0.060067642
253	0x3d0941ee	0.03351014
254	0xbd61fad2	-0.05517084
255	0xbbf271ca	-0.0073988186

fc1.0.bias f4 [42]
0	0x335d2c24	5.1495718e-08
1	0x33151295	3.4708666e-08
2	0x31dc3c5e	6.4097057e-09
3	0x33d2143c	9.782568e-08
4	0x32ded8a2	2.5942715e-08
5	0x3320dc3c	3.7453205e-08
6	0xb3c573fa	-9.1946234e-08
7	0x338c49b8	6.5326674e-08
8	0xb3186b94	-3.54881e-08
9	0x342e2858	1.621969e-07
10	0xb31abc55	-3.6027206e-08
11	0xb305b2d2	-3.112911e-08
12	0xb489e38c	-2.56838e-07
13	0x31f75314	7.198091e-09
14	0x33487ec3	4.6681418e-08
15	0x31d027af	6.0581082e-09
16	0x338b1a31	6.477456e-08
17	0xb2b6ff6b	-2.130374e-08
18	0xb28893ae	-1.589964e-08
19	0x32cb1fb6	2.364673e-08
20	0xb3fea4c7	-1.18577695e-07
21	0x340876a9	1.2709155e-07
22	0x346c3c4d	2.200115e-07
23	0xb28f86fc	-1.6708775e-08
24	0x33c50238	9.173931e-08
25	0x330ff3ea	3.351662e-08
26	0x32278ac8	9.752235e-09
27	0xb2abe8cf	-2.001289e-08
28	0x33337ec6	4.1791985e-08
29	0xb3afc9e2	-8.185795e-08
30	0xb318ec58	-3.560521e-08
31	0xb1a2f6e9	-4.742891e-09
32	0x32bfe920	2.234134e-08
33	0xb348b695	-4.6732186e-08
34	0x31e64520	6.7017396e-09
35	0xb2d5d494	-2.4893133e-08
36	0x31255820	2.4060753e-09
37	0x328fca80	1.6739477e-08
38	0x34653e17	2.1349875e-07
39	0x32b40606	2.0957497e-08
40	0x3253b60a	1.2323207e-08
41	0x3478c1bd	2.3167281e-07

fc1.1.weight f4 [42]
0	0x3f43b4fc	0.76448035
1	0x3f39efc5	0.72631484
2	0x3f4e3454	0.80548596
3	0x3f42a26c	0.76029086
4	0x3f466199	0.7749267
5	0x3f52009c	0.8203218
6	0x3f32159f	0.6956424
7	0x3f5cd0de	0.86256206
8	0x3f3517cb	0.7073943
9	0x3f46e557	0.77693695
10	0x3f42029d	0.7578524
11	0x3f53c5af	0.82723516
12	0x3f3950a6	0.72388685
13	0x3f3619eb	0.711333
14	0x3f4aceb8	0.7922168
15	0x3f3833c3	0.7195398
16	0x3f3ecbbe	0.74529636
17	0x3f36290a	0.7115637
18	0x3f449f06	0.7680515
19	0x3f422c8f	0.7584924
20	0x3f5f53bd	0.8723715
21	0x3f627f5b	0.8847558
22	0x3f5c13ac	0.85967517
23	0x3f5f918d	0.8733147
24	0x3f5320c9	0.824719
25	0x3f404d6b	0.7511813
26	0x3f4b1273	0.79325026
27	0x3f5ac109	0.854508
28	0x3f480c97	0.7814421
29	0x3f6bb20f	0.9206857
30	0x3f5bb29c	0.8581941
31	0x3f4351d1	0.76296717
32	0x3f3279a2	0.69716847
33	0x3f42653d	0.7593573
34	0x3f3efc61	0.7460385
35	0x3f3d9f04	0.74070764
36	0x3f4470ca	0.767346
37	0x3f27c3a1	0.6553288
38	0x3f532122	0.8247243
39	0x3f3e6712	0.7437602
40	0x3f39cea6	0.72580945
41	0x3f441b66	0.76604307

fc1.1.bias f4 [42]
0	0x3c8abea6	0.016936611
1	0xbdbd92e1	-0.092565306
2	0x3d5e2616	0.05423554
3	0xbd3e638d	-0.046481658
4	0x3cfdc1e5	0.030976245
5	0xbbf8d25f	-0.0075934376
6	0xbd419133	-0.047257613
7	0xbb90ecdf	-0.0044227685
8	0xbc30d6d4	-0.0107934065
9	0xbd2a5ada	-0.04159055
10	0x3d1f27ce	0.03885632
11	0x3d8e233c	0.06940314
12	0xbdc46a99	-0.095906444
13	0xbd897f4b	-0.06713732
14	0x3caae0fb	0.020859232
15	0xbdc2e200	-0.09515762
16	0x3db2bd48	0.08727509
17	0x3d11736e	0.035510473
18	0x3cc19f98	0.02363567
19	0xbcfc5a3e	-0.03080475
20	0x3dc2e546	0.09516387
21	0xbe1fb079	-0.15594663
22	0xbcb66b3e	-0.022267934
23	0xbd660c03	-0.0561638
24	0x3d9dfa72	0.07713784
25	0x3d32f097	0.043686476
26	0xbd2f53b6	-0.042804442
27	0x3e0a272e	0.13491508
28	0xbd798cf5	-0.060925443
29	0x3df83344	0.12119153
30	0xbd87f825	-0.06639127
31	0x3c7ea37d	0.015541908
32	0xbbe1ce3c	-0.00689104
33	0x3c3ea16c	0.011635166
34	0xbd0fa9c2	-0.035074003
35	0xbc3ecf7a	-0.011646146
36	0xbd55e2f6	-0.0522184
37	0xbd847312	-0.064672604
38	0xbdd87249	-0.10568673
39	0xbd846c12	-0.06465925
40	0xbd9de436	-0.077095434
41	0xbd8cc773	-0.068739794

fc1.1.running_mean f4 [42]
0	0xbf36a8ab	-0.71351117
1	0x3e8d75ed	0.27629033
2	0xbf3aecd3	-0.73017615
3	0x3ebb36ca	0.36565238
4	0x3f1a9517	0.60383743
5	0x3f60e5ed	0.8785084
6	0x3f67a678	0.90488386
7	0xbc4faf74	-0.012676109
8	0xbed69e07	-0.4191744
9	0xbf505c3b	-0.8139073
10	0x3fb764aa	1.4327595
11	0xbff6d4de	-1.9283712
12	0xbf9cdb53	-1.2254432
13	0xbe994b1d	-0.2994012
14	0xbf4c560d	-0.79818803
15	0x3efc079f	0.49224564
16	0x3fae1ffd	1.3603512
17	0xbf759cf6	-0.9594263
18	0xbda432c6	-0.08017497
19	0xbf6abb88	-0.916924
20	0x3f43a965	0.7643035
21	0xbed00151	-0.40626004
22	0xc00510e8	-2.0791569
23	0xbf39c89a	-0.7257172
24	0xbfd122e5	-1.6338774
25	0xbf4a5077	-0.7902903
26	0x3eec8622	0.46196085
27	0x3fd0abac	1.630239
28	0x3e1a0e5e	0.15044543
29	0xbfcc50ae	-1.5962121
30	0x3d2aa061	0.041656855
31	0xbef30067	-0.47461244
32	0xbdd5417e	-0.10412882
33	0x3f1bbb03	0.6083223
34	0x3fcf9eae	1.62203
35	0xbf2ab5fa	-0.66683924
36	0xbf5af4e8	-0.8552995
37	0x3d958786	0.0730124
38	0xbe2fc4a6	-0.17164859
39	0xbf3a5d44	-0.7279856
40	0x3ecb0737	0.39653942
41	0xbef5a1fe	-0.47975153

fc1.1.running_var f4 [42]
0	0x3da56efa	0.08077808
1	0x3de52cad	0.11190162
2	0x3e27998b	0.16367166
3	0x3dbdbb5e	0.09264253
4	0x3e21aba8	0.15788138
5	0x3dd0bb45	0.10191969
6	0x3de7b3df	0.113136046
7	0x3e0e0cbf	0.1387205
8	0x3e256834	0.16153032
9	0x3df6b96e	0.12047087
10	0x3dfeb08c	0.124360174
11	0x3e6ff61f	0.23433731
12	0x3d7b0f2d	0.06129377
13	0x3d82fa88	0.06395441
14	0x3e9b9889	0.30389813
15	0x3db5d834	0.08879128
16	0x3e0fd301	0.14045335
17	0x3e327355	0.17426808
18	0x3e0a1ec3	0.13488297
19	0x3dcc43d0	0.09973872
20	0x3e144dc6	0.14482793
21	0x3da41a5f	0.080128424
22	0x3e1588d6	0.1460298
23	0x3dc3d577	0.095621996
24	0x3e60351d	0.21895261
25	0x3e3608f0	0.17776847
26	0x3dc74be1	0.0973127
27	0x3e2f0127	0.17090283
28	0x3e2618c5	0.16220386
29	0x3e4b578e	0.19857618
30	0x3e009f7c	0.12560838
31	0x3e15ed1e	0.14641234
32	0x3e1bf98f	0.15231918
33	0x3e1dc995	0.15408929
34	0x3e3748ba	0.17898837
35	0x3e198d3a	0.1499528
36	0x3db51827	0.08842497
37	0x3e3c4983	0.18387417
38	0x3d7e6884	0.062111393
39	0x3dcd14c8	0.10013729
40	0x3d92ea85	0.07173637
41	0x3d451a45	0.048120756
