state_dict.pth (torch, 59042 bytes, 38 tensors)

conv1.0.weight f4 [32, 1, 3, 3]
0	0xbe050534	-0.12990266
1	0x3e4ded6e	0.20110103
2	0x3e685140	0.22687244
3	0xbe2ea75c	-0.1705603
4	0x3d9594c4	0.073037654
5	0x3e0a1f4f	0.13488506
6	0x3e0f7e1d	0.14012952
7	0xbe85fd1f	-0.2616968
8	0x3e10958b	0.14119546
9	0x3e23a749	0.15981783
10	0x3d892154	0.0669581
11	0xbe451bde	-0.19248912
12	0xbdf2fa0f	-0.11864101
13	0xbe43934b	-0.19099157
14	0x3e22a9f1	0.1588514
15	0x3d378929	0.04480854
16	0x3e2d3185	0.16913421
17	0x3e786e5b	0.24260847
18	0x3df5fe52	0.120113984
19	0xbe4d0eca	-0.20025173
20	0x3dfc881d	0.12330649
21	0x3e8e573a	0.27800924
22	0x3e82cc0c	0.255463
23	0xbe323ca1	-0.1740594
24	0xbe870564	-0.263713
25	0xbe601661	-0.21883537
26	0x3e96bcc3	0.2944089
27	0x3cee5622	0.029093806
28	0xbc8be158	-0.017075226
29	0x3af510e6	0.0018697053
30	0xbdb81c5a	-0.08989783
31	0x3df16103	0.11786082
32	0xbe060ce7	-0.1309086
33	0x3deec362	0.1165836
34	0xbd76626a	-0.06015245
35	0x3d5b2829	0.053505097
36	0x3e3d3e0c	0.184807
37	0x3de2f65d	0.11082146
38	0xbe96ebaa	-0.29476672
39	0x3e9ba0f8	0.30396247
40	0x3e813794	0.25237715
41	0x3e54c60a	0.20778671
42	0xbdc4bbd8	-0.09606141
43	0xbe232068	-0.15930331
44	0xbe3a3f54	-0.1818822
45	0xbe8c16f5	-0.27361265
46	0xbe6a7914	-0.2289775
47	0x3e876a6d	0.26448384
48	0x3e89be29	0.26902893
49	0x3e8388dc	0.25690353
50	0x3d360a9b	0.044443708
51	0xbdeff9b2	-0.117175475
52	0x3e5564ea	0.20839277
53	0xbe254a0f	-0.16141532
54	0xbd505fe0	-0.050872684
55	0x3c6dcb46	0.014513796
56	0x3d91a9e9	0.07112486
57	0xbe910512	-0.2832418
58	0xbc05d2f5	-0.008167972
59	0x3df7a14a	0.1209131
60	0x3e89d4b3	0.2692009
61	0x3dc33747	0.09532028
62	0x3de3ec8b	0.11129101
63	0x3e8765a2	0.26444727
64	0xbe2180ff	-0.15771864
65	0x3e815024	0.25256455
66	0xbe9c1def	-0.30491588
67	0x3e0475de	0.12935588
68	0x3d998a7f	0.07497119
69	0xbe2378b6	-0.15964016
70	0xbe996398	-0.29958797
71	0xbdbb9be2	-0.09160592
72	0x3d837392	0.06418528
73	0x3e1caf72	0.15301302
74	0x3e0a55f9	0.13509358
75	0xbe72a2e6	-0.23694953
76	0x3ea7eecb	0.32799372
77	0x3e31edd3	0.17375879
78	0xbe4dfdda	-0.20116368
79	0xbe829389	-0.25503185
80	0x3e058190	0.13037705
81	0xbe079a75	-0.13242514
82	0x3bb4fa7b	0.0055230237
83	0x3e7f3af9	0.2492484
84	0xbcd09a07	-0.025464071
85	0x3d3b1a32	0.04567928
86	0xbe4ece83	-0.20195965
87	0x3e95382f	0.29144427
88	0xbe96d030	-0.2945571
89	0x3e35126b	0.17682807
90	0xbe111fed	-0.14172335
91	0x3e6d5ae4	0.23179203
92	0x3e9e2e26	0.30894583
93	0xbcdd761a	-0.027033854
94	0x3e084a6e	0.13309643
95	0x3e12c798	0.14333951
96	0xbe988b56	-0.29793805
97	0x3c81f916	0.015865844
98	0xbbbbae6d	-0.0057275803
99	0xbe87bd80	-0.26511765
100	0xbe61b68b	-0.22042291
101	0xbce38afe	-0.027776238
102	0xbe92144a	-0.28531104
103	0x3e18044a	0.14845386
104	0x3e8b7b74	0.27242625
105	0x3d7b07a7	0.061286595
106	0x3e18424e	0.14869043
107	0xbddc629a	-0.10760994
108	0x3e8abfa7	0.27099344
109	0xbd9220ea	-0.07135184
110	0x3e41aa22	0.18912557
111	0x3d089d52	0.033353157
112	0xbe0ca888	-0.13736165
113	0x3ca4b38d	0.020105148
114	0xbe9fff1e	-0.31249326
115	0xbe81c8be	-0.25348467
116	0x3dc18fbd	0.09451244
117	0xbe6e20dd	-0.23254724
118	0xbc9cf34c	-0.019158982
119	0x3e694360	0.22779608
120	0x3df11acd	0.1177269
121	0xbdbe3c23	-0.09288814
122	0xbe845991	-0.25849584
123	0x3d6e2cbf	0.058148142
124	0x3e8d7ee8	0.27635884
125	0x3e398310	0.18116403
126	0x3d5d21bb	0.053987246
127	0xbc459c87	-0.012061245
128	0xbdc1f2bd	-0.09470127
129	0xbbfaffba	-0.0076598795
130	0x3e30fb91	0.17283465
131	0x3e2c2cf1	0.16814019
132	0x3d814577	0.063120775
133	0xbe596952	-0.21231583
134	0x3d00a397	0.03140601
135	0x3c90fcce	0.017698672
136	0x3e419a63	0.1890655
137	0x3dc08c1e	0.09401725
138	0xbdad89af	-0.08473527
139	0x3e703e66	0.23461303
140	0xbe12ba9c	-0.14328998
141	0xbe208416	-0.15675387
142	0x3e7fc15d	0.24976106
143	0xbe64516f	-0.2229669
144	0xbe5ce2c0	-0.21570873
145	0xbe99e706	-0.3005907
146	0x3e903ed5	0.28172937
147	0xbd16ca33	-0.036813926
148	0xbe49c8fd	-0.19705577
149	0x3d5f6eb8	0.05454895
150	0x3ea2366f	0.31682155
151	0xbd85979c	-0.06523058
152	0xbe89bace	-0.26900333
153	0x3e999661	0.29997543
154	0x3e8f0252	0.27931458
155	0xbc69b042	-0.014263215
156	0x3e0770d1	0.1322663
157	0x3d811493	0.06302752
158	0xbe978956	-0.29596967
159	0xbe3a1f5f	-0.1817603
160	0xbe76744a	-0.24067798
161	0xbe8a3282	-0.2699166
162	0x3c0ef6ac	0.008725803
163	0xbe56b09d	-0.2096581
164	0xbe721e96	-0.2364448
165	0x3c60dacc	0.01372404
166	0x3e46049e	0.19337699
167	0x3c86e15a	0.016464878
168	0xbe23f03b	-0.1600961
169	0xbe5060aa	-0.20349374
170	0xbe83e9be	-0.2576427
171	0xbe80f90d	-0.2519001
172	0xbe4118cb	-0.18857114
173	0x3e5a70f6	0.21332154
174	0xbdb5d205	-0.08877949
175	0xbe872d4f	-0.26401755
176	0xbe33d5f0	-0.1756208
177	0xbe698e10	-0.22808099
178	0xbe93721f	-0.28798005
179	0x3e373233	0.17890243
180	0xbd93146b	-0.07181629
181	0xbd7069e9	-0.058694754
182	0xbe7849b8	-0.24246871
183	0xbdbab952	-0.09117378
184	0x3d5f460f	0.054510172
185	0xbe213ff2	-0.1574705
186	0x3e9ffff0	0.31249952
187	0xbdecee00	-0.115688324
188	0xbe598e1c	-0.21245617
189	0xbe88714e	-0.26648945
190	0xbd4a41a4	-0.049379006
191	0xbe85d96b	-0.2614244
192	0xbdea6677	-0.11445325
193	0xbc117419	-0.0088777775
194	0x3e3feec2	0.18743423
195	0x3d2b7134	0.041856006
196	0xbe856d10	-0.2605977
197	0xbc7eec3a	-0.0155592505
198	0xbd2cc011	-0.042175356
199	0xbe43de01	-0.19127657
200	0xbe1abd15	-0.15111192
201	0x3e14d65e	0.145349
202	0x3d9b2cd8	0.07576913
203	0xbe810e09	-0.2520602
204	0x3e0ebfff	0.13940428
205	0x3da964e4	0.082711965
206	0xbe0b8224	-0.13623863
207	0xbe81dc7c	-0.2536353
208	0x3e6924f3	0.22768001
209	0x3e473d94	0.19457084
210	0xbe965e3e	-0.29368776
211	0xbe626562	-0.22108987
212	0xbdad3404	-0.08457187
213	0x3dce02d3	0.100591324
214	0xbe1b3e04	-0.15160376
215	0xbda02715	-0.07819954
216	0xbe169126	-0.14703807
217	0x3e54e9d6	0.20792326
218	0x3e6e86b6	0.23293576
219	0xbdfae380	-0.122504234
220	0x3dd475f6	0.10374062
221	0xbe5bb084	-0.21454054
222	0xbe36deb5	-0.17858393
223	0xbc054257	-0.008133492
224	0x3dcbbe93	0.099484585
225	0xbe09ea5b	-0.13468306
226	0xbe3350eb	-0.17511337
227	0xbe363f7a	-0.17797652
228	0xbe5e754e	-0.21724436
229	0x3e058028	0.13037169
230	0x3e96c60b	0.2944797
231	0xbda03b10	-0.07823765
232	0x3e94bfb0	0.29052496
233	0xbda3f527	-0.080057435
234	0xbd602fc5	-0.054733057
235	0x3e2567a8	0.16152823
236	0x3e91485c	0.28375518
237	0xbe4878b7	-0.19577299
238	0xbbd95bd4	-0.006633261
239	0xbe3ad14a	-0.182439
240	0x3c6aa906	0.014322525
241	0xbdfa79e5	-0.12230281
242	0xbe774ef8	-0.24151218
243	0xbe71f9f0	-0.236305
244	0xbe6c1d81	-0.2305813
245	0xbd219a95	-0.03945406
246	0x3e6d53eb	0.23176543
247	0x3e13d01e	0.14434859
248	0xbe5b6b0e	-0.21427557
249	0x3becf25d	0.0072310404
250	0xbe936405	-0.28787246
251	0xbda04ffa	-0.07827754
252	0xbe4770dd	-0.19476648
253	0x3e5a10cc	0.2129547
254	0x3e1a43e7	0.15064965
255	0x3e85e1fe	0.2614898

conv1.0.bias f4 [32]
0	0x34e26aab	4.2173392e-07
1	0x3675569a	3.6558254e-06
2	0xb54fe2f7	-7.7443786e-07
3	0xbcbf5bee	-0.023359265
4	0xbc7153be	-0.014729438
5	0x34b4acb0	3.365326e-07
6	0x3c75e8cb	0.015009115
7	0xb5485686	-7.4631714e-07
8	0x346696cf	2.1475283e-07
9	0x35c046a6	1.4325676e-06
10	0x3c2b2e0b	0.010447989
11	0x3bce00c4	0.0062867124
12	0xbd1e0b3d	-0.038584936
13	0x3b69765f	0.0035623533
14	0x3b004ff3	0.0019578903
15	0x361a021e	2.294902e-06
16	0x387e1883	6.0581147e-05
17	0xb4ba8fc2	-3.4749797e-07
18	0x3501da86	4.837424e-07
19	0xb4d987f1	-4.051831e-07
20	0xb3817fae	-6.0302554e-08
21	0xb55616d6	-7.9754443e-07
22	0xbb04536e	-0.002019133
23	0x3b16de4b	0.002302068
24	0xb594f3ac	-1.1097777e-06
25	0x3b0eecda	0.0021808655
26	0x3c8bf849	0.017086165
27	0x3b662464	0.0035116905
28	0xbab3f7f2	-0.001373051
29	0xb516be8b	-5.615663e-07
30	0xb4cdcf66	-3.8335128e-07
31	0x3d0eb5a8	0.03484121

conv1.1.weight f4 [32]
0	0x3f63eb77	0.89031166
1	0x3f640dc1	0.89083487
2	0x3f6c0ecc	0.9221008
3	0x3f77d4fa	0.9680935
4	0x3f6bb061	0.9206601
5	0x3f723a45	0.9462016
6	0x3f5e4d4b	0.8683669
7	0x3f647255	0.89236957
8	0x3f6cedb8	0.9255023
9	0x3f69767c	0.9119642
10	0x3f6305d1	0.8868075
11	0x3f683ec2	0.9072076
12	0x3f6b9163	0.9201872
13	0x3f686e07	0.9079289
14	0x3f6e1cdf	0.93012804
15	0x3f6cffe3	0.9257795
16	0x3f6906eb	0.9102618
17	0x3f6cc53e	0.9248847
18	0x3f69d63e	0.9134253
19	0x3f616453	0.8804371
20	0x3f637b94	0.8886044
21	0x3f5846d6	0.8448309
22	0x3f69bada	0.9130074
23	0x3f5e8e68	0.86936045
24	0x3f6d8d4d	0.9279373
25	0x3f681445	0.9065593
26	0x3f69f4bc	0.9138906
27	0x3f5d66d9	0.8648506
28	0x3f59ddab	0.85103863
29	0x3f740707	0.9532322
30	0x3f58519a	0.84499514
31	0x3f6b1562	0.918295

conv1.1.bias f4 [32]
0	0xbc283558	-0.010266624
1	0xbca8fc97	-0.020628257
2	0xbc437f3f	-0.011932193
3	0xbbd19844	-0.0063963253
4	0xbc4f6052	-0.012657242
5	0xbb7e8f44	-0.0038842717
6	0xbd39ff73	-0.04540963
7	0x3c8e04c9	0.017336266
8	0x3bc04213	0.0058672517
9	0x3c9e49a5	0.019322226
10	0xbcb087bc	-0.021549098
11	0xbc00aab5	-0.0078532
12	0xbc288bad	-0.010287208
13	0xbca86362	-0.020555202
14	0xbcc8149c	-0.02442389
15	0xbc171040	-0.009220183
16	0x3cb72c60	0.022360027
17	0xbc34aa03	-0.011026862
18	0xbc2fe38d	-0.010735405
19	0xbcce41ec	-0.025177918
20	0xbc50cffb	-0.012744899
21	0xbcb0b634	-0.021571256
22	0xbd086815	-0.033302385
23	0xbcf61118	-0.030037448
24	0xbba54932	-0.005044126
25	0xbc781e52	-0.015143948
26	0xbc2b5705	-0.010457759
27	0x3c6695f5	0.0140738385
28	0xbd192f3a	-0.037398554
29	0x3bb1a1e5	0.0054209107
30	0xbc697700	-0.014249563
31	0xbb9011b4	-0.0043966416

conv1.1.running_mean f4 [32]
0	0x3e769fce	0.24084398
1	0x3e47e91d	0.1952252
2	0x3e191d15	0.149525
3	0xbcb967bf	-0.022632478
4	0x3e689ed5	0.2271684
5	0x3e4a1d20	0.19737673
6	0x3e5d7f55	0.21630605
7	0xbe2770d1	-0.1635163
8	0x3e7680db	0.24072592
9	0x3d432d36	0.04765054
10	0x3e9a0108	0.30078912
11	0xbe1b4ed8	-0.15166795
12	0xbe11149b	-0.14168017
13	0x3e152411	0.1456454
14	0x3df0abfe	0.11751555
15	0x3e1aa41e	0.15101668
16	0xbe9c3d4f	-0.30515525
17	0xbdfbd49c	-0.122964114
18	0xbf01a17f	-0.5063705
19	0xbf34a24c	-0.70560145
20	0xbec94e7a	-0.39317685
21	0xbeee8220	-0.46583652
22	0xbe71366c	-0.23555917
23	0xbeb4c752	-0.3530832
24	0x3c297eea	0.0103452
25	0xbd910c4b	-0.07082423
26	0xbe3db155	-0.18524678
27	0xbee2a828	-0.44268918
28	0x3ef7df2a	0.48412448
29	0xbd97fdff	-0.07421493
30	0x3eca8901	0.3955765
31	0x3d6337dd	0.055473197

conv1.1.running_var f4 [32]
0	0x3d3fd7be	0.046836607
1	0x3cff9d68	0.031202987
2	0x3cd2e974	0.025746085
3	0x3b323e77	0.0027197876
4	0x3d690518	0.056889623
5	0x3cfa3023	0.030540532
6	0x3ce9da46	0.028546464
7	0x3da13de7	0.07873135
8	0x3d8df672	0.06931771
9	0x3c595fdb	0.013267483
10	0x3d8e7c10	0.06957257
11	0x3d3e4c12	0.046459265
12	0x3d69f0f4	0.057114556
13	0x3ce96c85	0.028494129
14	0x3c202957	0.009775481
15	0x3cdaeb34	0.026723482
16	0x3d7c5b7e	0.06161069
17	0x3dc3b1e3	0.095554136
18	0x3dd7a228	0.10528976
19	0x3e72606c	0.23669595
20	0x3da04158	0.07824963
21	0x3dbf3c57	0.09337681
22	0x3d6e4de1	0.05817974
23	0x3dc5c830	0.09657323
24	0x3ce45348	0.027871743
25	0x3d096f84	0.033553615
26	0x3d845689	0.06461818
27	0x3dad9773	0.08476152
28	0x3dc45143	0.09585812
29	0x3c1ba93a	0.009500796
30	0x3d8a1ca2	0.067437425
31	0x3d4910c4	0.049088255

conv2.0.weight f4 [16, 32, 3, 3]
0	0xbd578bdb	-0.05262361
1	0x3cbe4ee4	0.023230977
2	0x3a873fcb	0.0010318694
3	0xbd38c6d8	-0.045111507
4	0x3cc6daff	0.024274347
5	0x3cccbe1e	0.024992999
6	0xbd47c6f1	-0.04877371
7	0xbd36ebe5	-0.04465856
8	0x3d35b93e	0.044366114
9	0xbd03b015	-0.032150347
10	0xbd1919a3	-0.037377965
11	0x3b23b8ea	0.0024982044
12	0x3c8cc750	0.017184883
13	0x3bebb566	0.0071932552
14	0xbd0d0a51	-0.034433667
15	0xbc859ee5	-0.016311118
16	0x3c8aa5d0	0.016924769
17	0x3d53847f	0.05164003
18	0xbd6f26b1	-0.05838651
19	0xbca9fba0	-0.020749867
20	0x3bc1d54c	0.0059153195
21	0xbc337248	-0.01095254
22	0xbca32e59	-0.019919561
23	0x3d2bacb6	0.041912757
24	0x3c778794	0.015108008
25	0x3c56b357	0.013104281
26	0xbcd731d0	-0.02626887
27	0xbd495469	-0.049152765
28	0xbbbd2af2	-0.0057729417
29	0xbcf511ac	-0.029915653
30	0x3d10467b	0.035223465
31	0x3cb9841c	0.022646002
32	0xbc153ac8	-0.009108253
33	0x3d5fbe4f	0.05462485
34	0xbbeb700f	-0.0071849893
35	0x3bb482e2	0.0055087665
36	0x3cc35850	0.023845822
37	0x3d6266e9	0.055273924
38	0x3ca8d077	0.020607216
39	0x3d6826e4	0.056677714
40	0x3c0338a6	0.0080091115
41	0xbd33269f	-0.043738004
42	0xbd76e9bf	-0.06028151
43	0xbd76a6b4	-0.060217574
44	0xbb4da31a	-0.0031377734
45	0xbc1cdaf8	-0.009573691
46	0x3a4e1c64	0.0007862507
47	0xbcde19d3	-0.027111923
48	0x3d8bc3c9	0.068244524
49	0x3b98ac19	0.0046591875
50	0x3ca0792d	0.019589031
51	0xbcddafe6	-0.027061414
52	0xbc469dbc	-0.012122568
53	0x3d225301	0.03962994
54	0xbc0f407b	-0.008743401
55	0x3b6aab59	0.0035807698
56	0xbcd9f386	-0.026605379
57	0xbd2c5853	-0.04207642
58	0xbbaecc3f	-0.0053344066
59	0xbc82b868	-0.015957072
60	0x3da6fef8	0.081541
61	0x3cfb3fed	0.03067013
62	0xbd1ba5ab	-0.03799979
63	0x3c85b4b8	0.016321525
64	0xbd5c84ba	-0.053837515
65	0x3c01c063	0.007919404
66	0x3d6e520d	0.05818372
67	0x3d46524b	0.048418324
68	0xbd2a4093	-0.04156549
69	0xbd5d4f3b	-0.05403064
70	0xbda68801	-0.081314094
71	0xbd68443a	-0.05670569
72	0x3b855948	0.004069481
73	0xbc142e9c	-0.009044316
74	0xbcb6faa3	-0.02233631
75	0x3d265804	0.040611282
76	0x3d65aac4	0.056071058
77	0xbc5fd5d9	-0.013661825
78	0x3cbed6b9	0.023295747
79	0xbd3d7c39	-0.046261046
80	0x3d354e35	0.044264037
81	0x3d4b558c	0.04964213
82	0xbca55f8a	-0.020187158
83	0xbda55f23	-0.080747865
84	0xbd405f42	-0.046965845
85	0xbd8b1c8d	-0.06792555
86	0xbd366cd3	-0.044537377
87	0x3d182bb7	0.037151065
88	0x3d29c01a	0.041442968
89	0xbd6ef769	-0.058341417
90	0xbd0ee1c5	-0.03488328
91	0xbd6edec9	-0.058317933
92	0xbcae7af5	-0.021298865
93	0x3c9b4ee1	0.01895851
94	0xbbf566e4	-0.007489072
95	0xbd0f8819	-0.035041902
96	0xbcc3e774	-0.023914076
97	0xbd3f46e4	-0.046698466
98	0xbccd02ae	-0.025025692
99	0x3d271ddc	0.04079996
100	0x3d7ed92d	0.062218834
101	0xbd288e97	-0.04115161
102	0xbd5912c5	-0.052996416
103	0x3c8b9199	0.0170372
104	0x3c9a1278	0.018807635
105	0x3d08c1bb	0.03338788
106	0x3d33e3b6	0.043918334
107	0x3cb2d0b6	0.021828037
108	0x3c8b9883	0.017040497
109	0x3ab0d4e0	0.0013491176
110	0xbc532325	-0.012886797
111	0x3c9f7f83	0.019469982
112	0x3cbbe6a2	0.022937123
113	0x3ba088c9	0.0048991186
114	0xbcab273b	-0.02089273
115	0xbd824bdf	-0.063621275
116	0xbd121d27	-0.035672333
117	0x3bb1d9fe	0.005427598
118	0x3d91ce3c	0.07119414
119	0x3cd8066f	0.026370255
120	0x3c89d549	0.016825335
121	0x3be7b97b	0.0070716715
122	0x3c11bb1e	0.00889471
123	0x3ca43c17	0.020048184
124	0x3d6b3031	0.057419006
125	0x3d3d285c	0.046181068
126	0x3cf3869d	0.029727275
127	0xbc9d0a9e	-0.019170102
128	0xbd481ccc	-0.048855588
129	0xbd2b9761	-0.041892413
130	0x3d1d29fb	0.038370114
131	0xbc33bb9f	-0.010970025
132	0xbbebb876	-0.0071936203
133	0xbd80d0a9	-0.06289799
134	0xbd080723	-0.03320993
135	0x3c9a2cc7	0.01882018
136	0x3c1c3edd	0.009536472
137	0xbcfd9740	-0.03095591
138	0x3bb63dc0	0.0055615604
139	0xbc6ae242	-0.014336171
140	0xbd32fd6c	-0.043698713
141	0xbcf67ec2	-0.03008974
142	0xbd140987	-0.0361419
143	0xbc76c28e	-0.015061034
144	0x3d05d1b4	0.03267069
145	0xbc453943	-0.012037578
146	0xbc79b59e	-0.015241055
147	0x3d3f0bcf	0.04664212
148	0xbc7b3615	-0.015332718
149	0x3cfe5612	0.0310469
150	0x3c9c457b	0.0190761
151	0xbd6bc0ff	-0.057557102
152	0xbd5d3f51	-0.05401546
153	0x3d452ba2	0.048137315
154	0x3d4b1974	0.04958482
155	0x3ae2804b	0.0017280666
156	0xbd05f23c	-0.032701716
157	0x3d04d667	0.032431033
158	0xbd3da629	-0.04630104
159	0xbd23098b	-0.039804023
160	0x3cdbf2b9	0.026849138
161	0x3cfd3f0d	0.030913854
162	0x3d430b0b	0.047617953
163	0x3d70b517	0.05876645
164	0x3ce1a26e	0.027543273
165	0x3d43dac2	0.047816046
166	0xbc9d3c82	-0.019193891
167	0x3d75ed12	0.06004054
168	0xbd84ba94	-0.064808995
169	0xbda313ed	-0.07962785
170	0x3beaaa57	0.0071614194
171	0xbc2e1ebe	-0.010627447
172	0xbd2b56e8	-0.041830927
173	0xbd242292	-0.04007203
174	0xbd670ba6	-0.056407593
175	0x3cfaab29	0.030599194
176	0x3d25424c	0.04034643
177	0x3d1a5423	0.037677895
178	0x3cdad290	0.026711732
179	0xbba4d93f	-0.0050307806
180	0x3b919078	0.004442271
181	0x3d557cdb	0.052121025
182	0x3d54252d	0.051793266
183	0xbcd3e6f1	-0.025866957
184	0xbc2fae80	-0.010722756
185	0xbd5745fc	-0.052556977
186	0xbd6fc392	-0.05853612
187	0x3caaa134	0.02082882
188	0xbd278d95	-0.040906508
189	0x3d80eca0	0.06295133
190	0xbc7048c3	-0.014665785
191	0x3cd25a4d	0.025677824
192	0x3ca99c6a	0.020704467
193	0x3c8fd674	0.017558314
194	0xbad19ea3	-0.0015992712
195	0x3d0b2fe1	0.033981208
196	0x3d070458	0.032963127
197	0xbd85f20e	-0.06540309
198	0x3bbf4780	0.005837381
199	0x3be27d78	0.0069119297
200	0x3d970263	0.07373502
201	0xbd42512a	-0.047440685
202	0xbcfe4360	-0.031037986
203	0xbb802e5e	-0.0039117774
204	0xbd6cae28	-0.057783276
205	0x3b44e6a6	0.0030044704
206	0xbd3a7da9	-0.045529995
207	0x3d4c35a5	0.049855847
208	0x3d048ab8	0.032358855
209	0x3d2bef35	0.041976172
210	0x3d80d60d	0.06290827
211	0xbccb53de	-0.024820264
212	0xbbd7004f	-0.006561316
213	0xbc8770ec	-0.016533338
214	0x3d039526	0.03212466
215	0x3b46702b	0.003027926
216	0xbd00a2f7	-0.031405415
217	0x3cf2a885	0.029621372
218	0xbc86d4e9	-0.016458945
219	0xbb255177	-0.0025225559
220	0xbc4fe6f4	-0.012689341
221	0xbc829463	-0.015939897
222	0x3d265794	0.040610865
223	0xbcdcdcaa	-0.02696069
224	0x3caf6c57	0.021413965
225	0x3cfc69e4	0.030812211
226	0x3d98daf8	0.0746364
227	0xbd185332	-0.037188716
228	0xbca2c5e0	-0.019869745
229	0x3d8c40d9	0.06848306
230	0xba3a9fbd	-0.000711914
231	0xbc69f80b	-0.014280329
232	0xbcf00a6c	-0.029301845
233	0xbd26b454	-0.040699318
234	0xbd6089ae	-0.0548188
235	0xbca8c516	-0.02060179
236	0xbc425f94	-0.011863608
237	0xbd136bdc	-0.035991535
238	0x3c277ecf	0.010223105
239	0x3c39b85e	0.0113354605
240	0x3cf5ba2d	0.029996002
241	0xbb7110d3	-0.003678371
242	0xbc3ca187	-0.0115131205
243	0x3cccd0bc	0.025001876
244	0x3d286dc5	0.04112031
245	0x3d279e09	0.0409222
246	0xbd2b7c5e	-0.041866653
247	0x3c93a083	0.018020874
248	0xbd1b390a	-0.037896194
249	0xbd49e55a	-0.049290992
250	0xbcb4d70a	-0.022075195
251	0xbc0fc94d	-0.008776021
252	0x3d00b8ae	0.031426124
253	0xb9b28356	-0.0003404866
254	0x3b942035	0.004520441
255	0x3af1cee2	0.0018448497

conv2.0.bias f4 [16]
0	0xb4c01b90	-3.578284e-07
1	0xb50316c5	-4.8834437e-07
2	0x34a55ab6	3.0799646e-07
3	0x359718b6	1.1257569e-06
4	0xb4bfe0e0	-3.574014e-07
5	0x358a0d35	1.0285645e-06
6	0xb435399c	-1.6877897e-07
7	0x34e3f13f	4.2457575e-07
8	0x359890a4	1.1366978e-06
9	0x351ba4d5	5.798186e-07
10	0x351f8426	5.9424417e-07
11	0x340421b8	1.2305725e-07
12	0xb669c3c6	-3.483366e-06
13	0x365fea88	3.3366105e-06
14	0xb43bc301	-1.7486674e-07
15	0x34be7c0e	3.548052e-07

conv2.1.weight f4 [16]
0	0x3f6c77a7	0.92370075
1	0x3f6ee1cb	0.9331328
2	0x3f6929b0	0.91079235
3	0x3f6cd733	0.9251587
4	0x3f712c87	0.9420857
5	0x3f6e354e	0.93050086
6	0x3f6fa8ac	0.9361675
7	0x3f73b377	0.95195717
8	0x3f6d253b	0.92634934
9	0x3f67ec32	0.9059478
10	0x3f64909c	0.89283156
11	0x3f773e08	0.9657903
12	0x3f782141	0.9692574
13	0x3f77f5a1	0.96859175
14	0x3f7722c4	0.96537423
15	0x3f6d17af	0.92614263

conv2.1.bias f4 [16]
0	0xbca63b55	-0.020291964
1	0x3a981a2d	0.0011604481
2	0xbd02a2d7	-0.031893577
3	0xbb5fe9eb	-0.0034166526
4	0x3c811c81	0.015760662
5	0xba8a3f21	-0.0010547378
6	0xbcd8dccd	-0.026472474
7	0xbb2a431c	-0.0025979942
8	0xbcd7b0a5	-0.026329348
9	0x3b6db5b3	0.0036271631
10	0x3b96667b	0.0045898533
11	0x3ba66901	0.0050784354
12	0xbbdf1c4d	-0.0068087936
13	0x3c6653ae	0.014058037
14	0x3ce6bb08	0.028165355
15	0xbd13960b	-0.036031764

conv2.1.running_mean f4 [16]
0	0xbe483e31	-0.19554974
1	0x3bc510c3	0.006013961
2	0xbcc2548f	-0.023721961
3	0xbf0e9769	-0.55699784
4	0x3e7a5a42	0.24448493
5	0xbe713e2a	-0.2355887
6	0x3a7a46da	0.0009547301
7	0x3f172ab6	0.59049547
8	0x3eccf8d7	0.400336
9	0xbf49cf71	-0.78832155
10	0xbe675312	-0.22590283
11	0x3e62ccdf	0.22148465
12	0xbcaf3c73	-0.02139113
13	0xbe88a60f	-0.26689193
14	0xbcc9e5cd	-0.02464571
15	0x3d286aa6	0.041117333

conv2.1.running_var f4 [16]
0	0x3e58efc2	0.2118521
1	0x3e6e21eb	0.23255126
2	0x3e774d67	0.2415062
3	0x3e583afc	0.21116251
4	0x3e26c9cb	0.16287915
5	0x3edc2e5a	0.43004113
6	0x3e91b305	0.28456894
7	0x3ebdb803	0.37054452
8	0x3ea5d43d	0.32388487
9	0x3f0072d6	0.50175226
10	0x3e4803c1	0.19532682
11	0x3e0c4600	0.13698578
12	0x3de103cc	0.10987052
13	0x3e3b66e1	0.18300964
14	0x3eb291bb	0.3487681
15	0x3e14dd5e	0.1453757

conv3.0.weight f4 [8, 16, 3, 3]
0	0xb93dec30	-0.00018112431
1	0xbdba8183	-0.09106734
2	0x3d459a8b	0.048243087
3	0xbd27bfbd	-0.04095434
4	0x3dc42ddf	0.09579062
5	0xbd8fa297	-0.070134334
6	0x3cf6273a	0.030048002
7	0xbdcf874d	-0.101332285
8	0x3b7132bd	0.0036803924
9	0xbd59c94f	-0.0531705
10	0xbdd1be24	-0.102413446
11	0xbd97af4b	-0.07406481
12	0x3d8d3a65	0.068959035
13	0x3c8afbf5	0.016965846
14	0x3d270336	0.040774547
15	0xbd8976fe	-0.06712149
16	0xbd2eeeed	-0.042708326
17	0x3b84a004	0.0040473957
18	0xbd74c6b6	-0.059759818
19	0x3d5c0b46	0.05372169
20	0xbcf6765d	-0.030085737
21	0x3c792fa3	0.015209111
22	0x3d94cbad	0.072654106
23	0xbd686617	-0.056737985
24	0xbd904a91	-0.070454724
25	0xbda20428	-0.07910949
26	0x3b73c161	0.003719412
27	0xbcfa6d56	-0.030569714
28	0xbd9c3101	-0.07626534
29	0x3da1618e	0.07879935
30	0x3d5ec155	0.054383595
31	0x3d03b554	0.03215535
32	0xbd160da1	-0.03663409
33	0xbc7cce93	-0.0154301105
34	0xbd334863	-0.043770205
35	0x3d19aef0	0.03752035
36	0x3d7bcc45	0.061474103
37	0xbd41958f	-0.04726177
38	0xbd5464b4	-0.05185385
39	0x3dbc44e5	0.09192828
40	0xbd865756	-0.06559627
41	0xbd8d8349	-0.06909806
42	0x3d069778	0.032859296
43	0x3ca8000c	0.020507835
44	0xbd16012d	-0.036622215
45	0xbc3f2c49	-0.011668273
46	0xbd5c6636	-0.053808413
47	0xbd12e238	-0.03586027
48	0x3c8e8fa0	0.01740247
49	0x3ba62e7e	0.0050714603
50	0x3c2440aa	0.010025183
51	0x3df6eade	0.12056516
52	0xbd53a6b7	-0.051672664
53	0x3d11a005	0.035552997
54	0x3d255472	0.040363736
55	0x3d6c12b0	0.05763501
56	0xbd9ce503	-0.07660868
57	0xbd1358f7	-0.035973515
58	0x3d5621b6	0.052278243
59	0xbd68cf98	-0.0568386
60	0xbd16b8ee	-0.036797456
61	0xbc20110e	-0.009769691
62	0xbc50d2b7	-0.012745551
63	0x3da3bf8c	0.07995519
64	0x3d2411f9	0.040056203
65	0x3c7e0102	0.01550317
66	0xbd73d153	-0.0595258
67	0xbd0ba91e	-0.03409683
68	0x3d9bcd86	0.0760756
69	0x3d97a9d4	0.07405439
70	0xbc7f7ffa	-0.015594477
71	0x3db8dcab	0.09026464
72	0xbcd8bed8	-0.026458189
73	0xbdb4b392	-0.08823313
74	0x3dab4641	0.08363009
75	0x3d4d1e97	0.050078
76	0xbdae42e8	-0.08508855
77	0x3d786a83	0.060648452
78	0x3c6e8f16	0.0145604815
79	0x3d8d066a	0.06885989
80	0x3d904850	0.070450425
81	0x3d89535b	0.06705352
82	0x3cf230c5	0.02956427
83	0x3d040bcf	0.032237824
84	0x3b119c74	0.0022218497
85	0x3d63a179	0.055573914
86	0x3d121f14	0.03567417
87	0x3d0a7d4f	0.03381091
88	0xbd17cc44	-0.037060037
89	0xbca28415	-0.019838372
90	0x3c14ce36	0.009082368
91	0x3a9a18f7	0.0011756708
92	0xbb8f405c	-0.004371686
93	0x3d691f91	0.05691487
94	0x3c6050e6	0.013691163
95	0xbae711a8	-0.0017629163
96	0xbb95e7e5	-0.004574763
97	0xbc7bf314	-0.015377779
98	0xbd4390fa	-0.047745682
99	0xbc52773d	-0.012845811
100	0xbd313713	-0.043265413
101	0xbc7a1456	-0.0152636375
102	0xbdc50f42	-0.09622051
103	0xbd18618e	-0.03720241
104	0x3cacb294	0.021081246
105	0x3d81ffad	0.063475944
106	0x3d0629d9	0.032754753
107	0xbcece424	-0.02891738
108	0xbb33ffe5	-0.0027465757
109	0x3d51ab5f	0.051188823
110	0xbdad5486	-0.08463387
111	0x3da3cfe4	0.07998636
112	0xbd56add2	-0.05241186
113	0xbdac0407	-0.08399206
114	0x3d698fc4	0.05702187
115	0xbd4ea3e5	-0.05044927
116	0x3dc94776	0.09828083
117	0xbc4bd984	-0.0124419965
118	0x3d2ea5fe	0.04263877
119	0xbbb62b08	-0.005559329
120	0x3cdd88aa	0.027042706
121	0x3d26cf32	0.04072494
122	0x3d373df0	0.044736803
123	0xbd9bd1b9	-0.07608361
124	0x3da8fd09	0.082513876
125	0x3d5ab6d1	0.053397004
126	0x3d5f7919	0.054558847
127	0xbd541f66	-0.051787756
128	0xbd94bfc9	-0.072631426
129	0xbc544a17	-0.0129571175
130	0x3c96bfe5	0.01840205
131	0xbc881e7e	-0.016616102
132	0x3bc4f645	0.006010803
133	0xbc8a7ff8	-0.016906723
134	0x3ae24692	0.0017263463
135	0x3d51a052	0.051178284
136	0x3cf7cc69	0.030248838
137	0x38eaee3d	0.00011202365
138	0x3d502855	0.050819714
139	0xbcb00b39	-0.021489726
140	0xbd542a21	-0.05179799
141	0xbd8597e1	-0.06523109
142	0x3c4fdeff	0.012687444
143	0xbc1c211b	-0.009529377
144	0x3d08b8fb	0.033379536
145	0xbcf1ebe7	-0.029531432
146	0x3d32c98d	0.043649245
147	0x3d311365	0.043231387
148	0x3ddf8308	0.10913664
149	0xbd2a5cd3	-0.04159243
150	0xbda2ddbe	-0.0795245
151	0xbcf675f4	-0.030085541
152	0x3d867c10	0.06566632
153	0x3d87d504	0.066324264
154	0x3c86776d	0.016414369
155	0x3d716bb9	0.058940623
156	0xbda520e5	-0.08062915
157	0xbd91c103	-0.07116892
158	0x3ce49c85	0.027906666
159	0xbc9e8014	-0.019348182
160	0xbdae919a	-0.08523865
161	0x3c034b1b	0.008013512
162	0xbce2ca0c	-0.027684234
163	0xbd595e17	-0.053068247
164	0x3d029802	0.031883247
165	0x385df3e0	5.2917632e-05
166	0x3ccd3b8f	0.025052814
167	0x3d8a52ef	0.067540996
168	0x3ccb1446	0.02478994
169	0x3d502721	0.050818566
170	0x3ce4dd97	0.027937694
171	0x3d3e2e5c	0.04643093
172	0x3d5f46d6	0.054510914
173	0xbcdbe637	-0.026843173
174	0x3d407f4f	0.04699641
175	0x3d7cb382	0.06169463
176	0xbcec2960	-0.028828323
177	0xbd60d293	-0.05488832
178	0x3dcf32ef	0.10117137
179	0x3d62025b	0.055178028
180	0xbd87101c	-0.065948695
181	0xbdbc09b2	-0.09181537
182	0xbc7b3382	-0.015332105
183	0x3d637924	0.05553545
184	0xbd9d6407	-0.07685094
185	0x3c266fe5	0.010158514
186	0x3d9a79c9	0.0754276
187	0x3d3bf792	0.0458904
188	0xbd091e0d	-0.033475924
189	0x3d561e04	0.05227472
190	0xbcbb92d9	-0.02289717
191	0x3ca5c8d6	0.020237368
192	0x3cbce2e7	0.023057414
193	0x3c1b89ee	0.009493334
194	0x3c940205	0.01806737
195	0x3d7127eb	0.05887596
196	0x3bfcc738	0.0077141784
197	0x3d8e1e82	0.06939413
198	0x3dc9c468	0.09851915
199	0xbdb386e5	-0.087659635
200	0x3c61f0c1	0.01379031
201	0xbcf22969	-0.029560762
202	0xbcf26957	-0.029591246
203	0xbd782fa0	-0.060592294
204	0x3d9142b3	0.070928
205	0x3d839a02	0.06425859
206	0xbba1eff9	-0.004941937
207	0xbd92ceeb	-0.07168373
208	0xbd787adc	-0.060664043
209	0x3d9e37b2	0.07725467
210	0xbd0adc5a	-0.03390155
211	0xbda168bc	-0.078813046
212	0xbcaa89ad	-0.020817602
213	0xbd5bd016	-0.053665243
214	0x3cf84e68	0.030310825
215	0xbd5a7858	-0.053337425
216	0x3d376703	0.044775974
217	0x3d549b31	0.051905815
218	0xbd0f9bf3	-0.035060834
219	0xbc988aba	-0.018620837
220	0x3d78f6bc	0.06078218
221	0x3d86ad9d	0.06576083
222	0xbd43025c	-0.047609672
223	0xbd826e0f	-0.06368648
224	0x3d04f824	0.032463208
225	0x3d06d72e	0.032920055
226	0xbdb11747	-0.08647018
227	0xbcd47538	-0.0259348
228	0x3c93b11f	0.018028794
229	0xbd24bed7	-0.04022106
230	0xbd5d17ab	-0.05397765
231	0xb955a765	-0.00020375622
232	0xbd3c869b	-0.046026807
233	0x3d388915	0.045052607
234	0x3d37c273	0.044863176
235	0xbd3406c0	-0.04395175
236	0x3d41e2ad	0.047335315
237	0xbd400410	-0.046878874
238	0x3cf0e5f3	0.029406523
239	0xbc991080	-0.018684626
240	0x3d23c1f9	0.03997991
241	0xbcf7f7bd	-0.030269498
242	0x3be929e5	0.00711559
243	0xbd2ee927	-0.04270282
244	0xbd360762	-0.044440635
245	0x3c099a40	0.0083985925
246	0x3d553532	0.052052684
247	0xbd18e830	-0.037330806
248	0x3cfb4211	0.030671151
249	0x3d58fa45	0.05297305
250	0xbde5e6d1	-0.11225665
251	0xbdc0a3ba	-0.09406228
252	0xbd57a2e3	-0.052645575
253	0x3cd9a9dd	0.026570255
254	0xbd36a0ee	-0.04458707
255	0xbdae3df4	-0.0850791

conv3.0.bias f4 [8]
0	0x33450b3a	4.5877847e-08
1	0x35090ea2	5.105777e-07
2	0x36463c3b	2.9539358e-06
3	0xb52d1f71	-6.4493275e-07
4	0xb5a33552	-1.2159965e-06
5	0xb54350f2	-7.276095e-07
6	0x3535b563	6.7691707e-07
7	0xb5283a0d	-6.266935e-07

conv3.1.weight f4 [8]
0	0x3f6ba56a	0.92049277
1	0x3f740fd5	0.9533666
2	0x3f79d59a	0.97591555
3	0x3f753332	0.9578124
4	0x3f7b0271	0.980506
5	0x3f785cde	0.97016704
6	0x3f711fe3	0.9418928
7	0x3f71d39a	0.94463503

conv3.1.bias f4 [8]
0	0x3ca34080	0.019928217
1	0x3cbab861	0.022792997
2	0x3c8bb77c	0.017055266
3	0x3ab3cdfb	0.0013718003
4	0x3d7a82e4	0.061159983
5	0xbcb7438e	-0.02237108
6	0xbd0b7b69	-0.03405324
7	0xbc83d892	-0.01609448

conv3.1.running_mean f4 [8]
0	0x3cb66d14	0.02226881
1	0x3d917915	0.07103173
2	0xbecd3a57	-0.40083572
3	0xbe6e3d75	-0.23265631
4	0x3df5c340	0.120001316
5	0xbe166ffe	-0.14691159
6	0x3ea638a9	0.32465103
7	0xbe9bc0ba	-0.30420476

conv3.1.running_var f4 [8]
0	0x3dde0dae	0.10842453
1	0x3de2a0c4	0.1106582
2	0x3d9063d3	0.0705029
3	0x3e0524f7	0.13002382
4	0x3e0635ec	0.13106507
5	0x3e4d4b1f	0.20048188
6	0x3e8e33a8	0.27773786
7	0x3e1b5884	0.15170485

conv4.0.weight f4 [4, 8, 3, 3]
0	0x3c78857f	0.015168547
1	0x3d1ff021	0.039047364
2	0x3da362c3	0.07977822
3	0x3d34c5a9	0.044133816
4	0x3d753477	0.059864487
5	0xbcc8dfef	-0.024520842
6	0x3cc6593d	0.024212474
7	0xbcc75271	-0.024331303
8	0xbdc40eb3	-0.09573116
9	0xbd91680a	-0.07099922
10	0xbdec8bd7	-0.1155011
11	0x3da442eb	0.08020576
12	0xbdcb49bc	-0.09926173
13	0xbdaf2205	-0.085514106
14	0x3ca6a799	0.020343589
15	0x3d0d3135	0.034470756
16	0x3d7ff52e	0.06248968
17	0xbd7d8abf	-0.061899897
18	0x3c861764	0.016368575
19	0x3dc8d50d	0.09806261
20	0x3d28c306	0.041201614
21	0x3d7661ff	0.06015205
22	0xbda5770f	-0.08079349
23	0xbdf32a62	-0.11873318
24	0x3dbd578c	0.09245214
25	0xbdd0ff00	-0.102048874
26	0x3d29a64d	0.041418362
27	0xbdedef7e	-0.11617945
28	0xbdee6d61	-0.11641956
29	0x3c961e72	0.018325064
30	0xbdaded83	-0.084925674
31	0xbd248655	-0.04016717
32	0x3cd7943d	0.026315803
33	0x3e0fa8e4	0.1402927
34	0x3d63649e	0.055515878
35	0xbc8a7cf3	-0.016905284
36	0x3d68b0f0	0.056809366
37	0x3cdf4799	0.02725582
38	0x3c6710db	0.01410314
39	0x3dda7261	0.10666347
40	0x3dd9172a	0.10600121
41	0xbda3d03b	-0.07998701
42	0xbe01c991	-0.12674548
43	0x3de82118	0.11334437
44	0xbd1fa313	-0.03897388
45	0xbcedccc2	-0.0290283
46	0xbde0aaf5	-0.109701075
47	0x3cc624ba	0.024187434
48	0xbdb342b0	-0.08752954
49	0xbdfc04e2	-0.12305619
50	0x3d7d6346	0.061862253
51	0x3d1c6413	0.038181376
52	0xbd81cff0	-0.06338489
53	0xbdeac6c5	-0.114636935
54	0x3d728f6c	0.05921881
55	0xbd57818b	-0.052613776
56	0x3d25fedb	0.040526252
57	0xbdaca777	-0.08430379
58	0x3d70926e	0.058733396
59	0xbbd1484a	-0.0063867914
60	0x3de28204	0.11059955
61	0x3dae3c18	0.08507556
62	0xbd854571	-0.065073855
63	0xbd39d8a3	-0.045372616
64	0x3da1bbef	0.078971736
65	0x3d87d116	0.06631677
66	0x3df3ddba	0.11907525
67	0xbc7f26e0	-0.015573233
68	0x3dcb4875	0.099259295
69	0x3c4d8f17	0.012546322
70	0xbdee3275	-0.11630718
71	0xbd6e579d	-0.058189023
72	0x3d9ec084	0.07751563
73	0x3da62cc0	0.08114004
74	0x3dbac2c4	0.0911918
75	0xbcde709f	-0.027153311
76	0xbcd07f57	-0.025451345
77	0x3dd89f55	0.10577265
78	0x3ccabfb3	0.024749612
79	0x3d425b65	0.047450442
80	0x3d6f266f	0.058386263
81	0xbd14ca51	-0.036325756
82	0x3def532b	0.11685785
83	0x3df83c6c	0.121208996
84	0x3d11725a	0.035509445
85	0xbd56b692	-0.052420206
86	0xbbddb2b9	-0.00676569
87	0x3df5642b	0.11981996
88	0x3c401f6c	0.011726242
89	0xbd1a9cd2	-0.03774721
90	0x3dcf2aa7	0.10115557
91	0x3d13a47b	0.036045533
92	0xbd0b83b4	-0.03406115
93	0x3c4f8dc2	0.012668075
94	0x3d4b8dd9	0.049695823
95	0xbddad7ab	-0.10685667
96	0x3d080ba1	0.033214215
97	0x3d424df7	0.047437634
98	0xbd7d95ff	-0.061910626
99	0x3cee6980	0.02910304
100	0xbcfa859e	-0.030581292
101	0x3d072c25	0.033001084
102	0x3cc877c1	0.024471166
103	0x3ce38534	0.027773477
104	0x3d7840a4	0.06060852
105	0xbc894f5f	-0.01676148
106	0xbd4b0dfc	-0.049573883
107	0xbd8b4ad1	-0.068013795
108	0x3db6a143	0.08917477
109	0x3d930894	0.071793705
110	0xbce66b5b	-0.028127363
111	0x3df60e32	0.12014426
112	0x3d1aa6cc	0.037756726
113	0x3c88f301	0.016717436
114	0x3d0eb93b	0.03484462
115	0x3e06de21	0.13170673
116	0x3d1b41cb	0.037904542
117	0x3d750a2d	0.059824158
118	0xbd64b645	-0.05583789
119	0xbd39be3f	-0.04534745
120	0xbc26e6ab	-0.0101868315
121	0x3dd0e7d5	0.102004685
122	0x3cbebd7c	0.023283713
123	0x3dda0fae	0.10647522
124	0xbd2ac14a	-0.04168824
125	0x3c656de9	0.014003255
126	0x3d53ffc3	0.051757585
127	0x3d8430b1	0.064546
128	0x3d4acbdd	0.049510825
129	0x3dc48842	0.095963016
130	0xbdc9d8aa	-0.098557785
131	0xbd5ffc89	-0.054684196
132	0x3c334279	0.010941141
133	0x3dd5a938	0.104326665
134	0x3cb31b76	0.02186368
135	0x3c9acd29	0.018896656
136	0xbdb9810a	-0.090578154
137	0x3d88a957	0.06672924
138	0x3d7def3b	0.061995726
139	0x3ccebd6c	0.025236808
140	0xbd04b9fa	-0.032403924
141	0xbabcc3c8	-0.0014401609
142	0x3d500a46	0.050791048
143	0xbd9b89bd	-0.07594631
144	0x3d3b8ad8	0.04578671
145	0x3ac213fe	0.0014806984
146	0xbc8db3ce	-0.017297652
147	0x3c06105e	0.008182613
148	0x3c916c62	0.017751876
149	0x3dbf66f0	0.09345806
150	0xbdb82105	-0.08990673
151	0x3ddec2db	0.108770095
152	0x3b232b4e	0.0024897638
153	0x3db7fdb6	0.089839384
154	0x3d30f18b	0.043199103
155	0x3ce7d874	0.028301455
156	0xbe188918	-0.14896047
157	0xbc2cf51e	-0.010556487
158	0x3b554d04	0.0032547126
159	0x3d868b2c	0.06569514
160	0xbdace916	-0.08442895
161	0xbc68d4de	-0.014210908
162	0x3cb27df4	0.021788575
163	0x3cf0c79f	0.029392062
164	0x3df08a84	0.1174517
165	0xbda8616a	-0.08221705
166	0xbca387d8	-0.019962236
167	0x3b78da7e	0.0037972028
168	0xbd758f26	-0.05995097
169	0x3de805e5	0.11329249
170	0xbd7a54aa	-0.0611159
171	0x3daa16f1	0.08305157
172	0xbd3be5cc	-0.04587345
173	0x3b7a3ee0	0.003818445
174	0xbd30c7cb	-0.043159287
175	0xbd884c1b	-0.06655141
176	0x3d8577d6	0.065169975
177	0x3cc0c550	0.023531586
178	0xbb4b2a04	-0.0031000385
179	0x3e045c09	0.12925734
180	0xbd1bd663	-0.038046252
181	0x3d9f3680	0.07774067
182	0x3d2d8588	0.042363673
183	0x3d011666	0.0315155
184	0x3cdba5a6	0.026812386
185	0xbdcefd27	-0.10106879
186	0x3ce0aa6b	0.027425012
187	0xbc904d2f	-0.017614929
188	0x3d931d6b	0.071833454
189	0xbdf95f50	-0.121763825
190	0xbda40ffd	-0.08010862
191	0xbd125717	-0.035727587
192	0x3cb3111e	0.021858748
193	0x3ce6b8fa	0.028164376
194	0xbd0aa9fc	-0.033853516
195	0xbdcb7afb	-0.09935566
196	0xbd5baa93	-0.05362947
197	0x3ddb3679	0.10703749
198	0x3d1b4d69	0.03791562
199	0xbdf22a9e	-0.11824535
200	0xbcb6fa42	-0.02233613
201	0x3c3dc4cd	0.0115825655
202	0xbe0988c2	-0.13431075
203	0x3d9443f4	0.072395235
204	0x3db941f6	0.09045784
205	0xbcbf4b11	-0.023351224
206	0x3d636d4c	0.055524155
207	0xbe1fccd9	-0.15605487
208	0xbcb2bbfb	-0.021818152
209	0xbd01b302	-0.031664856
210	0x3dce30d5	0.10067908
211	0x3dfc70b3	0.12326183
212	0xbd9ede06	-0.07757191
213	0x3d93f105	0.07223705
214	0x3c5faf03	0.013652566
215	0x3b252a2e	0.0025202143
216	0xbce96ae5	-0.028493354
217	0x3d8d7ecf	0.069089524
218	0xbdb49abb	-0.08818575
219	0x3daaa3fa	0.08332057
220	0x3cade273	0.021226143
221	0x3d479cb7	0.04873344
222	0xbdbe9912	-0.093065396
223	0xbd093396	-0.03349646
224	0x3dc6e59d	0.09711764
225	0xbd374259	-0.04474101
226	0x3d07ab91	0.033122603
227	0x3dd448ca	0.10365446
228	0xbd6279d7	-0.055291977
229	0x3d603723	0.054740082
230	0x3dd8684c	0.10566768
231	0x3dc76ffc	0.09738156
232	0xbdc0b3db	-0.09409305
233	0xbd8a4873	-0.067521
234	0x3dc5c9d7	0.096576385
235	0x3e05c807	0.13064586
236	0xbdfa190c	-0.122118086
237	0x3cb6e0aa	0.022323925
238	0x3d795574	0.06087251
239	0x3dc6d514	0.0970861
240	0xbce82be3	-0.02834124
241	0xbd454c9c	-0.048168764
242	0xbccf227e	-0.025285002
243	0xb94f7c96	-0.0001978747
244	0x3d8b9226	0.06814985
245	0xbd980a64	-0.07423857
246	0xbd48fc47	-0.049068715
247	0xbd24f4f8	-0.040272683
248	0xbdf150ca	-0.117829874
249	0xbdf25883	-0.118332885
250	0xbdb3d64d	-0.08781109
251	0x3dbeb34f	0.09311544
252	0xbe095faa	-0.13415399
253	0xbde2a0f2	-0.11065854
254	0x3d71bcab	0.05901782
255	0x3d7e008e	0.062012248

conv4.0.bias f4 [4]
0	0xb5283bef	-6.267209e-07
1	0xb3eb66be	-1.0961729e-07
2	0xb56c6be5	-8.807386e-07
3	0xb3d400e8	-9.872184e-08

conv4.1.weight f4 [4]
0	0x3f7c7f1a	0.9863144
1	0x3f6b032b	0.9180171
2	0x3f7da64f	0.9908189
3	0x3f7d53c5	0.9895595

conv4.1.bias f4 [4]
0	0x3ce82a07	0.028340353
1	0xba491ec0	-0.00076721236
2	0x3c9b0ab8	0.01892601
3	0x3c1a362a	0.009412328

conv4.1.running_mean f4 [4]
0	0xbaba01a5	-0.0014191164
1	0x3f32a927	0.69789356
2	0x3cead57e	0.028666254
3	0x3e2571e6	0.1615673

conv4.1.running_var f4 [4]
0	0x3d92ecd8	0.071740806
1	0x3e7d375d	0.2472815
2	0x3d851c81	0.06499577
3	0x3e1021fe	0.14075467

fc1.0.weight f4 [42, 84]
0	0xbcfa1bf4	-0.030530907
1	0x3cd16035	0.02555857
2	0x3dc025ba	0.09382196
3	0xbc49e410	-0.012322441
4	0xbd1f4ad2	-0.038889714
5	0xbdb4a199	-0.08819885
6	0xbc223cf5	-0.009902229
7	0x3d398259	0.045290325
8	0x3cebefce	0.028800871
9	0x3d5565bc	0.052098975
10	0xbc42f329	-0.011898794
11	0x3dda7003	0.10665896
12	0x3d2132fd	0.039355267
13	0x3d044069	0.03228799
14	0xbd346926	-0.04404559
15	0x3c2726c0	0.01020211
16	0x3cff7e17	0.031188054
17	0xbcf8e22d	-0.030381287
18	0x3dbb96b6	0.09159605
19	0xbbd623b8	-0.0065350197
20	0xbca2d715	-0.01987795
21	0xbd940787	-0.07227998
22	0xbcee2d4e	-0.029074337
23	0x3db07255	0.08615557
24	0x3d1f94af	0.038960155
25	0x3cee082b	0.02905663
26	0xbccc310b	-0.02492573
27	0xbd1b56f8	-0.037924737
28	0xbc434fcf	-0.011920883
29	0xbd7ead0c	-0.06217675
30	0x3df5a2b9	0.119939275
31	0x3d81afeb	0.06332382
32	0xbcfc9361	-0.030831994
33	0x3c88dc3a	0.016706575
34	0xbc966e4c	-0.01836314
35	0x3dabe072	0.08392419
36	0x3cce1472	0.025156233
37	0x3d90c72f	0.07069241
38	0x3c6b5efd	0.014365909
39	0x3d8c56fc	0.068525285
40	0x3cf19605	0.02949048
41	0x3db20e20	0.086941004
42	0xbcf62265	-0.030045697
43	0xbd385b9c	-0.04500924
44	0x3c19c575	0.009385456
45	0xbc50d915	-0.012747069
46	0xbbeaa973	-0.007161313
47	0xbd94d7fa	-0.07267757
48	0xbd7636f2	-0.060110994
49	0x3ba3a712	0.0049942816
50	0x3d4e5ae2	0.05037964
51	0x3dadfec6	0.0849586
52	0x3d949c30	0.07256353
53	0xbd69f32b	-0.05711667
54	0x3d2d6dee	0.042341165
55	0x3d9a8e59	0.07546682
56	0x38fc8a27	0.00012042029
57	0x3d1c2ff2	0.03813166
58	0xbc759e63	-0.014991376
59	0x3df566a5	0.119824685
60	0x3deae84c	0.11470088
61	0xbd0881fe	-0.033327095
62	0x3c35f1ff	0.01110506
63	0xbd1b94c7	-0.037983682
64	0xbb5ce8d1	-0.0033708105
65	0x3dc16f94	0.0944511
66	0xbd5e3f0b	-0.05425934
67	0x3926837f	0.0001587998
68	0x3d9d40d9	0.07678384
69	0x3a888bc6	0.0010417632
70	0xbd3d56b6	-0.046225272
71	0x3d31c27e	0.043398373
72	0x3d8f1d52	0.06988014
73	0x3d962948	0.073320925
74	0xbc7f4675	-0.015580763
75	0x3d15d0a9	0.036575947
76	0x3cb070d5	0.021538178
77	0x3c9c7a76	0.019101363
78	0xbc17e1ec	-0.009270173
79	0x3deeebf9	0.11666102
80	0x3cc8d122	0.024513785
81	0xbd0f21e0	-0.034944415
82	0x3d75ce0c	0.060010955
83	0x3dd799f6	0.105274126
84	0x3d2a2cd8	0.041546673
85	0x3d6db6fd	0.05803584
86	0x3c149585	0.009068851
87	0x3dafe5d5	0.08588759
88	0xbd9a07ff	-0.075210564
89	0x3d808dbe	0.06277035
90	0xbcf90c5e	-0.030401405
91	0xbd52ab03	-0.05143262
92	0x3d053e1b	0.03252993
93	0xbb75a535	-0.0037482504
94	0xbcc75ba1	-0.024335684
95	0xbb9bb563	-0.0047518476
96	0x3ce4a251	0.02790943
97	0x3d8c7fd3	0.06860318
98	0xbdbd9948	-0.09257752
99	0x3d1f0a94	0.038828447
100	0xbd2c7b85	-0.042109985
101	0x3ccf8dd4	0.025336184
102	0xbd848c07	-0.064720206
103	0xbc2d6bad	-0.010584754
104	0xbd850661	-0.06495357
105	0x3c7a3d51	0.015273408
106	0xbd3c1080	-0.045914173
107	0xbd479868	-0.04872933
108	0xbd4a013e	-0.04931759
109	0x3db6b128	0.089205086
110	0x3caccb98	0.021093175
111	0xbc708316	-0.014679691
112	0x3c9d818a	0.019226808
113	0xbc502aa0	-0.012705475
114	0xbda04064	-0.078247815
115	0xbdb86ccb	-0.090051256
116	0xbdb104ef	-0.08643519
117	0xb9a364a1	-0.00031164757
118	0xbd4b8ccb	-0.049694818
119	0xbc1d5a1d	-0.009604004
120	0xbde31e74	-0.11089793
121	0xbd80b818	-0.06285113
122	0x3d065d66	0.032803915
123	0xbc2edd18	-0.01067283
124	0x3d26f786	0.0407634
125	0x3d344eaa	0.044020332
126	0xbdb7d702	-0.08976556
127	0xbe0fc679	-0.14040555
128	0xbcf4b274	-0.02987025
129	0x3de6b3e1	0.11264778
130	0x3d455c0f	0.048183497
131	0x3a83601d	0.0010023151
132	0x3d0aeb4f	0.033915814
133	0xbd938a38	-0.072040975
134	0xbc1cddd7	-0.009574375
135	0x39a89764	0.00032156252
136	0x3e12309b	0.14276354
137	0xbc91dfbe	-0.017806884
138	0x3d4bc0cd	0.049744416
139	0x3b81f841	0.0039663617
140	0xbd5d6beb	-0.054057997
141	0xbd6ccb63	-0.057811152
142	0xbc3deb05	-0.011591678
143	0xbdbf4284	-0.09338859
144	0x3da7330c	0.08164033
145	0x3e1a1d9b	0.15050356
146	0xbd28e0ff	-0.041230198
147	0x3c94d619	0.018168496
148	0x3c0950e2	0.0083811
149	0xbd0598a8	-0.032616287
150	0xbdb70f21	-0.089384325
151	0x3d53f866	0.051750563
152	0x3d849f14	0.06475654
153	0xbd1ccb0f	-0.03827959
154	0xbdabb643	-0.08384373
155	0x3d8c4f45	0.06851057
156	0x3c7e3f97	0.015518091
157	0x3d4c0b79	0.04981563
158	0x3d239d40	0.039944887
159	0x3d90494d	0.07045231
160	0x3de4278e	0.11140357
161	0x3d817db2	0.063228026
162	0x3db77df2	0.08959569
163	0x3d2b1ed0	0.041777432
164	0xbc19a252	-0.009377079
165	0x3d59db46	0.05318763
166	0xbc914662	-0.017733756
167	0xbc58a9d2	-0.013224082
168	0xbc4347dc	-0.011918988
169	0x3d96332c	0.07333979
170	0x3c246c6b	0.0100356145
171	0x3d2d21c0	0.042268515
172	0xbc5e3a34	-0.013563681
173	0x3dd4373d	0.10362098
174	0x3b99fd05	0.0046993517
175	0x3dc207d3	0.094741486
176	0x3d1ca192	0.038240023
177	0x3cdcbf59	0.02694671
178	0x3c947092	0.018120084
179	0x3d713168	0.058885008
180	0xbcad7ea9	-0.02117856
181	0xbbead2f6	-0.007166262
182	0xbd8ca0b6	-0.06866591
183	0xbd5d5cc9	-0.054043565
184	0xbc67f90d	-0.014158499
185	0x3d90aa62	0.07063748
186	0xbc9b638c	-0.018968366
187	0xbcc589b9	-0.024113523
188	0xbce030a7	-0.02736695
189	0x3e0eae30	0.13933635
190	0x3c1dd85c	0.009634104
191	0x3d0f5962	0.03499735
192	0xbc4d681f	-0.012537031
193	0xbcdf55a8	-0.027262524
194	0xbceeacbb	-0.029135099
195	0x3d97ae0c	0.07406244
196	0xbcae7735	-0.021297077
197	0xbd91f936	-0.07127611
198	0xbd272cd9	-0.040814254
199	0xbd24471a	-0.04010687
200	0xbcfaea69	-0.030629354
201	0xbcefbb0f	-0.029264001
202	0x3b941092	0.004518577
203	0x3da95fff	0.08270263
204	0x3dd32043	0.10308888
205	0xbcd2f207	-0.025750173
206	0x3da28c8d	0.07936964
207	0xbc03f8c6	-0.008054918
208	0xbceb05ee	-0.028689351
209	0x3dc52dd1	0.096278794
210	0x3c8e73e6	0.017389249
211	0xbd9bcbdd	-0.07607243
212	0xbd742ee0	-0.059615016
213	0xbdd8156a	-0.105509594
214	0xbba80ed0	-0.005128719
215	0xbc3ace45	-0.011401718
216	0x3ab07ef7	0.0013465573
217	0x3c5ada8d	0.013357771
218	0xbc7a1e95	-0.01526608
219	0x3dd538f1	0.10411251
220	0xbce50242	-0.027955178
221	0x3dccb8d5	0.099961914
222	0x3c329282	0.010899188
223	0x3da552dc	0.08072445
224	0x3adb258c	0.0016719564
225	0x3b305a39	0.0026909246
226	0x3d91960f	0.071086995
227	0x3db23bc0	0.08702803
228	0xbcd0eec8	-0.025504485
229	0xbc80bf3c	-0.015716188
230	0xbd57211a	-0.052521802
231	0xbc6b9237	-0.014378122
232	0xbd674081	-0.056458
233	0x3d20628d	0.039156485
234	0x3dd38161	0.103274114
235	0xbde17aed	-0.11009774
236	0x3d0bbc6f	0.03411525
237	0xbcbc7127	-0.023003174
238	0x3d7aec45	0.06126048
239	0x3d477498	0.048695177
240	0xbc9e33bf	-0.019311784
241	0x3bf87e75	0.007583434
242	0xbdb73857	-0.08946293
243	0xbcd51b30	-0.02601394
244	0x3d377841	0.044792417
245	0x3d72c98d	0.059274245
246	0xbd1ae2b8	-0.037813872
247	0x3da465f4	0.080272585
248	0x3d92e511	0.07172597
249	0xbd2d3d7c	-0.042294964
250	0xbddd11cb	-0.10794409
251	0xbd668668	-0.056280524
252	0x3c8ce9f0	0.017201394
253	0x3b9c0e09	0.0047624153
254	0xbcc02345	-0.023454318
255	0x3c2e47e9	0.010637262

fc1.0.bias f4 [42]
0	0xb501733a	-4.822392e-07
1	0xb43e11bf	-1.7701585e-07
2	0x33078a7a	3.155808e-08
3	0x333b7d92	4.3653536e-08
4	0xb32a922d	-3.9714156e-08
5	0x33a47ea0	7.659878e-08
6	0x34136565	1.3727329e-07
7	0x33c015f3	8.944689e-08
8	0x32db4aef	2.5529031e-08
9	0x30c4ada0	1.4310224e-09
10	0xb45b8883	-2.0445627e-07
11	0x334ad0d1	4.7221707e-08
12	0x33010040	3.003538e-08
13	0xb3e13682	-1.0487294e-07
14	0xb31cbd4c	-3.6493745e-08
15	0x331429ef	3.4497074e-08
16	0x311b9d1e	2.264478e-09
17	0xb3a70c12	-7.778739e-08
18	0x32fc5a4c	2.9377723e-08
19	0xb2a5d15d	-1.9303735e-08
20	0xb20e9750	-8.299892e-09
21	0x3380d03a	5.998341e-08
22	0xb22ec926	-1.0173869e-08
23	0x330e5524	3.3139386e-08
24	0xb390636f	-6.7236094e-08
25	0xb26b90cc	-1.3711723e-08
26	0x31885fff	3.9690344e-09
27	0x31e32f50	6.6119483e-09
28	0xb276bb41	-1.4361661e-08
29	0x3362e63d	5.2829126e-08
30	0x32001aad	7.456646e-09
31	0xb423a474	-1.5240386e-07
32	0x3377600c	5.7596523e-08
33	0xb2b225af	-2.0739064e-08
34	0xb386d64f	-6.278844e-08
35	0xb249fd88	-1.1757386e-08
36	0x33d9b6bc	1.0138089e-07
37	0x33d1269e	9.739345e-08
38	0x329484fd	1.7289944e-08
39	0xb3061dea	-3.1226513e-08
40	0xb35fb404	-5.2084957e-08
41	0xb2214c26	-9.388748e-09

fc1.1.weight f4 [42]
0	0x3f46c343	0.77641696
1	0x3f4f847c	0.8106153
2	0x3f52b008	0.8229985
3	0x3f4be17a	0.79640925
4	0x3f730001	0.9492188
5	0x3f5f6563	0.8726408
6	0x3f56f184	0.83962274
7	0x3f52585f	0.82166094
8	0x3f50dd36	0.8158754
9	0x3f4c07ad	0.7969921
10	0x3f6b465c	0.91904235
11	0x3f50ed4c	0.81612086
12	0x3f632485	0.887276
13	0x3f4b6295	0.794473
14	0x3f4a202d	0.78955346
15	0x3f765b10	0.962327
16	0x3f4efc06	0.8085331
17	0x3f5ccbc8	0.86248446
18	0x3f48146d	0.7815617
19	0x3f56f337	0.83964866
20	0x3f442799	0.7662292
21	0x3f5c265f	0.8599605
22	0x3f49d6e2	0.7884351
23	0x3f576a0c	0.8414619
24	0x3f78e590	0.97225285
25	0x3f4c09e7	0.7970261
26	0x3f5c2950	0.8600054
27	0x3f75e28c	0.9604881
28	0x3f4dafde	0.8034648
29	0x3f5a1761	0.85191923
30	0x3f50c526	0.81550825
31	0x3f5528ae	0.832652
32	0x3f639fc8	0.8891568
33	0x3f5d410d	0.86427385
34	0x3f63daab	0.89005536
35	0x3f68c71d	0.9092882
36	0x3f606217	0.87649673
37	0x3f4caf06	0.79954565
38	0x3f4478f3	0.76747054
39	0x3f5fd857	0.87439483
40	0x3f6d5c96	0.927194
41	0x3f4d4f0b	0.80198735

fc1.1.bias f4 [42]
0	0xbda49c04	-0.0803757
1	0xbc6fd8f4	-0.014639128
2	0x380eacd6	3.4016404e-05
3	0x3d2eb9dd	0.04265772
4	0xbd81543d	-0.06314895
5	0xbc42a98c	-0.011881243
6	0xbcc0193c	-0.023449533
7	0xbd33b274	-0.043871358
8	0xbd08445c	-0.033268318
9	0xbd80652b	-0.06269296
10	0xbc7ef280	-0.015560746
11	0xbbd93d46	-0.006629619
12	0x3e0ad949	0.1355945
13	0x3b3d606b	0.002889658
14	0x3c55450a	0.0130169485
15	0x3d4aa598	0.04947433
16	0xbd176770	-0.03696388
17	0xbb4b88f5	-0.0031056975
18	0xbd49fdda	-0.049314357
19	0xbccc7ad2	-0.024960909
20	0xbd600c4e	-0.054699235
21	0xbc168ed2	-0.009189324
22	0xbc5a1a96	-0.013312003
23	0x3db714f7	0.089395456
24	0x3c870b16	0.016484778
25	0x3d08787b	0.033318024
26	0xbc4afb72	-0.012389051
27	0xbd21bec9	-0.039488588
28	0xbc78d1a9	-0.015186706
29	0x3ca5c3d6	0.020234983
30	0xbdbcccd1	-0.09218753
31	0xbd155b31	-0.03646392
32	0x3d30c773	0.04315896
33	0xbd9b66ab	-0.07587942
34	0xbb1da3b0	-0.0024053864
35	0xbd8e9397	-0.06961744
36	0xbd0432e9	-0.032275114
37	0xbbda4faa	-0.0066623287
38	0xbcc2374b	-0.023708006
39	0xbac87884	-0.0015294706
40	0xbc240645	-0.01001126
41	0xbd0597d2	-0.03261549

fc1.1.running_mean f4 [42]
0	0x3fff42ab	1.994222
1	0x3f067eb4	0.52537084
2	0xbc602a30	-0.013681933
3	0xbfd7ab14	-1.6849084
4	0x3ea25563	0.3170577
5	0x3dabe63a	0.083935216
6	0x3f638a8c	0.8888328
7	0x3f770d43	0.9650461
8	0x3f1054b4	0.56379247
9	0xbf15d7a9	-0.58532196
10	0xbf44cd12	-0.7687541
11	0xbe3dd97a	-0.18539992
12	0xbea50f0f	-0.3223805
13	0x3fe86f73	1.8159012
14	0x3eb2d86c	0.34930742
15	0x3eacf9f4	0.3378445
16	0xbf089bb2	-0.5336257
17	0x3e4163c6	0.18885717
18	0xbe4dd267	-0.20099793
19	0xbf0af97b	-0.54286927
20	0x400d7ad3	2.2106216
21	0xbfa3a553	-1.2784828
22	0xc01d170b	-2.4545314
23	0xbe7116d6	-0.23543867
24	0xbe0b05e0	-0.1357646
25	0xbc02f003	-0.007991794
26	0x3f97ec1d	1.1868931
27	0xbf88f1dc	-1.069881
28	0xbecb020d	-0.39650002
29	0xbed4710f	-0.41492507
30	0xbe1accee	-0.15117237
31	0x3e50ce1e	0.20391127
32	0xbebb2642	-0.36552626
33	0xbf5d366e	-0.8641118
34	0xbfb51317	-1.4146451
35	0xbec742f7	-0.38918278
36	0xbf1e8de5	-0.61935264
37	0x3cf145bc	0.029452197
38	0xbf9e0640	-1.2345657
39	0xbef3aebc	-0.4759425
40	0x3f943625	1.1579024
41	0x3f2933ad	0.66094476

fc1.1.running_var f4 [42]
0	0x3efe5571	0.49674562
1	0x3e845644	0.25847065
2	0x3ed841f7	0.42237827
3	0x3f60306b	0.8757388
4	0x3e7befbd	0.24603172
5	0x3e946e8d	0.28990594
6	0x3ea61fe4	0.32446206
7	0x3e5c9b16	0.21543536
8	0x3ea2236d	0.31667653
9	0x3e9c4f61	0.3052931
10	0x3e878f51	0.2647653
11	0x3ea14b69	0.31502846
12	0x3ebbe05b	0.36694607
13	0x3ebe2fa8	0.37145734
14	0x3e851414	0.2599188
15	0x3eae4d57	0.3404338
16	0x3ec7a540	0.38993263
17	0x3eac6c7f	0.33676526
18	0x3ec4442f	0.3833327
19	0x3edab2e4	0.42714608
20	0x3f49e1e8	0.7886033
21	0x3f0e74b5	0.5564683
22	0x3f893d55	1.0721842
23	0x3e822d4f	0.25425193
24	0x3e2c141c	0.16804546
25	0x3e9e81d9	0.3095844
26	0x3e7dba6a	0.24778143
27	0x3ef5e32a	0.48024875
28	0x3e88bba3	0.26705655
29	0x3ec7e4a0	0.39041615
30	0x3e85d928	0.2614224
31	0x3e8a7978	0.27045798
32	0x3eee05a4	0.46488678
33	0x3efa0d21	0.48838142
34	0x3ee1dcd2	0.44113785
35	0x3e88d669	0.26726082
36	0x3e65d4bb	0.22444431
37	0x3eb7502a	0.35803348
38	0x3e20173c	0.15633863
39	0x3e545afe	0.20737836
40	0x3e9f50ac	0.31116235
41	0x3ec88bed	0.39169255
