state_dict.pth (torch, 59042 bytes, 38 tensors)

conv1.0.weight f4 [32, 1, 3, 3]
00000000: 2249 873e 8a6d 783e ff64 5e3e 13b6 37be
00000010: 5f7b 6d3e b02d 18be fa85 59be 066c 85be
00000020: 04a3 80be 0a74 03be 0a8c 55be 5eee c63c
00000030: ae80 75bd a599 84be 1295 13be e786 973e
00000040: 0b16 b53b 1c9c fdbd 02f3 543e f6c3 743d
00000050: ac11 93bd 7c90 453e b68b 29be d8d4 6f3e
00000060: b847 1d3e ff01 843e 8317 c5bd c23d ff3c
00000070: 2dfa 4cbe b74b 8a3e 5036 3d3e e725 163d
00000080: e8c2 6d3d a56e 2bbe 91f3 a53c f0ef 3dbe
00000090: a460 77bd 1546 a03d 1358 22be d61c 9bbe
000000a0: 6772 013d b17c 283d 336f 21be ac74 b83d
000000b0: 023e 7b3d 3c98 e8bd 5367 5d3e b2e8 15bd
000000c0: 8a3b ac3e a738 b9bd 6525 dabd 51a3 8abe
000000d0: dcfe 0c3e d02b 0c3d f426 903e 3c2c a53e
000000e0: 28cb 853e 2ec3 5ebe fa70 8d3e 90af 3c3e
000000f0: 0e6e a7bd ff70 19be 5c29 9bbe df8b 28be
00000100: d153 5f3e 107e 273e ea73 813d f252 9dbd
00000110: 4de8 753e 01cf c93d 1801 f43c dcf5 f1bc
00000120: e999 8a3b 0d5e 3bbe ad18 1a3e 90b6 403e
00000130: 1c87 953c 2192 5cbe 704d 47bd ba00 c5bd
00000140: 63f8 62be a39f 9abe 619f 3f3d 3611 463e
00000150: 01c9 433e bfd2 d1bb 2d69 493e 7560 99bc
00000160: 5e7d 1a3e 03ce 06bd cfa9 013e f8a7 8fbe
00000170: 03dc 0b3e 87f6 963d f108 8dbe 8170 7f3e
00000180: d4a6 55be cdb9 ec3d c508 ff3d 9c71 80be
00000190: cb75 1f3c 9194 193d ef4e efbc 96a4 923d
000001a0: 399e 9c3c 3aae 4c3e b978 9e3d 2e6b 89bd
000001b0: a07b 973d c9a0 3f3e 9677 6bb9 4093 bb3d
000001c0: 23dc cabd d9a4 a9be a7f2 0e3e 4d91 1e3e
000001d0: 5d60 b9bd 3a03 94be 40c2 8bbd 0c9b b1bd
000001e0: dda5 d43c 8023 493e d322 be3d d3aa 92bd
000001f0: c0c7 c5bd c8e1 40be 0b37 61bc 08b9 7a3d
00000200: 34e6 86be c708 2fbe 544a 62be 9a8e 1dbe
00000210: a715 273e 5468 25be cb41 8d3e eb85 14be
00000220: 226c 343e 893e 893d ccbd 8fbe 3a1f 15be
00000230: f2c1 f3bb bd93 08be ac76 31be d088 39be
00000240: fa07 063d 120b a73d c4d8 04bd 1c12 f43d
00000250: 3473 82be ba67 043e de6f cfbd 6936 edbd
00000260: ec14 74be c93c df3d 8d47 18be 49b2 aa3d
00000270: 65d1 833e 4c5f 1a3d 83bd f43d 84d1 01be
00000280: a945 603e c85a 8ebe 9e6a bdbd 12e9 813e
00000290: 3ed9 d23c 89ec 943d 34ff f43c c45d f93c
000002a0: 93fa a63d 71d6 213d a835 6b3e 7319 963e
000002b0: d7a3 023e b327 843d 4c51 ad3b 8d3a 803e
000002c0: d0d7 183e b084 f33d 569a 9fbe fe76 29bb
000002d0: a1c3 4bbe ee7d 263e 049e 263e 6b27 1ebd
000002e0: 86ca bebd 1534 083d 4a24 713e 2dbd 243e
000002f0: fafe ce3c ad12 0b3d 4f30 653e 8e65 653e
00000300: 5fd9 85be bcff 663e 76f4 dabd fcac 48be
00000310: 10a8 90bd 1eff 64be 844c 38be 479a 23bd
00000320: 4f29 8e3e 217a 2c3d 3eb4 893e b734 7bbe
00000330: dd0e 433e 4400 fdbd 640c 313e 265d 773d
00000340: 996e 503e 4c4e f9bb 1834 b93d 3d43 903e
00000350: 4868 e73d 0d43 95be 3569 81be 031c 923e
00000360: 1494 25be c6c3 4ebe 9466 95be 8e77 8dbe
00000370: c8c3 ebbd 2eeb fa3d 94bc 973e d8f8 4d3e
00000380: bebd 9b3d 3bd0 c33d 397d f73d d162 a5be
00000390: f0c6 9cbd 6a89 eabd cf55 753e 26f0 81be
000003a0: 079b 733e 2c4b 093e e4e6 723c f55b 17be
000003b0: 9e57 093d 577e 36be 98e2 2e3e 3149 75be
000003c0: 4a1e 1cbe b6ce 13be 6107 88be 8b78 00be
000003d0: 1dfe 78bb 4231 93be cd81 993e cab7 77be
000003e0: 1c1e 903c 3a9b 2d3e b76b 333e 6dd2 6d3b
000003f0: c47d 6d3e 9160 ddbd 07fa 5a3e 87b4 2fbe
0.26422983 0.24260536 0.21718214 -0.1794055 0.23191594 -0.14861178 -0.21242514 -0.26058978
-0.2512437 -0.12837234 -0.20854202 0.024283584 -0.05993717 -0.2589847 -0.14412335 0.2959511
0.0055263094 -0.12383291 0.20795825 0.059757195 -0.07181105 0.19293398 -0.16557202 0.23421037
0.1535939 0.25782773 -0.09623625 0.031157378 -0.2001731 0.2701089 0.1847775 0.03665724
0.058047205 -0.16741426 0.020257743 -0.1854856 -0.060394898 0.07825867 -0.1585391 -0.30295438
0.031603243 0.04113454 -0.15765075 0.090066284 0.061338432 -0.113571614 0.21621446 -0.03659887
0.33639175 -0.09044009 -0.10651664 -0.27077726 0.13769096 0.03422147 0.2815472 0.3226031
0.26131558 -0.21754143 0.27625257 0.18426347 -0.08175288 -0.14984511 -0.30304992 -0.16459607
0.21809317 0.16356683 0.06320937 -0.07681836 0.24014397 0.09853936 0.029785678 -0.02953618
0.0042297733 -0.18297596 0.15048476 0.18819642 0.018252902 -0.21540119 -0.048657835 -0.09619279
-0.22165065 -0.30199918 0.046782855 0.19342503 0.19119646 -0.0064032967 0.19669028 -0.018722752
0.15086886 -0.03291131 0.12662433 -0.28057837 0.13658147 0.0737124 -0.27545884 0.2494526
-0.20864421 0.11558876 0.124528445 -0.25086677 0.009732674 0.0374952 -0.029212443 0.071602985
0.019118415 0.19988337 0.0773787 -0.06709896 0.073966265 0.18713678 -0.00022455896 0.09158945
-0.09905269 -0.3313358 0.13959752 0.15485115 -0.09051583 -0.28908712 -0.068241596 -0.08672151
0.025957996 0.19642448 0.09283986 -0.071614884 -0.0965724 -0.18836129 -0.013746033 0.061211616
-0.26347506 -0.17093192 -0.22098666 -0.1538643 0.16316853 -0.1615308 0.2758926 -0.1450421
0.17619374 0.06701381 -0.2807449 -0.14562693 -0.0074388916 -0.13337608 -0.17330426 -0.18118596
0.03272245 0.08156408 -0.032433286 0.119175166 -0.25478518 0.12930194 -0.10128759 -0.115826435
-0.23836106 0.10900266 -0.14871044 0.083347864 0.25745693 0.03768854 0.11950209 -0.1267758
0.21901573 -0.27803636 -0.09248851 0.2537313 0.025738355 0.07271678 0.029906847 0.030440219
0.08153262 0.039511148 0.22969687 0.2931629 0.12757812 0.064528845 0.0052892324 0.2504467
0.14926076 0.118905425 -0.31172436 -0.0025858278 -0.19898845 0.16258976 0.16271216 -0.03861181
-0.09315972 0.033252794 0.23549 0.1608779 0.025268067 0.033953357 0.2238171 0.22402021
-0.26142403 0.22558492 -0.106911585 -0.19597238 -0.070633054 -0.22362944 -0.17997938 -0.039942052
0.2776589 0.04210866 0.26895326 -0.24531828 0.19048639 -0.12353566 0.17289883 0.060391568
0.2035469 -0.0076082107 0.09043139 0.281763 0.11299187 -0.29152718 -0.2527558 0.28536996
-0.16169769 -0.20191869 -0.29179823 -0.27630275 -0.11511952 0.12251888 0.2963606 0.20114458
0.0760455 0.09561201 0.12084431 -0.32301953 -0.07655132 -0.11451991 0.23958515 -0.2537853
0.23789607 0.13407582 0.014825556 -0.14781173 0.033530824 -0.17821632 0.17078626 -0.23953702
-0.1524593 -0.14434323 -0.2656813 -0.12545983 -0.003799326 -0.28748518 0.29981843 -0.24191204
0.017592482 0.16953745 0.17521559 0.0036288754 0.23192507 -0.10809434 0.2138444 -0.1715871

conv1.0.bias f4 [32]
00000000: 8ca1 c036 2c13 053b c5c3 01b8 860f 903b
00000010: ac80 c53b 6826 cd38 7f5e 9fbc b7e6 cb37
00000020: 2b38 f2b7 116a 9137 b237 28bc 0120 aeb8
00000030: ccf8 2837 5a98 8eb9 922f e239 a7e9 e737
00000040: dc16 02bc f232 a238 91aa c1bb 39bd 04ba
00000050: e6ad a639 cea1 2c3b df5a c43a c7fd 6538
00000060: 908b dc38 93ff ae36 2d8d 30bc d487 dc38
00000070: b224 1f3c e408 81b8 c515 92b8 72bb f2b8
5.7408524e-06 0.0020305617 -3.093832e-05 0.004396382 0.006027302 9.7823155e-05 -0.019454239 2.430692e-05
-2.8874803e-05 1.7334738e-05 -0.010267185 -8.302928e-05 1.0071508e-05 -0.0002719786 0.00043141522 2.7646149e-05
-0.00794002 7.734251e-05 -0.0059102257 -0.0005063597 0.00031791552 0.002634156 0.0014980695 5.4834203e-05
0.00010516413 5.215357e-06 -0.010775846 0.000105157174 0.009713339 -6.152855e-05 -6.9658774e-05 -0.00011574374

conv1.1.weight f4 [32]
00000000: d131 633f 4499 663f 5aac 653f f0ae 723f
00000010: d5cf 5f3f 4d5c 6d3f b52e 663f f633 663f
00000020: 3fe1 603f e3a9 5e3f 44fe 713f e56d 683f
00000030: 762f 5c3f f829 5c3f 732d 663f fb8b 683f
00000040: 89d1 643f fa89 6c3f 2ec0 563f 4d26 633f
00000050: 8ac9 5d3f f3bf 6d3f c314 5d3f 4371 583f
00000060: 684d 603f e7d1 753f 92f3 653f c9ce 5d3f
00000070: 4f74 643f fccd 6c3f 95e6 683f ece8 713f
0.8874789 0.90077615 0.8971611 0.94798183 0.874265 0.92718965 0.8991502 0.89923036
0.878437 0.86977977 0.94528604 0.90792686 0.8600992 0.8600154 0.899131 0.90838593
0.89382225 0.92398036 0.8388699 0.8873032 0.8663565 0.92871016 0.86359805 0.84547824
0.8761811 0.9602341 0.89824784 0.86643654 0.8923997 0.9250181 0.9097684 0.94496036

conv1.1.bias f4 [32]
00000000: bcf3 2fbb fc1a c9bb 8f9a 91bb 8a85 bebc
00000010: 6a7d a4ba d64a 52bc 995c 59bc b30c 8ebb
00000020: 0f74 55bc 3333 6fbb 1de6 883d ab47 adbc
00000030: 6480 0fbc 9d18 063c cccd 8d3b bea5 90bc
00000040: b5e9 88bc 9311 19bc 30ac c5bc 48e1 a2bc
00000050: 4f18 e3bc 7117 203b f58c 83bc 3b69 c2bb
00000060: 04ea 94bc ee05 cd3c 113d b7bc 7306 8f3b
00000070: 3a31 d5bb 4aac cdbb 2b90 8ebc 76e2 013b
-0.0026848158 -0.00613725 -0.0044434736 -0.023257036 -0.0012549583 -0.012835225 -0.013266706 -0.00433501
-0.013028159 -0.0036499023 0.066845156 -0.021152338 -0.008758638 0.008184579 0.0043275114 -0.017657157
-0.016713003 -0.009342569 -0.024129957 -0.019882813 -0.027721552 0.0024428035 -0.016058424 -0.0059329546
-0.018177994 0.025027242 -0.022367986 0.0043647825 -0.0065061124 -0.006276642 -0.017402729 0.001981882

conv1.1.running_mean f4 [32]
00000000: 4359 90bc 6e21 dcbe 8104 f53e 2480 593d
00000010: dbbf 5dbe 149e ac3d 5472 ce3e 7366 b93e
00000020: f1f6 85be dee8 943e 9e6f 753c deb5 2e3d
00000030: a39b 753d 9634 8ebe b867 b4be 08b2 01bf
00000040: 6d93 7dbe ea63 433e 0aaa da3e ef90 ed3e
00000050: 118d 8d3e d5b2 3ebd f467 6a3e 113f b73e
00000060: 3a4f 88be 2830 503d a35b 13bf a096 f4bc
00000070: 51a0 543e 6b5c fcbd 517b 8fbe 345a 203c
-0.017620688 -0.42994255 0.47855 0.05310072 -0.21655218 0.084285885 0.403216 0.36210975
-0.26164964 0.29083914 0.014980225 0.04265391 0.05996288 -0.27774495 -0.3523538 -0.5066228
-0.2476327 0.19081083 0.42707855 0.46399638 0.27646688 -0.046557266 0.22891217 0.35790303
-0.26622945 0.050827175 -0.575617 -0.02985698 0.20764281 -0.12322315 -0.2802377 0.009787131

conv1.1.running_var f4 [32]
00000000: b734 cd3d 4f87 9a3d 488a d73d 1577 3d3c
00000010: cb4d 003d 9d8f 423c e3bc 013e cc0b 3f3d
00000020: 8c42 1d3d fd93 1a3d 4af2 e83c b073 3c3c
00000030: efd2 1b3d f5e8 333d bebb 2d3d 2768 173e
00000040: c668 1c3d e697 c03c 5ff5 8a3d b374 b33d
00000050: b1ea 0c3d dece 813d fe4b d13c a0c9 8d3d
00000060: 327d 923d 9187 903c 889e 083e 48cd 583d
00000070: c2ee f43c e11b f03c b54e 6a3d b724 893c
0.1001982 0.07545339 0.10524422 0.011564036 0.03132419 0.01187506 0.12669711 0.04664211
0.038393542 0.03773879 0.028435845 0.011502191 0.03804296 0.043923337 0.042415373 0.14785825
0.038185857 0.02350993 0.06785082 0.08762493 0.034403507 0.06338285 0.025548931 0.069232225
0.07152785 0.017642768 0.13341725 0.052930146 0.029899005 0.029310169 0.057203967 0.01674114

conv2.0.weight f4 [16, 32, 3, 3]
00000000: 6e0c ccba d38d 69bd 6d26 4dbb 7b29 d9bb
00000010: 8ba5 423d 8e6b 793d d581 833c 8b34 d6bc
00000020: 0a35 133d 31ff 083d 13f0 323d f423 53b9
00000030: ebc8 27bc b86c ac3c f5b7 8cbd 2ad3 6c3b
00000040: f259 a63c 828a 573c c5ae 2f3c ae65 a1bc
00000050: de9f 32bd 343b 91bc ff95 39bd d270 dbbc
00000060: 1de2 a0bc 7ec0 28ba 7bf8 1b3d ab0f 8ebc
00000070: 2c2c 82bd 22f7 013c 6c87 cabc a3cf 75bd
00000080: 6927 e6ba 3291 ccbc 192d 5fbc 5109 fb3b
00000090: 3e85 603d b7d6 543d 5e9b 0c3d ad4d 56bb
000000a0: 1418 283c 66f4 b23b 763f 693b 6204 1cbd
000000b0: 9642 12bc 30ff 703c bcad 37bd 2ad9 813d
000000c0: a5ae 3cbd 61b4 0fbc 3173 433d c4c4 89bd
000000d0: 2f26 443d 36c8 383d af70 4ebc d0ae 17bc
000000e0: 50c8 8b3c 34a0 5c3c 7393 ca3c 52a3 b0bc
000000f0: f02d 61bd 10d2 8fbc 5cc7 923c a2e2 a3bc
00000100: cb9b 0b3d e1c9 86bc 683a 1bbd 2619 a4bc
00000110: ada0 92bd e62a 0e3c 6b84 8c3d 9a89 bcbd
00000120: 34f0 8dbb 3a99 c2bc 1385 79bc 0ef2 0bbc
00000130: 1d1c cb3b fca2 90bc 4c7f 35bc d5a5 0fbc
00000140: d23e 84bc 85b1 0e3d befa 50bc 0d94 1ebc
00000150: 256e 853c 3ecb 01bc 8bee 883a 2256 a5bc
00000160: d873 723d 54ef 7ebd 2863 813d dfb9 91bd
00000170: 7770 4abd 5960 863d 3bca 18bd 8156 693d
00000180: 8c48 3abd ad36 183d 98da 3fbc 866c 2dbd
00000190: 53fa 02bd 5ecc 49bd 3018 1f3d f364 7f3d
000001a0: b66d c9b9 14ff 0abd bd24 313d b2ee 82bc
000001b0: d013 38bc a48b b43c b217 0a3b bfb6 083d
000001c0: 4b4e 1c3d 52ae 4f3d 0204 b2bc b3f6 163d
000001d0: fce1 16bd 5c1c f33b 2202 8d3b 6713 27bd
000001e0: b413 6c3c 0dd3 153c 3ab7 46bd 5f95 b8bc
000001f0: 5230 dd3c c955 92bd 72e8 ce3c d0fb 613d
00000200: 48f2 63bd 74bf 603c f0e0 0dbd 43ae 97bb
00000210: 710a 2cbd bede 323b 3155 0d3d 7768 a1bc
00000220: 1d4f 94bc d049 5cbc dd5a aebc d3a8 20bd
00000230: 0063 4fbc 744f dfb9 fd93 9b3b ca41 acbd
00000240: 56f6 7f3d cbf5 0bbd b3de d3bc c694 063d
00000250: 2648 3d3d 81dc 4fbd d8c1 cd3c 70fa 943b
00000260: 2fdb 1abd bc4f 46bc 6ed8 8c3d dc7f ae3d
00000270: 34f8 12bd 9cf3 c33c d1fd 073d 62fb dbbb
00000280: 4bd6 a23d 6acb ca3c 112c cf3c fcd1 7d3c
00000290: c2a9 74bd 146e e1bb f260 71bc f98f fbbc
000002a0: a268 19bd 225a 05bd 9a68 813c a644 dabc
000002b0: cd21 6e3c 0229 71bd 6f13 94bc fc43 523b
000002c0: ee59 65bd 7737 15bd aa65 73bc b7be 483d
000002d0: 6906 26bd 1154 bc3b b57d 5fbd 8117 123c
000002e0: 4fad 023c de59 623c d624 e03c fe6c 403c
000002f0: ee8c c0bb 34ea dab9 21c8 61bd 66a9 d33c
00000300: 946f 20bd 2fc6 65bc 01f0 813d 578c 933b
00000310: fb50 85bd 03e2 353d 1a7c 2fbd 833b 67bc
00000320: 69a1 8f3c 403c 0f3c 6afd 123d 5366 a5ba
00000330: f5fb 693d db6d afbb 6f1b d1bc 037b 3abd
00000340: 3d8f e03c 204c 1abd 2222 883c f582 8e3c
00000350: 0c57 56bd c2ef 1a3d 8d6a 1a3d e7ec 263d
00000360: d413 293d 3505 b43c 090e 00bc 1874 243d
00000370: 133a 5e3d 5fb5 643d af94 fa3c d9cc 3dbd
00000380: 2b1f 8c3c 25bf 03bd 9e99 433c 7f0c 0c3d
00000390: 7db6 603d 7a2b 5d3d 8655 80bd 0abc 1e3c
000003a0: 1a5a 71bd 5d38 813d 5d5e 21bd 9a52 e33c
000003b0: 088c ebba 4e04 153d f2a6 3bbd 0c06 ed3b
000003c0: d8bd 85bd cc9d 15bd 4a59 5ebd 4f12 4fbd
000003d0: 4831 b23a 6f0c fd3c 797f 4f3d 77b3 febc
000003e0: e8b8 edbc af10 d7bb b8c0 b63c c28a 183d
000003f0: d868 6bbd 5ba1 ab3d e87b b0bc c1a0 14bd
-0.0015567669 -0.05702002 -0.003130342 -0.0066272593 0.047521155 0.060893588 0.01605312 -0.026148101
0.035939254 0.033446494 0.043685984 -0.00020135922 -0.010240774 0.021047935 -0.068710245 0.0036136606
0.020306561 0.013155581 0.010722821 -0.019701805 -0.043609492 -0.017728426 -0.045309063 -0.026787195
-0.01963907 -0.0006437375 0.038078766 -0.017341455 -0.06356081 0.007932456 -0.024722777 -0.06001247
-0.0017559353 -0.024971578 -0.013621592 0.0076610227 0.05481457 0.05196258 0.034327857 -0.0032700107
0.010259647 0.0054612635 0.0035590804 -0.038090117 -0.008927008 0.014709279 -0.04484342 0.06340249
-0.04606499 -0.008771033 0.047717277 -0.06726983 0.047887977 0.04511281 -0.012600108 -0.009257987
0.01706329 0.01346593 0.024728512 -0.021562252 -0.05497545 -0.01755622 0.017917328 -0.020005528
0.034084123 -0.016453685 -0.037897497 -0.020031523 -0.07159553 0.00867722 0.06861194 -0.09205933
-0.004331613 -0.023754705 -0.015229481 -0.008541597 0.0061984197 -0.017655842 -0.011077713 -0.008767565
-0.016143236 0.034837265 -0.012755094 -0.009678853 0.016287873 -0.007921992 0.0010447068 -0.020182673
0.05919251 -0.06223996 0.06317741 -0.0711553 -0.04942366 0.065613456 -0.037302237 0.056967262
-0.045479342 0.037161518 -0.011709832 -0.042339824 -0.03197701 -0.049267165 0.038841426 0.062352132
-0.00038419449 -0.033934668 0.043247927 -0.01598296 -0.011235192 0.022039242 0.0021071252 0.033377405
0.038160603 0.050703354 -0.021730427 0.036856364 -0.03683661 0.007419152 0.0043032328 -0.040789988
0.0144089945 0.009144557 -0.048514582 -0.022532163 0.02700058 -0.071452685 0.025257323 0.055171788
-0.05565098 0.013717521 -0.034638345 -0.004628928 -0.042002145 0.002729341 0.034505073 -0.019703133
-0.01810413 -0.013445333 -0.021283561 -0.039223503 -0.012657881 -0.00042593072 0.004747866 -0.08410986
0.062490784 -0.034169953 -0.025863027 0.032856725 0.046211384 -0.0507474 0.025116846 0.004546456
-0.037806686 -0.012103971 0.06877218 0.08520481 -0.035881236 0.023919873 0.033201043 -0.006713317
0.079510294 0.024755199 0.025289567 0.015491959 -0.059732206 -0.0068795774 -0.014732586 -0.0307083
-0.0374533 -0.03255666 0.015796948 -0.026644062 0.014534426 -0.058877 -0.018075673 0.003208398
-0.055993967 -0.03642985 -0.014855782 0.049010005 -0.040533457 0.005747326 -0.054563243 0.008916737
0.00797589 0.013815371 0.027361315 0.011744736 -0.005876175 -0.00041754695 -0.0551225 0.025837611
-0.03916891 -0.014024301 0.06344605 0.004502814 -0.065095864 0.044404995 -0.04284296 -0.01411331
0.017533021 0.008742392 0.035886206 -0.0012618996 0.05712505 -0.005353672 -0.025525777 -0.04552747
0.027412051 -0.037670255 0.016617838 0.01739643 -0.052329108 0.037826307 0.03769927 0.04075327
0.041278675 0.02197514 -0.007815846 0.040149778 0.054254603 0.05583703 0.030588476 -0.046337936
0.017104706 -0.03216471 0.011938481 0.034191605 0.054861534 0.05399654 -0.06266312 0.009688387
-0.05892382 0.063095786 -0.039396632 0.027749348 -0.001797081 0.03638106 -0.04581351 0.007233387
-0.065303504 -0.03652744 -0.05428437 -0.05055457 0.0013595009 0.030889718 0.050658677 -0.031091435
-0.029018834 -0.006563268 0.022308692 0.037241705 -0.057473034 0.083803855 -0.021543458 -0.03628612

conv2.0.bias f4 [16]
00000000: fb1b 2cb8 ce92 9eb7 a6da 3ab6 2630 4fb7
00000010: 852a c336 e24f 7437 811a b537 4157 4338
00000020: 043e 2db8 20a1 9337 bf3b f1b7 5e47 31b7
00000030: a652 0c37 66df 6fb6 ded4 a8b5 2785 d2b6
-4.1034054e-05 -1.8903429e-05 -2.784343e-06 -1.2349372e-05 5.816403e-06 1.45621325e-05 2.1589223e-05 4.6572884e-05
-4.130417e-05 1.7598795e-05 -2.875726e-05 -1.0566639e-05 8.363893e-06 -3.574381e-06 -1.2578928e-06 -6.2739887e-06

conv2.1.weight f4 [16]
00000000: 0905 703f 55bf 713f d884 663f d7dd 693f
00000010: d708 643f a8c6 6a3f 89b4 673f d7de 6b3f
00000020: 629b 703f afbd 703f aa0a 6b3f 37a9 6f3f
00000030: 0288 723f e00d 743f 9fb9 783f 6054 723f
0.93757683 0.94432575 0.90046453 0.91354126 0.8907599 0.91709375 0.9050985 0.921369
0.93987095 0.94039434 0.9181315 0.93617576 0.9473878 0.9533367 0.97158235 0.94659996

conv2.1.bias f4 [16]
00000000: c2a0 99bc 7fe7 f53b e181 68ba 5a80 b53b
00000010: 426c c2bc a58a e53a a19e 8b3a 779b d3bb
00000020: 3dc2 3ebd b9f6 79bc 79ee cfbb f7ec 763c
00000030: 671b 2c3c 0946 a4bc 6123 9a3c c524 9b3b
-0.018753413 0.007504403 -0.0008869451 0.0055389823 -0.023733262 0.0017512633 0.0010652133 -0.006457742
-0.04657196 -0.015256577 -0.006345567 0.015071145 0.01050458 -0.020052927 0.018815698 0.004734608

conv2.1.running_mean f4 [16]
00000000: 466c ccbd cd7b 3d3f e2c5 2cbd c284 27bd
00000010: 2f65 2ebd 1724 b7be 96d1 b7bd 6f65 6a3d
00000020: e48e d23e 5b23 8abd 2951 a2bd a037 d23d
00000030: c765 91be 4441 103d 795c 88be 0f5c fcbd
-0.09981589 0.7401703 -0.042180903 -0.040898092 -0.042576965 -0.35769722 -0.08975522 0.05722564
0.41124642 -0.06745025 -0.07925636 0.10264516 -0.28397962 0.035218492 -0.2663305 -0.12322246

conv2.1.running_var f4 [16]
00000000: 88ff 0a3e 726f ea3e 2868 7e3e 528b 283e
00000010: 8945 5a3e 5c6a 5a3e 3f68 243e 8fa1 ea3d
00000020: f968 583e 721f 013e 44b9 083e 93a5 513e
00000030: ce84 ee3d f508 903d 3d9a 7c3e 14d6 cc3e
0.1357404 0.4578815 0.2484442 0.16459396 0.21315588 0.21329635 0.16055392 0.11456596
0.21133794 0.12609652 0.13351923 0.20473318 0.11646424 0.070329584 0.24668212 0.4000708

conv3.0.weight f4 [8, 16, 3, 3]
00000000: a5be b93c ddc2 9dbd 6a5b b6bd a8fb 6bbd
00000010: d410 1abd 5b22 bf3d e8f6 773d 5ff6 12bd
00000020: 503e 733d 7026 1f3d ebe4 883d d7b0 363d
00000030: 0433 90bd 9f4a 73bd 6a97 1b3c ead7 c73b
00000040: 6828 013d f95a 97bc 6263 da3c 1466 51bd
00000050: 2c8a 4d3d fa76 09bd 6ee3 683d ea4f cb3c
00000060: e178 c73d 04ad 503d d622 c33c 56a2 af3b
00000070: 16ec 843d bd04 c8bd 0922 64bd b8c5 8d3d
00000080: c6e5 d63d 629e 1ebd 720f 75bd c2d0 893d
00000090: fc45 a23d 8047 e13d aeae c7bc c825 2bbd
000000a0: 556e 0e3d 8c4c aa3d 155a 80bd c8a5 b73b
000000b0: f596 5abc bf87 ecbc 3231 0a3c 9286 a9bd
000000c0: 82eb dfbc abd1 a0bc f8a5 62bd 14ad 66bd
000000d0: 75e7 20bd ca82 01bd 44ec 8f3c 5af0 ed3c
000000e0: 78e9 7c3c ec3b f5bb 4fca 0fbd b28c 203d
000000f0: 3d3c df3c 0975 eb3c 8de5 e53a ad2c 11bd
00000100: 4181 0abd 902c 57bc b8a3 3f3c d79c 313c
00000110: 9c3d 86bd 1924 a7bd 7e8d b8bd e482 a8bc
00000120: 31f2 87bd 8b09 243d 3c1a 7c3d 57db 37bb
00000130: 7039 8f3c e0e2 fdbc bfbb d93b d3de 88bd
00000140: e1b3 b33c ad18 363d 8406 c5bc ac02 3d3c
00000150: 31c6 edbb 38a3 253d 69d0 493a 15fc 84bc
00000160: 7ad0 0d3d fe3f 733c 5ed1 bebc 12f5 ccbc
00000170: fbae f83c 2909 08bc 1e37 65bd 5073 45bd
00000180: f810 95bd 1933 d13c a054 b53c 1879 12bd
00000190: 208b 6d3c 89b0 41bc d65d 463c 7855 42bb
000001a0: 5935 043d 545b 0a3c ae45 d53d 3705 92bd
000001b0: 0384 123d d28e 1bbd 7af1 823b 65ce 72bd
000001c0: 25cb 25bc d043 5f3a 9427 173d 42ef dd3d
000001d0: 402b cfbd 3b65 bebd 7374 b3bd 86be 09bc
000001e0: 4b64 13bd 5040 943d 85f3 013d 30fb 8c3d
000001f0: adfc 3cbd 8ee0 7c3c 08d7 75bd e48a 80bc
00000200: 1a46 4d3d a10f 6abd a426 b6bc 9ee9 c83c
00000210: c7c0 a0bc f7c9 c23b daef d2bd 9b08 0bbc
00000220: 1990 96bd cb2d 203d 52eb 7e3d 2097 573d
00000230: 578d 30bd 678a a2bc 0ca3 9fba 82ed 2c3c
00000240: e93c 363d 6d69 b6bd abdf 4abd 9c88 0cbd
00000250: b958 25bd fb50 313c c642 53bd e62c b3bd
00000260: a227 01bd 329d 4f3d 77ae 283d 7f1f 84bd
00000270: 9b80 8b3c 26ae 78bd 52ea 5dbc 04c4 23bd
00000280: 8434 91bd 2d2b 703c 550c 6d3d 2328 bbbc
00000290: 7f6c 673d cf77 0c3c 712c 9ebd 0e88 27bd
000002a0: 764d 063c 5944 423d 12b1 34bd 08a1 a7bb
000002b0: a605 4e3c b42b 9fbc 737d 82bd 7e92 4e3d
000002c0: 68f1 b13c b325 813d 72a9 d73b fdb5 89bd
000002d0: a2ed cfbc b74c 353d 5dea 77bd 9487 5a3d
000002e0: 9a3a 763d 2dc3 973c 657e 313c eb39 e1bc
000002f0: c96b ddbd 7c96 debc 4d36 31bd 5654 d53c
00000300: 4ff2 75bd 5181 88bd 3dc1 7ebd c17f 00bc
00000310: 0706 853c 2d0a 6e3d 82b8 6cbd 04a4 c43c
00000320: 6148 42bd e4fb 993d 7b44 d83d fb67 98bc
00000330: ebca 6b3d 3a78 6ebb b309 c1bc 75cd fa3c
00000340: a9f6 433c aea3 0c3d 6491 b53b 4b33 9c3c
00000350: 803a 0cbd d482 5c3d 2cf1 9abd 1444 4e3d
00000360: 9f92 543d ec28 573d 466e 85bd 417b 523d
00000370: 8b9d d53d ee5b bbbc ada7 4c3c c690 a03d
00000380: 3675 d83c efbb abbc 5e16 023d 82eb dfbc
00000390: 32f7 02bd b9d5 2cbd 16e4 01bb 0012 9abd
000003a0: 643b 9d3d f1f0 5bbd 9a69 093d 75b6 593d
000003b0: 048a 933d 701e 83bd ef69 aabc 411e 79bd
000003c0: efef 84bd 0a71 283b 0e0c d1bb 57c7 93bc
000003d0: a287 973d 3aba d3bd 3c0a dbbc 19db 1a3d
000003e0: 6132 b5bd ca3a bd3d 962b 16bd 34cc 34bd
000003f0: d021 073d f818 48bd 8845 0d3d c863 55bd
0.022673914 -0.07703183 -0.089041546 -0.057613045 -0.037613705 0.09332725 0.060538203 -0.03587949
0.059385598 0.038855016 0.06684288 0.04460224 -0.070409805 -0.059397336 0.009496549 0.006098737
0.031532675 -0.018475996 0.026658718 -0.05112274 0.0501806 -0.03356073 0.05685752 0.02481838
0.09739853 0.05094625 0.023820322 0.005359928 0.06490342 -0.09766529 -0.05569652 0.069224775
0.104930446 -0.038725264 -0.059829183 0.067292705 0.07923505 0.10999966 -0.024375286 -0.041784078
0.03477319 0.083153814 -0.06267182 0.0056044795 -0.013341655 -0.028873323 0.008434581 -0.082776204
-0.027333979 -0.019631227 -0.05533406 -0.056317404 -0.039283235 -0.03161887 0.017568715 0.029045273
0.015436523 -0.00748395 -0.035105046 0.039196678 0.027250404 0.02874233 0.0017539725 -0.035442997
-0.033814672 -0.013133183 0.011696748 0.010840616 -0.0655472 -0.08161182 -0.090113625 -0.020570226
-0.06637991 0.040048163 0.061548457 -0.002805432 0.017483443 -0.030991971 0.0066446955 -0.06683125
0.021936359 0.044457126 -0.024050958 0.011536282 -0.0072562923 0.04043886 0.0007698597 -0.016233483
0.034622647 0.0148468 -0.023293193 -0.025019202 0.030356875 -0.008302965 -0.055960767 -0.048205674
-0.07278627 0.02553706 0.022135079 -0.035760015 0.014498502 -0.011821874 0.012107333 -0.0029652994
0.03227744 0.008444626 0.10413681 -0.07129901 0.035770427 -0.037978 0.0039960714 -0.059278864
-0.010119234 0.000851688 0.03690298 0.108366504 -0.10115671 -0.09296652 -0.08762445 -0.008407241
-0.03598432 0.07238829 0.03172638 0.06883848 -0.046139408 0.015434397 -0.060019523 -0.015691228
0.050115682 -0.05714381 -0.022235222 0.02452546 -0.019623173 0.0059444862 -0.10299654 -0.008485938
-0.07351703 0.03910617 0.062236138 0.05263436 -0.043103542 -0.019841386 -0.0012179329 0.010554673
0.044491682 -0.08906827 -0.049529713 -0.03430997 -0.040367816 0.01082253 -0.051577352 -0.08748798
-0.031531937 0.050687023 0.041182008 -0.0645132 0.017029097 -0.060712956 -0.013544636 -0.039981857
-0.07090095 0.014658731 0.05787309 -0.022846287 0.056499954 0.0085734865 -0.0772332 -0.040901236
0.008197179 0.047428463 -0.04411418 -0.005115632 0.012574589 -0.019430019 -0.06371584 0.050432675
0.021721557 0.06306019 0.0065814788 -0.06724165 -0.025381867 0.044262614 -0.06052624 0.053351954
0.06011448 0.018525684 0.010833357 -0.027493438 -0.10811574 -0.027171366 -0.043264676 0.026041191
-0.060045537 -0.0666529 -0.062196005 -0.007842959 0.016238226 0.058115173 -0.057793148 0.02400399
-0.047432307 0.075187474 0.105599366 -0.01860427 0.057566565 -0.0036387579 -0.023564195 0.030615548
0.011960664 0.034335785 0.0055410136 0.019067427 -0.034235477 0.053835705 -0.07565531 0.050357893
0.05189764 0.05252926 -0.065151736 0.051387075 0.104304396 -0.022870984 0.012491149 0.07840113
0.026423078 -0.020963637 0.031759612 -0.027333979 -0.031974025 -0.04219601 -0.0019819788 -0.075229645
0.076773435 -0.053696577 0.033547975 0.05315252 0.07204059 -0.0640229 -0.020802466 -0.060819868
-0.06491076 0.0025702142 -0.006379611 -0.018039389 0.07398917 -0.10338254 -0.026738279 0.037806604
-0.088475 0.09239729 -0.03666266 -0.044140056 0.03299123 -0.048851937 0.03449014 -0.052097112

conv3.0.bias f4 [8]
00000000: 58d4 bdb6 8d66 72b6 96b2 c536 969d c2b6
00000010: dc7c c0b6 dfe8 00b6 db3a 1d36 7744 3235
-5.657359e-06 -3.6120503e-06 5.8918476e-06 -5.799996e-06 -5.7365814e-06 -1.9209035e-06 2.3429081e-06 6.6409797e-07

conv3.1.weight f4 [8]
00000000: 1d1d 723f 2a2d 6a3f 757e 703f f0b1 773f
00000010: e128 6f3f fc8f 773f d301 6d3f 7862 723f
0.94575673 0.91475165 0.9394296 0.96755886 0.9342175 0.9670408 0.9258091 0.946815

conv3.1.bias f4 [8]
00000000: 1b46 79bd bdd8 543c fc48 32bd f232 953c
00000010: 71ae ccbc 7c2d ebba 2cc3 e9bb 1193 d0bc
-0.060857873 0.012991128 -0.043526635 0.01821277 -0.024985524 -0.0017942633 -0.007133862 -0.025460752

conv3.1.running_mean f4 [8]
00000000: f037 10be f747 d0bc 306a 4b3e 9f29 d03d
00000010: 4547 dabe a6fb cfbd af3f 22bd fa69 963e
-0.14083838 -0.02542494 0.19864726 0.101641886 -0.426325 -0.1015542 -0.039611515 0.2937773

conv3.1.running_var f4 [8]
00000000: 78a6 b93d b4ef cb3d aacb 3c3e 9eea 0a3e
00000010: c3dc e33d d659 f83d 5f87 323e 70c5 1e3e
0.090649545 0.09957829 0.18437067 0.13566062 0.11126091 0.1212651 0.17434452 0.15505004

conv4.0.weight f4 [4, 8, 3, 3]
00000000: ad9a e73d 63fa 9c3d d79a a4bd 5a7d b33c
00000010: 1598 81bd be62 1b3c 1886 4bbd d8d6 babd
00000020: fe7d 6fbc 569f 883d 8b0c 81bd 3e07 c6bc
00000030: 10ec 843d fc31 79bd f7d8 013b a66f 773d
00000040: 6219 cbbd bea0 febc d02f 9dbd 5415 61bd
00000050: 1e81 903d 3b40 07be 2711 a13d 5b2a b43b
00000060: 04f0 e4bc 39b2 acbd 2d05 db3d ee6a ebbd
00000070: 2b99 4f3c b868 de3d a0b8 acbc 53d9 943d
00000080: 4210 d33d 0985 eb3d 1125 00be 49d3 13be
00000090: f03a 233c 565f f6bc ebd5 f0bd 2033 45bd
000000a0: add0 373d 826e 4c3d 615e 163d 0759 8ebd
000000b0: 2e41 0fbd 273b 973d ca82 533b 58f0 3a3d
000000c0: fd7a 713d 3ebd 0dbd d7ee bcbb 9086 69bd
000000d0: f927 8fbd 317c 463d 94f7 b43d 7212 d5bd
000000e0: 1cd5 a53d 5330 e13b 0a26 183d 8d2d 6b3d
000000f0: 7b5f 153d 7ba3 bc3d 0ee0 e43c db05 3ebd
00000100: 81b4 a03c 6e78 653c e036 ad3d 7580 b5bd
00000110: f643 5b3c 702b d6bb 24a2 92bd 05d7 06be
00000120: e2e9 ffbd a019 15be 2868 e4bd 32bf 2dbd
00000130: f5ac 493a b2f1 af3b 55e8 933b f861 cc3b
00000140: ad48 cc3d 95b1 2c3d c94d abbd c9cc 373c
00000150: 9f47 4c3b e3a0 1a3d 6119 143d b712 c53d
00000160: b890 b8bc 36a3 313d abb0 243d 137f ad3d
00000170: 2840 9fbd f133 cebd 394a 4b3c 4d51 92bb
00000180: ef0a 92bc 0253 c03d 8fbb 86bd db15 873c
00000190: 6a8a 883d 6554 85bd 22e2 c9bd bdab 94bd
000001a0: a39b c83d 1616 c13d afe3 2cbe ab99 e1bd
000001b0: 9bd7 b03d 1e75 ab3d 9e88 3a3d a052 0c3e
000001c0: ead4 ab3d 91ee 7ebd e842 d63d baa7 5fbd
000001d0: 9bfa 28bd 40f3 b2bd fc3b 193e b55c 003e
000001e0: a3dd e0bd a849 d5bb b97d 3abd 9ded 08be
000001f0: ecc4 3dbc cdb5 a53c 90c3 da3d f9f5 efbd
00000200: 1bc9 953d a980 58bc 3891 b23d 2021 133d
00000210: 1647 e7bc bf45 bc3d b003 213d 9cdc 6abd
00000220: e9fe 4c3d 7a16 e1bd bca9 8f3d 8264 8c3d
00000230: 181c 9b3d 0435 263d abc6 36bd 4486 fdbd
00000240: 88c8 7f3d f50c 85bc 4d9b 28bd 88bd ab3d
00000250: 152d e73d 6c7b 24bc a11e e5bd 0f08 093d
00000260: 113b ff3d 10c0 623d c34d 8cbd 132b 48bc
00000270: 1641 313d 3ea2 223d dde4 cd3c cdbd 82bc
00000280: 6d0d b6bd 0944 663d d3e3 79bb 8eab 283d
00000290: 5432 c7bd cc02 d1bd d95d 7b3b e587 3ebd
000002a0: 5cbd 38bc 1531 9b3d 1571 3d3d 586a ebbd
000002b0: 2985 8dbd 0bf7 72bd bff1 ab3c a81c 733d
000002c0: d4b5 ba3d 7472 9ebd 1275 a93d 12c3 993d
000002d0: 90c2 a63d 8f92 973d 4355 b23d 1da1 9fbc
000002e0: bc0e 62bc a615 bcbd b8c2 8cbd 02d2 373c
000002f0: 5270 b03d e328 febc 9d8c 7a3d 6716 193d
00000300: a48f dd3c 5266 f2bd 1697 9f3d 6ab6 6b3d
00000310: ac11 6abd 24df a5bd 4457 e6bc d843 f33d
00000320: a1b3 823d 483d f0bc 68f4 16bd 1d5b 753d
00000330: f04d 553d 677d 293d 08f7 0abe d935 fcbc
00000340: 7c05 bebd fc9d ff3c 3796 5e3d a7c9 c4bd
00000350: 4198 8abd 9e68 8ebd db3d c93d c987 1c3d
00000360: f846 a7bd e1cf 263b edac b63c a4b1 ac3c
00000370: 71c6 813b d688 fabb e499 973d c1e3 73bd
00000380: c945 823d 74d2 05be 4325 91bd 743d 87bc
00000390: bd8d bfbd 694b 463d 0fd9 b03d e259 bdbd
000003a0: 20df 52bc 274a e63c 1606 3d3d 8691 873d
000003b0: 82f4 9b3d 96c4 593d 0db2 9f3d fd60 073e
000003c0: 82b8 00bc 3eeb ccbc 0b28 9dbd a0bf 83bd
000003d0: 7e36 aa3d 3175 543d 78c7 0cbe cb75 debc
000003e0: d743 d4bd e4b6 6d3c f189 cdbd 17d7 963b
000003f0: 1780 623d 21d0 8c3d acc5 c33d 7aea 443d
0.11308799 0.07664945 -0.08037346 0.021910358 -0.063278355 0.009483991 -0.04968843 -0.091230094
-0.014617441 0.06671016 -0.063012205 -0.024173375 0.06490338 -0.060838684 0.001981316 0.06040921
-0.09916951 -0.031082507 -0.07675135 -0.05495198 0.07055877 -0.13208096 0.078646 0.005498213
-0.02794648 -0.08432431 0.106943466 -0.114950046 0.012670795 0.10859817 -0.02108413 0.07268014
0.10305835 0.11499984 -0.1251414 -0.14436068 0.009962782 -0.030074757 -0.117595516 -0.04814446
0.044876743 0.049910076 0.0367111 -0.06950574 -0.03497427 0.07384329 0.0032274001 0.045639366
0.05895518 -0.034604304 -0.0057657766 -0.057013094 -0.06990046 0.048458282 0.08836284 -0.10403909
0.08097288 0.006872216 0.037145652 0.057416487 0.03646801 0.09210869 0.027938869 -0.046392303
0.019617321 0.014005763 0.08457732 -0.08862392 0.013382902 -0.00653594 -0.07159832 -0.13167961
-0.124957815 -0.14560556 -0.11152679 -0.042418666 0.0007693314 0.0053693885 0.00451378 0.0062372647
0.09974799 0.042161543 -0.08364446 0.011218258 0.003117062 0.03775109 0.036157016 0.0962271
-0.022529945 0.04336854 0.040207546 0.08471503 -0.07775909 -0.10068501 0.012407833 -0.004465258
-0.01782748 0.093908325 -0.06578743 0.016489914 0.066670254 -0.065102376 -0.098575845 -0.07259319
0.0979531 0.09428041 -0.1688373 -0.11015638 0.086348735 0.08371948 0.045540445 0.13703394
0.083902195 -0.062239233 0.1046198 -0.054603316 -0.04125462 -0.087378025 0.14964288 0.12535365
-0.10979774 -0.0065090246 -0.045530055 -0.13371892 -0.011582594 0.02022829 0.10681832 -0.117168374
0.073137484 -0.013214269 0.087191045 0.035920262 -0.028232139 0.091929905 0.039310157 -0.057339296
0.05004779 -0.10990615 0.07014796 0.06855108 0.07573718 0.040577903 -0.04462306 -0.12379125
0.0624471 -0.01624153 -0.04116373 0.083857596 0.112878956 -0.010039192 -0.111874826 0.03345495
0.12462438 0.055358946 -0.06850769 -0.012217301 0.04327496 0.039705507 0.025133545 -0.015959645
-0.088892795 0.056217227 -0.0038130179 0.041179232 -0.09726396 -0.102056116 0.0038355498 -0.046516318
-0.011275616 0.07577721 0.04625042 -0.11494893 -0.06910164 -0.05931763 0.020989297 0.0593535
0.09116712 -0.07736674 0.082742825 0.0750791 0.081425786 0.07401001 0.08707669 -0.019486004
-0.013797458 -0.091838166 -0.06873077 0.011219503 0.086151734 -0.031025356 0.061169256 0.03737488
0.027046032 -0.11835922 0.07792489 0.05754701 -0.05714576 -0.08099201 -0.028117783 0.118781745
0.06381918 -0.029326096 -0.036854178 0.059901346 0.05207628 0.04137936 -0.13570797 -0.030787395
-0.0927839 0.031203263 0.054342475 -0.09608775 -0.067673214 -0.06953548 0.09826251 0.038215432
-0.08167833 0.0025453495 0.022299254 0.0210808 0.0039604236 -0.0076457066 0.07402399 -0.059543375
0.06360967 -0.13068563 -0.07087185 -0.016508795 -0.09353206 0.04841176 0.08635151 -0.092456594
-0.01287058 0.02811153 0.046148382 0.06619553 0.076149955 0.053165995 0.07797632 0.13220592
-0.00785649 -0.025014516 -0.07673653 -0.06433034 0.08311175 0.051869575 -0.13747966 -0.027155777
-0.10364502 0.014508937 -0.10036076 0.0046032774 0.055297937 0.06875635 0.09559187 0.048075177

conv4.0.bias f4 [4]
00000000: 42f6 62b8 d362 8db5 c411 0ab6 6ce4 17b6
-5.4111944e-05 -1.053408e-06 -2.0573943e-06 -2.2633712e-06

conv4.1.weight f4 [4]
00000000: 886d 7a3f 7100 753f c26d 653f ae3b 753f
0.9782338 0.957038 0.896206 0.9579419

conv4.1.bias f4 [4]
00000000: d7fb 84bd 1a05 ea3d f470 a1bd 9fdf debc
-0.06493347 0.11426754 -0.07882872 -0.02720624

conv4.1.running_mean f4 [4]
00000000: 588c 86bd 018e b43d b563 8f3d c85f 54be
-0.06569737 0.088161476 0.070014395 -0.20739663

conv4.1.running_var f4 [4]
00000000: 8e66 d83d 7dd2 2f3e ea28 603d a047 633e
0.10566436 0.17170139 0.05472652 0.22195292

fc1.0.weight f4 [42, 84]
00000000: 5558 583d 0511 a23c 99f9 32bd acbb 10bd
00000010: 5dfb 79bd 8e2d cd3d c8d1 89bd 4710 c6bd
00000020: fa54 71bd 71f8 913b 690c 2e3d aa3d 83bb
00000030: 4636 0cbd 738c 8bbd 6e89 4dbd 0608 89bd
00000040: 75fd 863d 90e2 03bc 212c c7bc a88a c6bd
00000050: a237 e03d 5fb5 553c 1c04 333d 268b 343d
00000060: 1ec1 79bd fb45 f7bd 81c6 5bbd 6da3 883d
00000070: 1c3e 94bd 9141 cabd cc0c 823d eaf2 f6bb
00000080: 5f16 b4bd a19a 3e3d b772 a03d c9cb a5bb
00000090: 2564 67bc 47ad 28bd f469 933d 34bf 4fbd
000000a0: 8ba0 e6ba f2f5 983d de98 233c 8878 8abd
000000b0: 640e f43c 0318 59bc 4396 d53d 0801 8b3d
000000c0: 1b92 e33d 3623 f6bc ebaa 38bd ec60 1ebc
000000d0: 5aba a3bc 7138 9a3d 8a18 d23d 5bde 53bd
000000e0: f850 a7bc f5a9 e1bd 755b a63d 244e 88bd
000000f0: e712 fdbc 5515 353c 81e8 da3c b14b 3b3d
00000100: 556a 88bd 93f1 af3c a2b8 b13c 6f8e 99bd
00000110: 87ad ef3c 88fd 5f3c 5471 403d d995 8f3d
00000120: dda7 d0bd 2b85 40bd 4b67 9a3b f686 2bbc
00000130: 70ff 9abd ac0b ebbc cc1f 84bd 64dc 9b3d
00000140: e518 df3c db07 57bd 3adb 9bbc 4cdd 11bb
00000150: df21 063e e2b3 e5bd b644 e63a c619 aabc
00000160: cf2e a8bb 88af 23bd d7c7 e5bd 216d a63d
00000170: 0772 a7bb 3aca 6abd 9b9b 11bd 4716 b6bd
00000180: 0d96 41bd 68e2 ee3c a75b 1ebd 8003 79bd
00000190: c0f9 ea3a 0f77 993c c770 e4bd c768 05bc
000001a0: 1181 0f3e 3782 a23c 282c 8ebc 1899 563d
000001b0: 2e54 683d f5f0 18bd e3af 85bd b64e 71bc
000001c0: 2a67 18bd 627b 02bd 0d55 593d 17a4 a63d
000001d0: ffc8 84bd b96e 44bd f471 c9bd 22c6 d7bd
000001e0: 7114 3fbd 6700 c13d 27d8 923d dc61 0c3d
000001f0: 22d0 7539 effb cf3c f512 a2bb 6270 08be
00000200: 16fc afbc 0190 ec3b e5dd ef3c d2a4 4c3d
00000210: 5a21 073d 5566 223d dc43 e53b a3d9 773c
00000220: 7e46 00bc 0754 0cbd ac55 07bd 257f 9fbc
00000230: b227 4bbd 99d8 2f3d c99c 0ebc 185b 89bb
00000240: dc3a 353d e1b9 06bd 42cf 34bc 3b6d 573d
00000250: 4a9b 443d 140d 9dbd 8953 86bd 9b5e 9bbc
00000260: bff3 a53d a05c c1bd 8d0c 1a3d 80e8 f73c
00000270: ccca 47bd 1a71 bfbc f331 68bd 68d5 a03d
00000280: af29 cb3b 6458 98bd d14e 0e3e 027c 113d
00000290: 4e45 11be a435 fc3d 0acc 173d 7ba4 51bd
000002a0: 5191 f13c 1c16 593c 3ad8 753b 1faf c8bb
000002b0: bdcb 593d 9297 7abd 88a7 b2bd 885d a0bd
000002c0: 0364 c5bc 50f8 73bd 28ba 9bbd e701 fbbd
000002d0: a5a0 08bd b56b 1ebc 35c2 0fbd aa37 623d
000002e0: f6c8 1cbc ba4f 8f3d c77a 243d 06c4 d2bb
000002f0: 0b77 c83c 05dd d6bc 4a94 813d ee01 42bd
00000300: aae5 6fbd 5d03 0c3d 5ef0 863d 5bb5 0dbd
00000310: f570 fa39 e7f2 f6bc ebb2 30bd 3d7a b5bc
00000320: f7a4 173b 7eeb 83bd c701 76bd 57bb a4bd
00000330: bdc0 5dbc 4ac3 70bd e2fb 8c3d d4c5 873d
00000340: 5c71 803c 48b0 43bd db59 7dbc a842 f0bc
00000350: 621b 533c d2b0 663d a652 d53c 9390 c23a
00000360: 1038 94bc a229 4f3c 8703 8e3c 507e 333d
00000370: c8a9 d43d ed8a 043d 428b 2a3d e8fe 42bd
00000380: cf2a 8c3d 17e1 68bd f9a7 08bd 3bcb 423d
00000390: 80a3 143d d200 823d 6bc0 963d 0df5 0cbd
000003a0: 9847 a5bd 5fbd 05bd 9aad d0bc b30b 8bbd
000003b0: dc32 7fbd 9dbc 603d e799 36bd 2f2e ea3d
000003c0: 0e3f 9dbd 29ca 79bd ac85 3dbd 571d 643d
000003d0: 1220 54bc 218c 693c 6a50 ddbc 5890 ad3d
000003e0: 4e00 2ebd 869b d53c b90f 4e3d 3696 b4bc
000003f0: 1ba6 9abc d7e9 f0bc f3fc 45bd 1bd5 59bc
0.052818615 0.019783506 -0.043695066 -0.035335228 -0.061030734 0.100184545 -0.06729466 -0.096710734
-0.05891893 0.0044546654 0.042492304 -0.0040051537 -0.034231447 -0.06813898 -0.05017989 -0.066909835
0.06591312 -0.008049622 -0.024313034 -0.09694415 0.10948111 0.0130437305 0.04370509 0.044078015
-0.060975187 -0.120738946 -0.053656105 0.06671796 -0.07238409 -0.09875787 0.06350097 -0.007536282
-0.087933294 0.046534184 0.0783438 -0.0050596935 -0.014122997 -0.041180875 0.07197943 -0.050719455
-0.0017595453 0.07468785 0.009985177 -0.06761271 0.029792018 -0.013250354 0.10429051 0.06787306
0.11111852 -0.030046087 -0.045084875 -0.009666663 -0.01998632 0.075302966 0.10258587 -0.051725727
-0.020424351 -0.11018745 0.08122913 -0.06655529 -0.030892802 0.011052449 0.026722195 0.04572648
-0.06660906 0.021477496 0.021694485 -0.0749787 0.029257549 0.013671286 0.046983078 0.07011003
-0.101882674 -0.047002 0.0047120205 -0.010469189 -0.07568252 -0.028692089 -0.06451377 0.076103956
0.02723355 -0.052497726 -0.019025434 -0.0022257147 0.13098858 -0.112159505 0.0017568085 -0.020764243
-0.005132533 -0.03996232 -0.11219757 0.081262834 -0.0051100287 -0.057321765 -0.035548788 -0.08890968
-0.04726224 0.029160693 -0.038661625 -0.060794353 0.0017927215 0.01873353 -0.11154323 -0.008142657
0.14014079 0.019837482 -0.01735504 0.052392095 0.056720905 -0.03733917 -0.06527688 -0.014728239
-0.03720776 -0.03185595 0.053059626 0.081367664 -0.064836495 -0.047957156 -0.09836188 -0.10535838
-0.046650354 0.09423905 0.07170134 0.034273013 0.00023442556 0.025388686 -0.0049461075 -0.1332412
-0.021482509 0.007219315 0.029280612 0.049961872 0.03299079 0.039648373 0.006996615 0.015127572
-0.007829307 -0.034259822 -0.033040687 -0.019469807 -0.049598403 0.042931173 -0.008704373 -0.0041917674
0.044245586 -0.03289211 -0.011035742 0.052594405 0.047999658 -0.0766851 -0.06558902 -0.01896601
0.081031315 -0.09441495 0.037609626 0.030262232 -0.048777387 -0.02336936 -0.05668826 0.07853204
0.0062000374 -0.07438734 0.13897254 0.035518654 -0.14186594 0.12314919 0.03705982 -0.05118225
0.029488238 0.0132499 0.0037512914 -0.0061243917 0.053172816 -0.061179705 -0.0872336 -0.0783034
-0.02409554 -0.05956298 -0.07603866 -0.12256222 -0.033356328 -0.009669234 -0.03509732 0.055228867
-0.009569397 0.069976285 0.040156152 -0.006432059 0.024470827 -0.026228437 0.06327112 -0.04736512
-0.058568634 0.034182895 0.06588815 -0.034596782 0.00047767875 -0.030145122 -0.04313938 -0.022153014
0.0023139098 -0.06441401 -0.06006029 -0.08043545 -0.013534722 -0.058779992 0.0688398 0.066295296
0.015679054 -0.047775537 -0.015463318 -0.02932866 0.012884947 0.056320973 0.026040386 0.0014844112
-0.018093139 0.012644203 0.017335666 0.043821633 0.10383946 0.032359052 0.041636713 -0.04760638
0.068441026 -0.056855287 -0.033363316 0.047557097 0.03628874 0.06347813 0.073609196 -0.034413386
-0.08070296 -0.0326513 -0.025473405 -0.06789341 -0.062304363 0.054867376 -0.044580366 0.1143459
-0.07678042 -0.06098381 -0.046270058 0.055692043 -0.012947099 0.014254601 -0.027015883 0.08474797
-0.04248076 0.026075136 0.050307963 -0.022044282 -0.018878033 -0.029408379 -0.048336934 -0.013295437

fc1.0.bias f4 [42]
00000000: 3d46 57b3 fad2 fbb2 8d3e b832 4205 6e33
00000010: ec46 3bb2 bcc8 0cb4 8c4a 93b2 5d75 f931
00000020: 008e bb31 d23d b6b2 34fe 2033 7754 d533
00000030: c8a6 1033 b829 9534 54c7 48b3 de33 1134
00000040: 5ca8 dab3 7afd 85b3 a35d 6933 94b7 39b3
00000050: 41db 0633 6f60 9233 bf3b 2f34 fc69 bd33
00000060: 7935 5d33 94ce 2834 c1b0 1bb3 43ab 6c34
00000070: 3dc8 5b33 f47d df31 20ec 1fb1 607b 4a33
00000080: ed67 8232 8c1d b330 f52d 2cb2 169d b631
00000090: bc1e 0b33 b4fb 91b2 1a68 0b34 e3e0 9933
000000a0: 21e0 c0b3 8881 1133
-5.012247e-08 -2.9316187e-08 2.1448864e-08 5.5418475e-08 -1.0900958e-08 -1.3111543e-07 -1.7146952e-08 7.2601964e-09
5.45856e-09 -2.1215701e-08 3.74841e-08 9.9339495e-08 3.36793e-08 2.7783767e-07 -4.6747417e-08 1.3523047e-07
-1.01820405e-07 -6.239402e-08 5.4334702e-08 -4.3240632e-08 3.1398717e-08 6.816196e-08 1.631988e-07 8.820277e-08
5.1504205e-08 1.5721372e-07 -3.6249507e-08 2.2041517e-07 5.1172027e-08 6.5044734e-09 -2.3271767e-09 4.7144e-08
1.5181252e-08 1.3032362e-09 -1.0022167e-08 5.3147557e-09 3.2391412e-08 -1.6994683e-08 1.2983256e-07 7.165524e-08
-8.9814655e-08 3.387825e-08

fc1.1.weight f4 [42]
00000000: 4aef 493f 3910 733f 1daf 443f 3a24 583f
00000010: c5d0 3a3f c94a 6c3f 0145 273f f5bb 293f
00000020: c91d 5d3f d6f0 5e3f 0d3c 473f 20f8 6f3f
00000030: 1fbc 3b3f 7348 383f afd3 623f 567c 553f
00000040: 4487 2e3f 8553 2a3f 4ef5 3d3f d03c 5e3f
00000050: 8dcc 543f 37f4 3e3f 47f8 333f 4bc5 393f
00000060: 8e76 443f 9006 3b3f bdbf 3c3f ef0b 433f
00000070: d584 373f 7c2d 5b3f eb95 343f cd50 393f
00000080: dce4 433f 75d6 443f a548 393f 0a1b 453f
00000090: 7683 593f 5c71 3c3f 5cae 493f dd53 463f
000000a0: b0bb 3b3f 51ac 4a3f
0.7888075 0.9494663 0.768297 0.8443028 0.7297481 0.92301613 0.65339667 0.66302425
0.86373574 0.87086236 0.77826005 0.93737984 0.73333925 0.7198555 0.88604254 0.83392847
0.6817515 0.6653369 0.7420243 0.8681154 0.8312462 0.7459139 0.70300716 0.7256667
0.767434 0.7305689 0.7373007 0.76190084 0.7168706 0.8561628 0.70541257 0.7238892
0.76521087 0.76889735 0.7237647 0.76994383 0.8496622 0.7361047 0.78781676 0.77471715
0.73333263 0.79169184

fc1.1.bias f4 [42]
00000000: 2041 8abc a162 5c3c de17 d0bb b869 2fbd
00000010: 526f 563d fab0 13bc 3444 cbbc d6a4 e2bc
00000020: 811d 83bd 2150 6dbc 7026 c13b 75d4 44bd
00000030: dc5e 80bd 7821 37bd 20ad e1bd 7e28 1fbc
00000040: 5f0f 84bd a967 99bd e860 bcbd 87a2 c0bd
00000050: 9723 0cbe e449 2dbd c2ac e6b9 1c36 173d
00000060: 5d4d 41bd 6bd1 00be 5113 91bd 81a9 c6bd
00000070: a0e6 ef3b e39f d1bc f9d3 8dbd 6042 5abd
00000080: 5b37 73bd 080b e7bd c92c 83bd d75b 22bd
00000090: 06b0 adbc aabf 06bc 649a 72bc 4e84 4b3d
000000a0: 7cb0 95bd 96d7 45bd
-0.016876757 0.013451249 -0.0063505014 -0.04282543 0.052352257 -0.0090143625 -0.024812795 -0.02766649
-0.06402112 -0.014484436 0.0058944747 -0.048054177 -0.06268093 -0.044709653 -0.11019349 -0.009714244
-0.06448244 -0.07490475 -0.09198171 -0.09406 -0.13685451 -0.042306796 -0.00043997733 0.036916837
-0.04719292 -0.12579887 -0.070837624 -0.09700299 0.007321194 -0.025588935 -0.06925196 -0.053285956
-0.059378963 -0.11281401 -0.064050265 -0.039638367 -0.021202099 -0.008224407 -0.014807317 0.049686722
-0.07309052 -0.048301302

fc1.1.running_mean f4 [42]
00000000: af95 d3be 5bf1 2d3d c8cb c0be 71bf d3be
00000010: 088b b83f 5a74 21bf 8cfc 38bf b69d 6c3e
00000020: 242e 88bf 83d1 f8be 2ea7 fc3d 15da 9cbf
00000030: 4767 ad3c 0121 6f3f d860 7abd d990 eebf
00000040: de7e cebf 146b 39bf b174 78bf 1d30 a7bf
00000050: c560 39be dd62 0b3d e85f 7f3f 24e9 a33e
00000060: d15d b93f a1dd 333f 3723 5dbe 0d77 9bbf
00000070: c366 9dbd 5072 53be 9440 28bf 5c8b be3f
00000080: 885a a43e 5695 2f3f 1a8a 023f 000f 08be
00000090: 2f57 30bf 833f 45bf 8cb0 6dbf 4e6c 323e
000000a0: 12f0 f83e 75cd da3e
-0.41325137 0.042466503 -0.37655473 -0.41356996 1.4417429 -0.63068163 -0.72260356 0.23107037
-1.0639081 -0.48597345 0.123365745 -1.2254053 0.02116741 0.93409735 -0.061127514 -1.8637954
-1.6132467 -0.72429013 -0.97053057 -1.3061558 -0.18103321 0.03402983 0.99755716 0.3201381
1.4481755 0.70260054 -0.21595465 -1.2145706 -0.07685616 -0.20649076 -0.6572354 1.4886279
0.3210032 0.68587244 0.50991976 -0.13286972 -0.6888303 -0.77050036 -0.92847514 0.17424127
0.4862066 0.42734876

fc1.1.running_var f4 [42]
00000000: 4bf4 f13d 26fc 603e 57d4 623e 97d6 063e
00000010: 157a 873e 48df 413e 0861 663e f9e9 6c3e
00000020: 037e e93d 6d0b 4a3e e0c5 573e f880 5b3e
00000030: 2c92 383e 6590 013e 1529 e83d 2346 473e
00000040: c0b3 1e3e bdc5 ee3d 006a 283e 9ad8 293e
00000050: 3d6f cc3d 5237 2b3e c4b3 d83d 75e8 673e
00000060: d9a4 cc3e 0e02 a63d 5da4 193e 2416 283e
00000070: 0fcd e03d 857c b93e 7421 923e 088d 4b3e
00000080: a895 ab3e 84fb ff3d 0d6a 763e 9543 593e
00000090: b4f1 793e 072b 7a3e d128 0c3e 7abb 703e
000000a0: 4502 933e 4b70 eb3d
0.11814173 0.21971187 0.22151314 0.13167797 0.2646033 0.18932831 0.22497952 0.23136128
0.11400988 0.19730921 0.21071577 0.21435916 0.1802451 0.12652738 0.11335961 0.19460349
0.15498257 0.11658809 0.16446686 0.16586533 0.099821545 0.16720322 0.105811626 0.22647269
0.3996952 0.08105861 0.15004106 0.16414696 0.10976612 0.36227813 0.28541148 0.19878018
0.33512616 0.12499145 0.24063893 0.21217187 0.24408609 0.24430476 0.13687445 0.23509017
0.2871267 0.114960276
