state_dict.pth (torch, 59042 bytes, 38 tensors)

conv1.0.weight f4 [32, 1, 3, 3]
0.27318436 0.14575307 -0.286856 -0.03410302 -0.22833034 -0.16207571 -0.16429421 -0.26450074
0.22501118 -0.2751018 -0.24938238 0.045061488 0.24981113 -0.054800667 -0.2738821 -0.07467961
0.10334127 0.077330574 0.00906158 -0.13082996 0.09791811 0.21647957 0.0046504433 -0.19014761
0.14683972 -0.2731674 -0.13035549 0.20504007 0.12824659 0.24766654 -0.04620699 -0.25149563
0.13566753 -0.24498145 -0.23688972 0.2899116 -0.062200096 -0.1060549 -0.2644835 -0.1410291
-0.19776137 0.09185526 0.2950905 -0.2731841 0.036002595 0.032275345 0.05553134 -0.088268846
0.0950991 0.21009165 -0.14569713 0.025384134 0.18116306 0.27470824 0.10029208 -0.19293553
-0.27434564 -0.08114427 -0.21864423 0.21752807 0.023815496 0.05623988 0.17200215 0.010640565
-0.11980076 -0.1983976 -0.029671328 0.04705315 0.32374814 -0.23029095 -0.0063779107 -0.29313534
0.2715876 -0.15316422 0.032621276 0.10383461 0.06896009 0.15425095 -0.32033736 0.116022155
0.28902102 0.22206256 0.30869907 -0.1236873 0.022202916 -0.31358865 0.26272124 0.025208434
-0.05461761 -0.124447316 0.14225216 0.28729072 -0.17042096 -0.15221049 -0.10735717 0.24640161
-0.051811963 0.017321741 0.21811359 -0.022797823 0.036336802 0.10714305 0.07311648 -0.115709834
-0.010309433 0.23817061 -0.109024 -0.09609826 -0.36246783 0.157721 0.26480737 0.27858254
0.08305665 -0.27289867 -0.2036327 -0.003873679 0.28445643 -0.25835943 -0.13128781 -0.02891366
-0.2713921 -0.23398806 0.08864222 -0.06741377 -0.26265967 0.03279077 -0.029697884 -0.30406
0.1580886 0.06457387 0.213903 0.2861715 0.24234974 0.02822921 -0.28842285 0.12938203
-0.12616694 0.20237406 -0.046558905 -0.18253802 0.09898973 0.024028486 -0.096273616 -0.27088332
-0.3196865 0.29171804 -0.16034962 0.07593642 0.15733297 0.1465322 0.22049044 0.0028859754
-0.19459409 0.21814585 -0.24068047 -0.112823226 0.17821538 0.21628407 0.27315047 -0.06633424
-0.22572944 -0.11069856 0.27519304 0.107385375 -0.27203563 -0.026687894 0.1209407 -0.0062710796
0.14598644 -0.19159144 -0.07722732 0.19919632 0.24935186 0.20598868 0.23115496 0.025991835
0.12079986 -0.2620086 0.00016113155 -0.31162682 0.02614945 0.2655452 -0.16528589 -0.19503455
-0.16787037 -0.29767343 -0.2710585 0.26202625 0.30216494 -0.116222814 0.23615399 0.21569832
0.09713474 0.27655804 0.05668277 -0.30104944 -0.27393326 0.21854281 -0.15068488 -0.031010535
-0.12226647 -0.263552 0.23149228 -0.25734976 -0.09154447 -0.14907339 -0.037530176 -0.03314124
-0.19934572 -0.24352257 0.16722108 0.011402794 0.17413239 0.106557645 -0.2423141 0.2970186
-0.18327351 -0.2312899 -0.045977622 -0.059804432 -0.12771104 0.064188 -0.016638735 -0.13001356
-0.23099333 0.22326577 -0.0018775185 0.08614967 -0.046119984 -0.14491475 0.040929165 0.12120259
-0.25963357 0.27129823 0.26159352 -0.27043775 -0.1875704 -0.15880646 0.114906676 -0.27703735
0.28655526 0.0061443103 -0.006741164 0.16777357 -0.20483108 -0.21699242 0.23364866 -0.120794766
-0.160992 -0.010163726 0.045434996 -0.038519356 0.22576909 0.12926653 -0.09798343 0.17110099
00000000: d2de 8b3e 4b40 153e cade 92be 9caf 0bbd
00000010: 6ecf 69be 2df7 25be be3c 28be a46c 87be
00000020: 5569 663e 25da 8cbe 185e 7fbe 6592 383d
00000030: 7dce 7f3e aa76 60bd 463a 8cbe a0f1 98bd
00000040: 96a4 d33d 7e5f 9e3d 0577 143c 4af8 05be
00000050: 4a89 c83d d2ac 5d3e bf62 983b 0eb6 42be
00000060: 275d 163e 99dc 8bbe e97b 05be 06f6 513e
00000070: 1353 033e 4c9c 7d3e 8a43 3dbd 09c4 80be
00000080: 6eec 0a3e 6bdc 7abe 3893 72be 4b6f 943e
00000090: 87c5 7ebd 5033 d9bd 626a 87be ef69 10be
000000a0: f581 4abe 9c1e bc3d 1a16 973e c9de 8bbe
000000b0: 7577 133d 2733 043d d574 633d 4cc6 b4bd
000000c0: 51c3 c23d 4422 573e a131 15be 63f2 cf3c
000000d0: cf82 393e 8fa6 8c3e ef65 cd3d e490 45be
000000e0: 0877 8cbe f82e a6bd 46e4 5fbe aebf 5e3e
000000f0: b718 c33c ca5b 663d 5521 303e c455 2e3c
00000100: 1a5a f5bd be28 4bbe 4911 f3bc ceba 403d
00000110: 51c2 a53e 64d1 6bbe cbfd d0bb d615 96be
00000120: 880d 8b3e 15d7 1cbe e39d 053d 3da7 d43d
00000130: f33a 8d3d f6f3 1d3e 4203 a4be 069d ed3d
00000140: 90fa 933e 5e64 633e ce0d 9e3e c44f fdbd
00000150: e4e2 b53c b18e a0be 6683 863e eb81 ce3c
00000160: b7b6 5fbd 3cde febd 8daa 113e c517 933e
00000170: d582 2ebe 11dd 1bbe 13de dbbd b450 7c3e
00000180: c838 54bd 53e6 8d3c 2b59 5f3e 80c2 babc
00000190: e6d5 143d d16d db3d 18be 953d 47f9 ecbd
000001a0: e5e8 28bc ffe2 733e fa47 dfbd 2acf c4bd
000001b0: 6295 b9be 9d81 213e d594 873e 5fa2 8e3e
000001c0: 9b19 aa3d 60b9 8bbe 1785 50be 8ddd 7dbb
000001d0: 46a4 913e b047 84be 5070 06be 57dc ecbc
000001e0: e8f3 8abe 919a 6fbe 0d8a b53d 3b10 8abd
000001f0: 547b 86be 9d4f 063d fa48 f3bc c1ad 9bbe
00000200: fae1 213e 4e3f 843d 6309 5b3e 1285 923e
00000210: 882a 783e f240 e73c 29ac 93be b97c 043e
00000220: e831 01be 253b 4f3e 8db4 3ebd 3feb 3abe
00000230: 21bb ca3d 63d7 c43c 1a2b c5bd 38b1 8abe
00000240: f3ad a3be 115c 953e b132 24be 8e84 9b3d
00000250: e51b 213e 890c 163e 3fc8 613e a222 3d3b
00000260: ac43 47be a061 5f3e f174 76be dd0f e7bd
00000270: 187e 363e 9279 5d3e 61da 8b3e 3fda 87bd
00000280: 9e25 67be edb5 e2bd 1ae6 8c3e ddec db3d
00000290: 4148 8bbe 92a0 dabc c2af f73d a17d cdbb
000002a0: 787d 153e 8c30 44be 5b29 9ebd 1ffa 4b3e
000002b0: 1856 7f3e b2ee 523e e3b3 6c3e d4ec d43c
000002c0: eb65 f73d fe25 86be 6cf5 2839 8d8d 9fbe
000002d0: 5f37 d63c 8af5 873e b440 29be 23b7 47be
000002e0: 36e6 2bbe a768 98be 2ec8 8abe 4e28 863e
000002f0: 5db5 9a3e 3a06 eebd 5ad2 713e 05e0 5c3e
00000300: 94ee c63d 0499 8d3e 312c 683d 2723 9abe
00000310: fb40 8cbe b0c9 5f3e 234d 1abe ce09 febc
00000320: d866 fabd 4af0 86be 500c 6d3e 59c3 83be
00000330: ab7b bbbd b2a6 18be 3eb9 19bd 1cbf 07bd
00000340: 4921 4cbe fb5d 79be 013c 2b3e c9d2 3a3c
00000350: c34f 323e e53a da3d 3021 78be d212 983e
00000360: 0dac 3bbe 42d7 6cbe 0853 3cbd 7ef5 74bd
00000370: afc6 02be 0075 833d f54d 88bc 4622 05be
00000380: 8489 6cbe c89f 643e 1117 f6ba 3d6f b03d
00000390: 4fe8 3cbd 8864 14be 57a5 273d 1039 f83d
000003a0: b1ee 84be 9ae7 8a3e 96ef 853e d176 8abe
000003b0: 7412 40be 299e 22be 3154 eb3d d7d7 8dbe
000003c0: 5fb7 923e 3656 c93b fbe4 dcbb d6cc 2b3e
000003d0: 3dbf 51be 4333 5ebe 9841 6f3e 3f63 f7bd
000003e0: 16db 24be c285 26bc 0c1a 3a3d 79c6 1dbd
000003f0: 0330 673e 725e 043e 89ab c8bd 1935 2f3e

conv1.0.bias f4 [32]
2.6290145e-05 -2.5880818e-06 -8.286849e-05 -0.0011993751 -0.00566006 3.2929183e-06 0.010880788 -2.422242e-05
1.1060849e-05 -0.009521641 -0.006808372 0.0003197896 -4.8003985e-06 -0.016677177 2.6580026e-05 0.0060891393
3.0473864e-05 1.0052536e-05 4.271363e-05 4.4163393e-05 -0.012162044 -3.6958322e-06 -0.0073853047 -9.305999e-06
1.4121849e-05 0.015519505 -0.014219226 0.015422474 -5.439954e-07 -1.29798555e-05 -0.003540712 -0.009570036
00000000: a889 dc37 e8ae 2db6 afc9 adb8 5a34 9dba
00000010: 0678 b9bb e8fb 5c36 5545 323c 4031 cbb7
00000020: fc91 3937 a800 1cbc c418 dfbb 6fa9 a739
00000030: 1c13 a1b6 939e 88bc 2cf8 de37 6787 c73b
00000040: 20a2 ff37 50a7 2837 6927 3338 153c 3938
00000050: 4f43 47bc ea05 78b6 6d00 f2bb f620 1cb7
00000060: e1ec 6c37 8645 7e3c c2f7 68bc 8bae 7c3c
00000070: 1407 12b5 0ec4 59b7 4a0b 68bb a4cb 1cbc

conv1.1.weight f4 [32]
0.91243464 0.9141068 0.9218632 0.86882144 0.85960114 0.8738183 0.8793455 0.90290457
0.88388157 0.88614625 0.8607073 0.89866185 0.92072797 0.87277997 0.9150251 0.8573526
0.8836809 0.93309766 0.9314528 0.9274038 0.934313 0.9160578 0.907126 0.86143726
0.8644625 0.9144076 0.83604866 0.87479955 0.8573529 0.9218219 0.94701093 0.8897232
00000000: 5195 693f e702 6a3f 3aff 6b3f 156b 5e3f
00000010: d20e 5c3f 8eb2 5f3f c91c 613f c124 673f
00000020: 1046 623f 7bda 623f 5057 5c3f b40e 663f
00000030: d4b4 6b3f 826e 5f3f 163f 6a3f 767b 5b3f
00000040: e938 623f 7ddf 6e3f b173 6e3f 566a 6d3f
00000050: 232f 6f3f c482 6a3f 6939 683f 2787 5c3f
00000060: 6a4d 5d3f 9e16 6a3f 4907 563f ddf2 5f3f
00000070: 7b7b 5b3f 85fc 6b3f 4f6f 723f e6c4 633f

conv1.1.bias f4 [32]
-0.03198103 0.0005307557 0.0019994173 -0.020328436 -0.026767006 -0.008797716 -0.0074485396 -0.025974963
-0.02325003 -0.030771704 -0.016487887 0.007378553 -0.006377017 -0.026744407 0.0033436937 -0.03632628
-0.029360047 0.028073985 0.004020331 0.003056755 -0.020137666 -0.0059394375 -0.0043886486 -0.006461907
-0.044727925 0.00015773461 -0.011772531 -0.014501747 -0.029422402 -0.020317601 0.0035062495 -0.004163665
00000000: 8afe 02bd 6922 0b3a a808 033b d287 a6bc
00000010: 7b46 dbbc 4c24 10bc e112 f4bb 72c9 d4bc
00000020: d976 bebc f114 fcbc 9b11 87bc cac7 f13b
00000030: 4cf6 d0bb 1617 dbbc df21 5b3b deca 14bd
00000040: 7b84 f0bc 6afb e53c fbbc 833b d753 483b
00000050: bff7 a4bc 9d9f c2bb a7ce 8fbb 68be d3bb
00000060: a134 37bd 9065 2539 93e1 40bc bc98 6dbc
00000070: 4007 f1bc 1971 a6bc 1bc9 653b 5b6f 88bb

conv1.1.running_mean f4 [32]
-0.33688563 -0.3086774 -0.17827965 0.14643611 -0.44609073 0.4092344 -0.14631736 -0.28124896
0.37347922 0.13228972 0.27525818 0.045545828 0.16695744 -0.75307214 0.24495055 -0.17198303
0.16910613 0.102025315 0.044693362 0.34252772 -0.17383036 0.3210562 -0.55086744 0.0022910761
-0.6222309 0.17404209 -0.20892 -0.21072277 0.5653675 -0.15502451 -0.060709443 -0.27858123
00000000: 467c acbe f70a 9ebe f18e 36be 59f3 153e
00000010: 0166 e4be 2c87 d13e 38d4 15be ddff 8fbe
00000020: ab38 bf3e f576 073e a4ee 8c3e 438e 3a3d
00000030: e4f6 2a3e 56c9 40bf 51d4 7a3e 521c 30be
00000040: 282a 2d3e a6f2 d03d 6310 373d cb5f af3e
00000050: 9600 32be 7a61 a43e a605 0dbf e125 163b
00000060: 864a 1fbf 1738 323e 20ef 55be b6c7 57be
00000070: edbb 103f bfbe 1ebe 77aa 78bd 33a2 8ebe

conv1.1.running_var f4 [32]
0.052222047 0.052050862 0.027745035 0.08641426 0.06976684 0.087590545 0.025297297 0.04531814
0.06926142 0.030991113 0.04310851 0.008616001 0.026183559 0.22459212 0.036893938 0.035273448
0.02788252 0.023139406 0.02854675 0.08051975 0.029966742 0.07431036 0.11182363 0.037183296
0.14049688 0.027638761 0.05227385 0.04378582 0.1723347 0.025419405 0.004578447 0.091010705
00000000: c9e6 553d 4933 553d 8e49 e33c f6f9 b03d
00000010: ebe1 8e3d ac62 b33d 473c cf3c 849f 393d
00000020: eed8 8d3d 13e1 fd3c 8d92 303d 212a 0d3c
00000030: e77e d63c 7afb 653e 191e 173d e47a 103d
00000040: e269 e43c da8e bd3c e0da e93c 8ae7 a43d
00000050: d07c f53c 0830 983d ca03 e53d 834d 183d
00000060: 6ade 0f3e af6a e23c 1b1d 563d c358 333d
00000070: 8278 303e 5b3c d03c cc06 963b d263 ba3d

conv2.0.weight f4 [16, 32, 3, 3]
-0.021521632 -0.042367496 -0.019977214 -0.009159651 -0.04714124 0.036153916 0.045138456 0.0086957365
-0.024612743 0.00987458 -0.040667105 -0.024952373 -0.03773049 -0.0032557826 0.013208567 0.022148548
0.04835677 0.028167484 -0.047352903 0.0070978575 0.00640822 -0.034992576 0.011875769 0.02736236
-0.019132072 -0.0049608583 0.027006993 0.03969874 -0.03818555 0.023289418 0.036700472 -0.014576326
-0.01590309 -0.028385352 -0.011727245 0.027839597 0.015389427 0.06354459 0.057304975 0.01726774
-0.04899066 0.03223514 0.024355778 0.011353525 -0.0058543505 0.021657048 0.03927489 0.04045112
0.070435636 -0.006770999 -0.06288803 0.0019240031 0.01812932 0.05186153 -0.05174011 0.05567679
-0.022581223 -0.008144091 -0.025964659 0.016070379 -0.029663732 0.035725124 0.010387292 -0.0092079
0.06286875 -0.05915206 0.0006100067 -0.017764363 0.019178387 0.029347928 -0.045773108 0.004514477
0.00096102385 -0.045779936 -0.052236672 -0.011868508 0.023965938 -0.0621828 -0.05044694 0.022582244
-0.035689052 -0.06103549 0.013944678 0.016798787 -0.034528427 0.019281115 -0.013761989 0.027930735
-0.03707572 0.032755088 -0.03985183 0.033306826 0.01052288 -0.021836355 0.010630654 0.0125632575
0.042618215 0.008030384 -0.032126155 -0.045736145 0.051779274 0.0072691464 -0.041196972 -0.00065695343
0.06992793 -0.0014924784 -0.024450764 0.0003438784 0.033247977 0.031832233 0.020046929 -0.054922484
-0.049945295 0.040917378 -0.036053535 -0.009845835 -0.028005578 -0.04940181 0.034376416 -0.009719139
-0.035406116 -0.028591594 -0.024886357 0.026544074 0.03657257 0.05762983 0.056666326 0.08182115
0.03751803 0.009477077 -0.034661334 -0.049229402 -0.024395134 0.013146257 0.010236413 0.011411781
-0.02934067 -0.0303222 -0.038056545 -0.028366532 0.032298278 -0.025045894 0.035349302 0.003868038
0.009965112 -0.060629714 0.054217797 -0.005687753 0.01171857 -0.034324743 -0.0005137051 -0.01924507
-0.020615231 0.030420715 0.062051166 0.009058788 0.027379567 -0.029827103 0.06953757 0.015835043
-0.010735926 -0.03223419 -0.048354518 0.022230336 0.048622962 0.038800023 -0.020738123 0.004968587
-0.05553444 -0.024588693 0.067077234 0.017987765 0.0074668406 -0.0066892663 -0.019532999 0.07093804
0.04758117 -0.017688742 -0.010356031 0.010209468 0.038236044 -0.08596574 -0.040640295 0.01431182
-0.03419847 -0.010829065 -0.08932712 -0.01825916 -0.025719719 0.00041226123 -0.005588705 0.034492895
0.05798346 0.032682616 0.065359056 -0.030062998 0.008666683 -0.050833777 -0.0460094 -0.05907879
-0.014120897 0.00064819364 0.01991017 -0.01852999 0.0556305 0.0028206296 -0.030978361 0.035696805
-0.024012292 0.002404019 -0.0032986295 0.016820438 0.0067477175 -0.012577597 0.035858583 -0.0308759
-0.051298205 0.048050262 -0.027399546 -0.049399868 0.04685412 -0.050718796 -0.013473286 0.056048166
0.036459982 0.019561334 0.029888991 0.018130178 0.022732621 -0.073183596 -0.02790591 0.029995374
0.022950204 -0.027434474 0.016198637 -0.036940996 0.0019944364 -0.0097771175 0.028236235 0.0029276754
-0.051237475 -0.04557472 0.080988884 -0.010736907 -0.044027895 0.054730028 -0.005394113 -0.044497877
-0.0028501467 -0.026581869 0.023063328 0.026614865 0.0093807 -0.016263863 0.058951665 -0.017839879
00000000: 224e b0bc 8a89 2dbd 41a7 a3bc 5c12 16bc
00000010: 2c17 41bd 2116 143d 1ae3 383d 9078 0e3c
00000020: aaa0 c9bc fec8 213c 8d92 26bd eb68 ccbc
00000030: 498b 1abd f85e 55bb bf68 583c df70 b53c
00000040: c011 463d 7fbf e63c 1ef5 41bd 2595 e83b
00000050: 0cfc d13b 6054 0fbd 9692 423c 0727 e03c
00000060: ddba 9cbc b28e a2bb c53d dd3c 259b 223d
00000070: 7468 1cbd 73c9 be3c 3c53 163d 8bd1 6ebc
00000080: 3247 82bc 6688 e8bc a123 40bc de0f e43c
00000090: ef23 7c3c aa23 823d 9fb8 6a3d 1375 8d3c
000000a0: 6eaa 48bd ff08 043d c585 c73c 2304 3a3c
000000b0: dad5 bfbb 1f6a b13c b5de 203d 13b0 253d
000000c0: 8f40 903d 42df ddbb 71cb 80bd d52e fc3a
000000d0: f183 943c c16c 543d 70ed 53bd 590d 643d
000000e0: 42fc b8bc cb6e 05bc d6b3 d4bc 07a6 833c
000000f0: 5b01 f3bc 8254 123d 762f 2a3c bbdc 16bc
00000100: 55c1 803d 6e49 72bd dbe8 1f3a 9286 91bc
00000110: fe1b 9d3c 116b f03c 957c 3bbd 2eee 933b
00000120: 38ed 7b3a be83 3bbd 1ff6 55bd 2174 42bc
00000130: 3754 c43c 64b3 7ebd 73a1 4ebd 66fe b83c
00000140: af2e 12bd 5a00 7abd 3878 643c 9c9d 893c
00000150: ae6d 0dbd 6ef3 9d3c f779 61bc ffce e43c
00000160: b6dc 17bd 332a 063d ac3b 23bd bd6c 083d
00000170: 2868 2c3c 28e2 b2bc 322c 2e3c 1fd6 4d3c
00000180: 7090 2e3d df91 033c b796 03bd d355 3bbd
00000190: 8116 543d 0532 ee3b 28be 28bd 6637 2cba
000001a0: 6036 8f3d 449f c3ba f84c c8bc 944a b439
000001b0: 082f 083d 8462 023d 7539 a43c 66f6 60bd
000001c0: 7093 4cbd fb98 273d dfac 13bd 6d50 21bc
000001d0: f46b e5bc 8d59 4abd 49ce 0c3d 063d 1fbc
000001e0: 0106 11bd eb38 eabc 79de cbbc f572 d93c
000001f0: 1fcd 153d 420d 6c3d f31a 683d d991 a73d
00000200: 81ac 193d be45 1b3c 0bf9 0dbd c5a4 49bd
00000210: 4ed8 c7bc 6663 573c a1b6 273c 7bf8 3a3c
00000220: d85b f0bc 4366 f8bc 2ee1 1bbd ee60 e8bc
00000230: 334b 043d 0c2d cdbc 6eca 103d e97e 7d3b
00000240: b644 233c dd56 78bd 7b13 5e3d 5560 babb
00000250: 3fff 3f3c 1a98 0cbd 2aaa 06ba d6a7 9dbc
00000260: 46e1 a8bc dd34 f93c 5d29 7e3d 506b 143c
00000270: 1d4b e03c f857 f4bc b769 8e3d 7eb8 813c
00000280: bde5 2fbc ff07 04bd 630f 46bd 651c b63c
00000290: df28 473d c6ec 1e3d ffe2 a9bc 87cf a23b
000002a0: 1578 63bd 3a6e c9bc ca5f 893d 145b 933c
000002b0: 66ac f43b a231 dbbb ab03 a0bc f747 913d
000002c0: 79e4 423d fbe7 90bc 58ac 29bc 9d45 273c
000002d0: 669d 1c3d ce0e b0bd 7076 26bd 207c 6a3c
000002e0: b213 0cbd 646c 31bc 23f1 b6bd 3c94 95bc
000002f0: 29b2 d2bc c424 d839 7521 b7bb 6c48 0d3d
00000300: 1180 6d3d 35de 053d f8da 853d ad46 f6bc
00000310: b4fe 0d3c 1437 50bd 5a74 3cbd 9afc 71bd
00000320: 565b 67bc 8aeb 293a a71a a33c 35cc 97bc
00000330: cfdc 633d 50da 383b 55c6 fdbc d036 123d
00000340: 6db5 c4bc bf8c 1d3b d22d 58bb 04cb 893c
00000350: f51b dd3b 4412 4ebc 73e0 123d 75ef fcbc
00000360: 111e 52bd 5ad0 443d 0375 e0bc 8457 4abd
00000370: 1bea 3f3d 83be 4fbd 0fbf 5cbc c392 653d
00000380: 1057 153d 173f a03c c2d9 f43c bd85 943c
00000390: c339 ba3c 48e1 95bd ef9a e4bc dcb8 f53c
000003a0: 1102 bc3c 43be e0bc 01b3 843c 714f 17bd
000003b0: 17b5 023b 3430 20bc ad4f e73c 3ede 3f3b
000003c0: 63de 51bd 8fac 3abd 80dd a53d dae9 2fbc
000003d0: 9856 34bd 982c 603d 19c1 b0bb 6843 36bd
000003e0: 87c9 3abb 38c2 d9bc 4eef bc3c 6b07 da3c
000003f0: 82b1 193c cb3b 85bc 4d77 713d f024 92bc

conv2.0.bias f4 [16]
-2.7769602e-08 -5.3010313e-06 2.5999423e-06 9.305728e-06 -4.735227e-06 3.405703e-07 2.7781089e-06 -1.7716906e-05
-1.1119756e-05 -1.4044653e-06 1.0368725e-05 -1.8891152e-06 -4.954605e-07 -3.4704872e-06 1.5981039e-05 3.4932382e-06
00000000: 008a eeb2 83df b1b6 ab7a 2e36 cc1f 1c37
00000010: 4ae3 9eb6 a0d7 b634 8c6f 3a36 c49e 94b7
00000020: fd8e 3ab7 0f81 bcb5 56f5 2d37 818d fdb5
00000030: c9ff 04b5 84e6 68b6 050f 8637 606d 6a36

conv2.1.weight f4 [16]
0.94861716 0.8919301 0.901512 0.94352305 0.94090104 0.8929482 0.92221534 0.93168247
0.9541439 0.89326537 0.9172517 0.93455714 0.9403304 0.9830271 0.9203316 0.93272626
00000000: 93d8 723f 8855 643f 7ec9 663f ba8a 713f
00000010: e4de 703f 4198 643f 4e16 6c3f be82 6e3f
00000020: c642 743f 0aad 643f 02d1 6a3f 233f 6f3f
00000030: 7eb9 703f aaa7 7b3f da9a 6b3f 26c7 6e3f

conv2.1.bias f4 [16]
0.00063129637 -0.029423568 0.008381948 0.0077137477 -0.014083183 -0.0054466208 -0.009581921 0.0062398026
-0.044238295 0.008640905 -0.0053717038 0.0125015285 0.014244632 0.028503105 0.004359206 -0.04031578
00000000: 957d 253a b209 f1bc 7054 093c 9bc3 fc3b
00000010: 27bd 66bc 9179 b2bb 7dfd 1cbc 4277 cc3b
00000020: 3733 35bd 9592 0d3c 1e05 b0bb 36d3 4c3c
00000030: 5162 693c 587f e93c acd7 8e3b 2922 25bd

conv2.1.running_mean f4 [16]
0.012508519 0.5141642 -0.21295857 0.16317613 0.23964107 -0.42331356 0.106233165 -0.19979385
0.02783789 -0.2906439 -0.2504125 0.10074263 -0.12780507 0.18234509 0.1478285 -0.21870328
00000000: 88f0 4c3c 44a0 033f d011 5abe a517 273e
00000010: 7864 753e 8ebc d8be c690 d93d c296 4cbe
00000020: 490c e43c 47cf 94be 1136 80be 2752 ce3d
00000030: 55df 02be acb8 3a3e 5b60 173e c1f3 5fbe

conv2.1.running_var f4 [16]
0.23089835 0.26237938 0.086391605 0.19942617 0.11509863 0.25730458 0.12884714 0.2666414
0.1974768 0.34712783 0.19554812 0.12240424 0.15605102 0.1696263 0.102334574 0.125201
00000000: 9e70 6c3e 9756 863e 15ee b03d 6036 4c3e
00000010: d5b8 eb3d 6dbd 833e 81f0 033e 3985 883e
00000020: 5c37 4a3e bdba b13e c43d 483e 13af fa3d
00000030: d7cb 1f3e 84b2 2d3e ca94 d13d b134 003e

conv3.0.weight f4 [8, 16, 3, 3]
0.058768686 -0.044683035 0.03204449 0.049866527 0.017899321 0.0254898 0.0019693212 -0.017435918
0.04276314 0.038465895 0.05709453 -0.051376566 0.044712335 0.05147569 0.028746167 0.025743304
-0.03584967 -0.012175643 -0.075938955 -0.03299595 -0.07182086 -0.046944488 0.048631374 -0.03082344
-0.075844 0.023692276 -0.02811293 0.013710966 -0.03179287 -0.0052485038 -0.042899456 0.06967533
0.07546593 -0.052413065 -0.0068225637 -0.050954644 -0.09655045 -0.02921134 -0.00056414073 -0.0029107758
-0.042080075 0.046411745 -0.0018339306 -0.08113073 0.032151144 0.07745827 0.019341035 0.04556124
0.01165551 0.016321499 0.08790334 0.074237585 0.006268269 0.0411311 0.034458965 -0.026006002
-0.059199784 0.07799076 0.020802353 0.016713044 -0.03099428 -0.06530319 0.009993842 -0.065686345
-0.012050148 -0.022517318 -0.029335633 0.04227283 0.03983124 -0.0576762 0.044548497 -0.002985799
0.0017861353 -0.07685159 -0.049359795 -0.053568725 -0.054099973 0.06884478 0.07132796 -0.10263855
0.01872351 -0.034875065 0.07420442 -0.004704344 0.10085184 0.022671504 0.017616177 -0.008348954
0.03382463 -0.0019425786 0.023983302 -0.0791427 -0.0679917 -0.05120984 -0.0077007175 0.0034253881
-0.06841942 0.043540582 -0.06430661 0.06726835 0.057641055 0.031868454 0.046964977 -0.0872324
0.0690864 -0.0048427335 -0.055863164 -0.0707165 -0.05588097 -0.06960067 -0.012997598 -0.029744215
-0.027157152 0.05099919 -0.024764547 -0.0026807184 -0.013756355 -0.025569133 0.015870538 0.006547201
-0.04657233 -0.05860492 0.07921667 0.058558658 0.028998444 0.022052433 -0.07546697 0.06810557
-0.072924316 -0.019480532 -0.030296858 -0.033233367 -0.02278436 -0.08944086 0.046291225 -0.08149636
0.07421671 0.060479414 0.10693464 -0.028968398 0.04274716 -0.0021234944 -0.08397695 0.06494339
0.006642804 0.04858452 0.008323604 0.05153981 0.038690027 0.012143746 0.033330362 -0.053584184
-0.08793328 0.07164202 0.006365531 -0.049284972 -0.034805167 0.044229254 0.05399797 -0.09147957
0.05416034 0.058966603 -0.048227277 -0.022382058 -0.042877313 -0.027658248 -0.0659766 0.07870032
-0.05527719 0.04863083 0.08142897 0.07859977 0.068684176 0.016184565 -0.10924173 0.073710956
0.0003687007 0.014027534 0.0034468018 0.0802562 0.02315441 -0.0836758 0.07041703 0.10696122
-0.0694605 0.07322175 -0.048079733 -0.02266837 -0.04025309 -0.08708407 -0.00033206854 0.04141794
0.035752825 0.054959998 0.017005242 0.0016421265 -0.04317899 0.08334337 -0.077201225 0.02240066
-0.04735177 -0.0018999617 0.045455042 0.039488453 -0.016534958 -0.040766645 0.011898956 -0.007599487
-0.016852384 -0.010843959 -0.03161386 -0.049622614 0.06815459 -0.023268975 -0.08220306 -0.005762372
-0.059944864 -0.045028895 -0.063093774 -0.08959601 -0.048108764 -0.0053869314 0.036042105 -0.05100965
-0.08273419 0.046414055 0.014662797 -0.06690995 -0.060343888 0.041394044 0.026236406 -0.013222899
0.078086056 -0.009695437 0.0148424 -0.02231046 -0.059298288 -0.018892631 -0.0058953534 0.030514365
-0.016322926 0.056180254 0.033046536 0.088490315 -0.06794282 0.018502844 -0.027207438 -0.065408476
0.09002478 -0.044571303 0.10965619 0.042175956 -0.041431073 0.0038247306 0.07908755 0.0056649866
00000000: 6fb7 703d 8f05 37bd 1541 033d d840 4c3d
00000010: 99a1 923c fccf d03c ba0f 013b c5d5 8ebc
00000020: 6728 2f3d 6a8e 1d3d f4db 693d 3c70 52bd
00000030: 4824 373d 2cd8 523d 157d eb3c 9fe3 d23c
00000040: 1bd7 12bd 597c 47bc e285 9bbd c326 07bd
00000050: d116 93bd dd48 40bd b131 473d 7081 fcbc
00000060: 1954 9bbd 4e16 c23c 164d e6bc f6a3 603c
00000070: 3e39 02bd a4fb abbb 57b7 2fbd f0b1 8e3d
00000080: e28d 9a3d 15af 56bd d08f dfbb d1b5 50bd
00000090: 3ebc c5bd 9f4c efbc d8e2 13ba b7c2 3ebb
000000a0: 285c 2cbd 3e1a 3e3d 8060 f0ba de27 a6bd
000000b0: ebb0 033d 71a2 9e3d 1771 9e3c 6c9e 3a3d
000000c0: c1f6 3e3c aab4 853c ab06 b43d e009 983d
000000d0: 0d66 cd3b 1679 283d d824 0d3d 8a0a d5bc
000000e0: 797b 72bd 9fb9 9f3d b269 aa3c cbe9 883c
000000f0: b7e7 fdbc aebd 85bd 36bd 233c 9086 86bd
00000100: fc6d 45bc 3d76 b8bc 4851 f0bc 4626 2d3d
00000110: 1526 233d e13d 6cbd 7c78 363d 65ad 43bb
00000120: c11c ea3a 5e64 9dbd 7f2d 4abd e16a 5bbd
00000130: ef97 5dbd 7efe 8c3d 6514 923d 2934 d2bd
00000140: 0c62 993c 28d9 0ebd 7df8 973d e626 9abb
00000150: 698b ce3d 97b9 b93c cd4f 903c 0dca 08bc
00000160: b28b 0a3d 1f9e feba a178 c43c 9115 a2bd
00000170: 3b3f 8bbd 69c1 51bd 4d56 fcbb 7a7c 603b
00000180: 7b1f 8cbd 9c57 323d 2fb3 83bd fdc3 893d
00000190: 0719 6c3d 7f88 023d 595e 403d e7a6 b2bd
000001a0: 2c7d 8d3d cbaf 9ebb c6d0 64bd d0d3 90bd
000001b0: 72e3 64bd cc8a 8ebd e1f3 54bc 24aa f3bc
000001c0: ad78 debc 87e4 503d 05df cabc feae 2fbb
000001d0: 5662 61bc 5c76 d1bc ee02 823c e789 d63b
000001e0: a1c2 3ebd b60b 70bd 593c a23d 34db 6f3d
000001f0: 258e ed3c 4ea7 b43c 6d8e 9abd ef7a 8b3d
00000200: 5859 95bd a395 9fbc 1e31 f8bc b61f 08bd
00000210: 44a6 babc c52c b7bd de9b 3d3d 90e7 a6bd
00000220: eefe 973d 43b9 773d 8c00 db3d 224f edbc
00000230: a517 2f3d 532a 0bbb 1bfc abbd 0a01 853d
00000240: e1ab d93b 9000 473d ba5f 083c 681b 533d
00000250: 6f79 1e3d 90f6 463c 6b85 083d 177b 5bbd
00000260: 5d16 b4bd 0db9 923d f295 d03b 0adf 49bd
00000270: dd8f 0ebd bc29 353d fa2c 5d3d a459 bbbd
00000280: 3cd7 5d3d f786 713d f789 45bd 945a b7bc
00000290: 1fa0 2fbd 8d93 e2bc bd1e 87bd a22d a13d
000002a0: 566a 62bd 1f31 473d 3bc4 a63d ebf8 a03d
000002b0: 4aaa 8c3d 7e95 843c 21ba dfbd c5f5 963d
000002c0: 2c4e c139 bed3 653c bde3 613b 5d5d a43d
000002d0: 51ae bd3c 385e abbd ce36 903d 7c0e db3d
000002e0: 4e41 8ebd 49f5 953d 41ef 44bd 04b3 b9bc
000002f0: 6de0 24bd 2259 b2bd 7c19 aeb9 dca5 293d
00000300: 8e71 123d bc1d 613d 944e 8b3c 9f3c d73a
00000310: 74dc 30bd eeaf aa3d ad1b 9ebd 9781 b73c
00000320: eef3 41bd 2308 f9ba 112f 3a3d a5be 213d
00000330: 5274 87bc edfa 26bd d7f3 423c 1e05 f9bb
00000340: 030e 8abc dcaa 31bc 897d 01bd 1541 4bbd
00000350: a294 8b3d 949e bebc 145a a8bd 48d2 bcbb
00000360: bf88 75bd 3870 38bd 4f37 81bd 1d7e b7bd
00000370: b20d 45bd db84 b0bb e3a0 133d 7fef 50bd
00000380: 8b70 a9bd aa1c 3e3d 3a3c 703c 1508 89bd
00000390: 272b 77bd cd8c 293d bbed d63c dca4 58bc
000003a0: 95eb 9f3d 9cd9 1ebc 8a2d 733c 6dc4 b6bc
000003b0: c3e2 72bd b8c4 9abc cf2d c1bb 43f9 f93c
000003c0: a8b7 85bc 441d 663d ce5b 073d 693a b53d
000003d0: 9b25 8bbd 4793 973c 22e2 debc e1f4 85bd
000003e0: e95e b83d 6690 36bd 6d93 e03d b2c0 2c3d
000003f0: a1b3 29bd 55a8 7a3b a7f8 a13d 5aa1 b93b

conv3.0.bias f4 [8]
-5.168631e-07 -2.2140118e-06 -1.6446457e-06 -1.2914849e-06 -5.652977e-07 -6.1861156e-06 -4.3511222e-06 -9.0139184e-07
00000000: 90be 0ab5 6f94 14b6 99bd dcb5 1557 adb5
00000010: f6be 17b5 5492 cfb6 dbff 91b6 2df7 71b5

conv3.1.weight f4 [8]
0.9396785 0.94839567 0.94105977 0.9479032 0.9137352 0.91651326 0.9590115 0.9410303
00000000: c58e 703f 0fca 723f 4be9 703f c9a9 723f
00000010: 8dea 693f 9da0 6a3f c781 753f 5de7 703f

conv3.1.bias f4 [8]
-0.03663018 -0.025803244 -0.018269898 0.013353812 -0.022532037 -0.006659773 -0.04342956 0.0126501955
00000000: 8709 16bd 5361 d3bc c1aa 95bc f2c9 5a3c
00000010: 1b95 b8bc 3a3a dabb 32e3 31bd c442 4f3c

conv3.1.running_mean f4 [8]
-0.010044832 -0.045844536 -0.0756046 0.33155698 -0.0992049 0.08978849 -0.11074145 -0.20944986
00000000: 1493 24bc 7bc7 3bbd 96d6 9abd d6c1 a93e
00000010: f02b cbbd 07e3 b73d 6acc e2bd 067a 56be

conv3.1.running_var f4 [8]
0.15398325 0.12503222 0.15495071 0.11786874 0.21817213 0.19137503 0.10975891 0.13951258
00000000: c9ad 1d3e 7208 003e 66ab 1e3e 2a65 f13d
00000010: 8468 5f3e d1f7 433e 48c9 e03d 63dc 0e3e

conv4.0.weight f4 [4, 8, 3, 3]
-0.0464579 -0.08746999 0.032802094 -0.12711036 0.044691037 0.029729089 -0.034727078 -0.031579155
-0.13639349 -0.13289975 0.09235037 -0.10136643 -0.113854714 -0.13571256 0.08280333 0.073767595
-0.0047929552 0.10662405 -0.070141405 0.039754394 -0.0022757428 0.058386426 0.009096447 -0.09883711
0.05135603 0.06963622 0.002141818 0.07402226 0.03911507 0.091363996 0.10910955 0.1053776
-0.029646086 0.011345151 -0.014075697 -0.027609544 0.083030365 -0.084887356 0.057577223 -0.028470116
0.037213616 0.010558318 0.0897174 0.079262465 0.09443369 0.027458128 0.034142055 0.040335696
0.027512906 -0.016906299 -0.027436292 -0.004707823 0.10748899 -0.081783235 0.017082466 -0.045079473
0.075833425 -0.03531118 -0.066197336 0.08431028 0.05748574 -0.031703223 0.107932135 0.09037268
0.08751184 0.020647412 0.08752261 -0.025416767 0.075934716 -0.023531184 0.09981295 -0.099770896
-0.029283915 0.114823155 -0.116522536 0.083119944 -0.061974995 -0.05600263 -0.015216551 -0.019417195
-0.02595563 0.027513772 0.062034715 0.035417214 0.048534293 0.0752457 -0.07718251 0.045333706
0.10271734 -0.039160203 -0.051324416 -0.014579319 -0.07935775 0.037428487 -0.121754825 0.08495586
0.08241211 -0.0924349 -0.08062866 -0.048292264 -0.0034228242 0.060380798 -0.0078592645 0.128297
-0.043334585 0.0333923 -0.13110505 -0.053362783 -0.037931666 -0.04593071 -0.054931577 0.05818808
0.017705796 0.08899435 -0.068678774 -0.042869326 -0.02801428 0.052420706 0.037908725 -0.02494838
-0.098275594 0.027223622 0.025629621 -0.019597448 -0.13559178 0.07466349 -0.07618812 0.0074628107
-0.011313391 -0.06761436 0.06521811 -0.019783266 -0.098520145 -0.028443633 0.089096725 -0.012178303
0.053139742 -0.041383024 0.07869149 -0.011024748 -0.07277054 0.12730154 -0.062232736 -0.1321896
0.0002311801 -0.10232454 -0.102425806 -0.10359987 0.042057086 -0.030377861 -0.13130464 0.07386234
-0.050267745 -0.06525556 0.019865783 -0.1274349 0.022027608 0.059056323 0.061017618 -0.019153474
-0.12496462 0.10128572 -0.1009856 0.043525904 0.0067090094 -0.011458635 0.091075845 0.08018544
-0.009929539 0.11288128 0.009209328 0.029290026 0.07341891 -0.04516967 0.06364812 -0.0909467
0.07277545 -0.04900409 0.0672737 0.13581344 -0.013955885 -0.056091696 -0.05526088 0.124265485
-0.042903576 -0.113054834 -0.06326141 0.051031284 0.07278368 0.12758699 0.09135527 0.08736078
0.022525154 -0.027167898 0.047766656 -0.0045667486 -0.077397615 0.10049016 0.016071374 -0.10156288
0.09712287 0.042792205 -0.07282683 0.042368077 0.078636326 0.09054579 -0.011120132 -0.10244119
0.08002427 -0.05627377 -0.07343704 -0.041036908 0.03426791 -0.00087679934 -0.071585 -0.041469425
-0.009758808 0.016241727 0.0132627515 -0.010354125 0.023973035 -0.16237986 -0.01658152 -0.043544
0.074056074 0.047882054 -0.092731416 -0.11928491 -0.032870207 -0.06849471 0.019087862 -0.003109283
0.009755232 0.023970913 0.10370565 0.09467708 0.012058233 0.062254637 0.00060978375 0.079971634
0.092112646 0.050284006 0.09943565 -0.089228556 -0.10347353 -0.09736394 0.09523945 0.03243217
-0.08910025 0.03437877 0.0036186597 0.03288482 0.048501737 -0.047961716 0.002653429 0.110177614
00000000: a44a 3ebd 7723 b3bd 7d5b 063d 3829 02be
00000010: f30d 373d 6b8a f33c fb3d 0ebd 2559 01bd
00000020: bcaa 0bbe df16 08be 3122 bd3d 3499 cfbd
00000030: a92c e9bd 3cf8 0abe cb94 a93d 7713 973d
00000040: 390e 9dbb b65d da3d 4ca6 8fbd 81d5 223d
00000050: a124 15bb 9b26 6f3d 4409 153c 1c6b cabd
00000060: b35a 523d 6f9d 8e3d be5d 0c3b fc98 973d
00000070: 2037 203d 0c1d bb3d d474 df3d 36d0 d73d
00000080: 59dc f2bc 03e1 393c c19d 66bc 692d e2bc
00000090: d30b aa3d 6cd9 adbd 18d6 6b3d 293a e9bc
000000a0: 4e6d 183d ccfc 2c3c c2bd b73d 5c54 a23d
000000b0: 7366 c13d deef e03c 8ad8 0b3d 0b37 253d
000000c0: bf62 e13c 147f 8abc 13c2 e0bc 1544 9abb
000000d0: 3023 dc3d f87d a7bd 87f0 8b3c 41a5 38bd
000000e0: 8e4e 9b3d 75a2 10bd 7892 87bd deaa ac3d
000000f0: 2b76 6b3d 3ddb 01bd 860b dd3d 5015 b93d
00000100: 6839 b33d c324 a93c 0e3f b33d d336 d0bc
00000110: a983 9b3d 78c4 c0bc bb6a cc3d af54 ccbd
00000120: d2e4 efbc 6728 eb3d 5ea3 eebd ca3a aa3d
00000130: 7ed9 7dbd 0463 65bd d74e 79bc cf10 9fbc
00000140: e7a0 d4bc 9064 e13c 1d18 7e3d a411 113d
00000150: e5cb 463d 6b1a 9a3d dd11 9ebd d6af 393d
00000160: 785d d23d 7366 20bd 8d39 52bd 19de 6ebc
00000170: 5186 a2bd 9d4e 193d 985a f9bd 57fd ad3d
00000180: aec7 a83d 824e bdbd a420 a5bd 1cce 45bd
00000190: 7651 60bb db51 773d 25c4 00bc 4a60 033e
000001a0: 9b7f 31bd 5dc6 083d 6740 06be ef92 5abd
000001b0: 3c5e 1bbd d721 3cbd efff 60bd a056 6e3d
000001c0: bf0b 913c ab42 b63d 75a7 8cbd bf97 2fbd
000001d0: 347e e5bc 18b7 563d 2e46 1b3d 8c60 ccbc
000001e0: b744 c9bd 1304 df3c 36f5 d13c d48a a0bc
000001f0: 92d8 0abe 2ce9 983d 8408 9cbd 988a f43b
00000200: cd5b 39bc 6679 8abd 1391 853d 8410 a2bc
00000210: eec4 c9bd 9f02 e9bc 5878 b63d 8187 47bc
00000220: 0fa9 593d 3f81 29bd 0129 a13d 25a1 34bc
00000230: b908 95bd 565b 023e c1e7 7ebd b65c 07be
00000240: f068 7239 878f d1bd 9fc4 d1bd 2b2c d4bd
00000250: 0d44 2c3d feda f8bc b974 06be 2345 973d
00000260: 8de5 4dbd b5a4 85bd 91bd a23c 4b7e 02be
00000270: 3e73 b43c 0be5 713d 9ced 793d bfe7 9cbc
00000280: 73ed ffbd e36e cf3d 8ad1 cebd 3848 323d
00000290: 40d7 db3b 00bd 3bbc f985 ba3d 4438 a43d
000002a0: 81af 22bc 4d2e e73d b9e2 163c a3f1 ef3c
000002b0: a75c 963d d503 39bd f259 823d 4342 babd
000002c0: 4c0b 953d 83b8 48bd cbc6 893d ae12 0b3e
000002d0: 39a7 64bc 68c0 65bd 3c59 62bd e77e fe3d
000002e0: a9bb 2fbd 4b89 e7bd 338f 81bd 2e06 513d
000002f0: 9c0f 953d 2aa6 023e 7918 bb3d 35ea b23d
00000300: ac86 b83c 368f debc f8a6 433d aaa4 95bb
00000310: a482 9ebd c9cd cd3d 1da8 833c 3300 d0bd
00000320: 5be8 c63d e146 2f3d 3c26 95bd 268a 2d3d
00000330: 150c a13d 1270 b93d 3731 36bc b0cc d1bd
00000340: c4e3 a33d 537f 66bd 2966 96bd 5116 28bd
00000350: 825c 0c3d 02d9 65ba 289b 92bd d8db 29bd
00000360: 68e3 1fbc 5f0d 853c 034c 593c 59a4 29bc
00000370: 1963 c43c e846 26be f8d5 87bc 315b 32bd
00000380: b6aa 973d f91f 443d f8e9 bdbd a64b f4bd
00000390: e9a2 06bd f446 8cbd 265e 9c3c 1dc5 4bbb
000003a0: 69d4 1f3c a65e c43c a163 d43d 0fe6 c13d
000003b0: e58f 453c b8fe 7e3d e5d9 1f3a 2bc8 a33d
000003c0: 8ea5 bc3d 9af6 4d3d eba4 cb3d 76bd b6bd
000003d0: eee9 d3bd bf66 c7bd e70c c33d 98d7 043d
000003e0: 317a b6bd c1d0 0c3d 0927 6d3b 3cb2 063d
000003f0: c2a9 463d 8173 44bd 27e5 2d3b cda4 e13d

conv4.0.bias f4 [4]
8.307175e-07 5.2960645e-06 -6.7447914e-08 -4.083988e-06
00000000: 79fe 5e35 d9b4 b136 e2d7 90b3 3109 89b6

conv4.1.weight f4 [4]
0.9603749 0.98209465 0.90967804 0.9425174
00000000: 21db 753f 8e6a 7b3f a9e0 683f d248 713f

conv4.1.bias f4 [4]
-0.07189505 0.04274878 -0.010984713 0.03935668
00000000: b63d 93bd 5819 2f3d 3af9 33bc 7834 213d

conv4.1.running_mean f4 [4]
0.3308699 -0.18546697 0.06337212 -0.08390975
00000000: c867 a93e 0eeb 3dbe 3ec9 813d e0d8 abbd

conv4.1.running_var f4 [4]
0.09982436 0.047848728 0.22935879 0.069299266
00000000: b770 cc3d 07fd 433d 08dd 6a3e c6ec 8d3d

fc1.0.weight f4 [42, 84]
-0.06393168 0.03937172 0.01293347 -0.009512303 0.033942502 -0.0038989654 -0.08655698 0.08187412
0.013550989 0.021317435 -0.042329453 0.065468244 0.04374575 -0.013201176 0.01532378 0.073184125
0.016232884 0.004382444 -0.0123420805 -0.11638716 -0.16230483 -0.01654306 -0.06632174 -0.029177269
-0.014900476 -0.03359513 -0.07862065 -0.017630938 -0.089705035 -0.025468942 -0.15644139 -0.08237949
-0.08155226 -0.056041915 0.027009984 -0.0002623878 -0.0649999 -0.008119113 0.09842656 0.09165745
0.044405054 9.676646e-05 -0.0111787515 0.009078857 -0.05750984 -0.086598255 -0.06784131 0.04287321
0.027331134 0.040571585 -0.060099363 0.0069784103 -0.07839543 0.041483093 -0.0190878 -0.064447306
0.00644751 0.022125173 0.031487703 -0.0008691914 0.056564186 0.04183229 -0.024525046 -0.053085
-0.027416859 0.059995856 -0.029622192 -0.01875443 -0.0062842844 -0.0035289759 -0.017573716 -0.045052234
-0.012854321 0.075242706 -0.05623764 -0.05093167 0.014591232 0.061866667 -0.033984203 0.021994662
0.043156218 -0.046396684 0.008572122 0.031396106 0.05433894 0.009508951 0.056296833 -0.031577006
0.11531808 0.03672482 -0.03561098 -0.053821534 0.0225896 0.0048814546 -0.04866324 0.087893754
0.1245228 -0.059933886 -0.03694793 -0.018500313 -0.0145197045 -0.059462454 -0.017069545 -0.08180387
0.07594855 -0.1197833 0.04963666 -0.100830436 -0.014772205 0.03722054 0.009359322 0.016028963
0.04705244 0.05561841 -0.0007135761 0.023478298 0.022754723 -0.03327385 -0.00035489726 0.010888757
-0.01586989 0.06070942 -0.025350379 0.09035822 0.06670612 0.06639052 -0.0701659 0.012875099
0.093201414 0.09932934 0.02381544 -0.034427367 0.04453613 0.10655262 -0.07854074 0.054602716
0.019821914 -0.022807647 -0.075187154 0.03460076 0.01662501 0.08794827 0.007169373 -0.012024591
-0.027746094 0.007194478 0.0119386995 0.050502285 0.08820219 -0.019025877 -0.09194467 0.07095644
-0.045516744 -0.10284753 -0.057872213 0.04599329 0.04595048 0.0019492356 -0.0025143714 -0.035016254
0.05391693 -0.031739447 0.024900278 0.0057026176 0.012418375 -0.104198635 -0.068526104 0.015784219
0.012449248 -0.014140103 -0.03250541 -0.023887727 -0.06913217 0.094842315 0.023539769 -0.010510253
-0.07291657 0.061881024 -0.009118682 0.062392555 0.025941987 -0.033198472 -0.03339557 -0.012165732
-0.06959121 0.13377228 0.010110345 -0.022578292 0.019525737 0.10134255 0.06322067 -0.040394995
-0.03854745 0.048896674 -0.07913168 0.021702189 0.0076729557 0.015659716 -0.013438665 -0.045612577
-0.06339707 0.021754699 -0.0065341834 -0.011695268 0.042012252 -0.039536636 -0.0055977292 0.0024105147
0.082779594 -0.024206031 0.031034669 -0.04937668 0.017195588 0.0024731979 -0.05449996 -0.038347438
-0.0080050165 0.066922165 0.04223619 -0.057697106 0.04791269 0.025390694 0.022222707 -0.023413807
-0.009355909 0.08299859 -0.02006875 0.043938853 0.04164979 -0.052936986 -0.09644819 0.051631115
0.11412711 -0.04702766 0.025022915 -0.028668111 0.003631462 -0.013203855 0.044647355 -0.055957917
0.0063665174 0.045800157 0.005893068 -0.08506984 0.052517626 0.09443302 -0.007722239 -0.10584998
-0.04379128 -0.083483316 -0.090201534 0.089804634 -0.057702888 -0.059162315 0.04781013 0.004654715
00000000: 9dee 82bd 3e44 213d e8e6 533c 7ed9 1bbc
00000010: 4b07 0b3d c985 7fbb c944 b1bd 9ead a73d
00000020: f804 5e3c e7a1 ae3c a661 2dbd 3714 863d
00000030: be2e 333d bf49 58bc 9710 7b3c 8fe1 953d
00000040: d3fa 843c 9b9a 8f3b 7036 4abc 645c eebd
00000050: 3d33 26be 5085 87bc b1d3 87bd 2b05 efbc
00000060: 2021 74bc 0c9b 09bd dd03 a1bd c26e 90bc
00000070: 46b7 b7bd 3ea4 d0bc 2c32 20be 94b6 a8bd
00000080: df04 a7bd 358c 65bd 0b44 dd3c 1891 89b9
00000090: ab1e 85bd 0706 05bc dd93 c93d e7b6 bb3d
000000a0: 13e2 353d 19ef ca38 1527 37bc 7cbf 143c
000000b0: 708f 6bbd 6d5a b1bd 62f0 8abd d29b 2f3d
000000c0: 8be5 df3c 642e 263d c02a 76bd 26ab e43b
000000d0: c98d a0bd 2dea 293d 055e 9cbc f3fc 83bd
000000e0: a245 d33b da3f b53c 40f9 003d 73da 63ba
000000f0: d9af 673d 5658 2b3d c0e8 c8bc a86f 59bd
00000100: 5299 e0bc 37be 753d 3daa f2bc e4a2 99bc
00000110: 66ec cdbb 6446 67bb c1f6 8fbc b188 38bd
00000120: ee9a 52bc d918 9a3d 7159 66bd ba9d 50bd
00000130: 1010 6f3c e767 7d3d 0533 0bbd 262e b43c
00000140: 93c4 303d 730a 3ebd 1672 0c3c 3499 003d
00000150: 8292 5e3d 6ecb 1b3c 8297 663d e456 01bd
00000160: e32b ec3d c46c 163d d2dc 11bd f873 5cbd
00000170: d30d b93c 9cf4 9f3b 1b53 47bd a401 b43d
00000180: cf05 ff3d 3c7d 75bd b656 17bd f88d 97bc
00000190: 0ee4 6dbc e78e 73bd 6ed5 8bbc ca88 a7bd
000001a0: ea8a 9b3d f250 f5bd cf4f 4b3d 3080 cebd
000001b0: 1e07 72bc 9174 183d d757 193c 2c4f 833c
000001c0: 0fba 403d 21d0 633d 480f 3bba 8f55 c03c
000001d0: 1d68 ba3c 294a 08bd 8111 bab9 c266 323c
000001e0: 9201 82bc 71aa 783d 99ab cfbc bb0d b93d
000001f0: 389d 883d c1f7 873d 24b3 8fbd 14f2 523c
00000200: 62e0 be3d 2e6d cb3d 9918 c33c b603 0dbd
00000210: 846b 363d 4338 da3d f8d9 a0bd 19a7 5f3d
00000220: 9161 a23c 1ad7 babc b9fb 99bd 87b9 0d3d
00000230: 2c31 883c 391e b43d 0fed ea3b ca02 45bc
00000240: c74b e3bc a8bf eb3b 899a 433c 7cdb 4e3d
00000250: 5aa3 b43d 28dc 9bbc 7d4d bcbd 9c51 913d
00000260: c46f 3abd baa1 d2bd 6a0b 6dbd 7663 3c3d
00000270: 9236 3c3d 7e7d ff3a 27c8 24bb 346d 0fbd
00000280: 00d8 5c3d 3901 02bd abfb cb3c 06dd ba3b
00000290: 7176 4b3c 1866 d5bd 6a57 8cbd e84d 813c
000002a0: eef7 4b3c e4ab 67bc 6524 05bd 32b0 c3bc
000002b0: 2b95 8dbd b03c c23d 79d6 c03c 3233 2cbc
000002c0: 4855 95bd f576 7d3d 8666 15bc 568f 7f3d
000002d0: 4a84 d43c 1ffb 07bd cbc9 08bd c752 47bc
000002e0: d685 8ebd 9afb 083e dca5 253c 1cf6 b8bc
000002f0: 70f4 9f3c af8c cf3d d779 813d 3975 25bd
00000300: eee3 1dbd e147 483d ca0f a2bd cac8 b13c
00000310: 6b6d fb3b ce48 803c d92d 5cbc 41d4 3abd
00000320: 53d6 81bd e936 b23c b41c d6bb 829d 3fbc
00000330: 0a15 2c3d 2bf1 21bd 286d b7bb baf9 1d3b
00000340: 5988 a93d ba4b c6bc 6b3c fe3c 343f 4abd
00000350: c3dd 8c3c 6015 223b 5a3b 5fbd 3412 1dbd
00000360: 7927 03bc 7d0e 893d dbff 2c3d cd53 6cbd
00000370: 1940 443d 2500 d03c 650c b63c 50ce bfbc
00000380: 8749 19bc 2afb a93d 3867 a4bc 3af9 333d
00000390: f898 2a3d 74d4 58bd a186 c5bd 267b 533d
000003a0: 79bb e93d 13a0 40bd dbfc cc3c 63d9 eabc
000003b0: d3fd 6d3b fb54 58bc 25e0 363d 2134 65bd
000003c0: 389e d03b f298 3b3d a31a c13b 1939 aebd
000003d0: b91c 573d 1966 c13d d60a fdbb e0c7 d8bd
000003e0: 7c5e 33bd 4df9 aabd 95bb b8bd 7eeb b73d
000003f0: dd59 6cbd 2f54 72bd 8ed4 433d 9486 983b

fc1.0.bias f4 [42]
-8.587884e-08 -2.4168953e-08 3.3699273e-08 -1.15501315e-07 1.0757452e-08 2.6229568e-08 -5.2130923e-07 -1.5214443e-08
-1.0993688e-08 -5.6040793e-08 -2.0488734e-08 -1.429728e-07 5.485365e-08 2.1764675e-08 -1.37771625e-08 2.4485912e-08
-4.418056e-08 9.151988e-08 -1.01931e-07 -1.02241884e-07 -1.9981284e-08 -4.2331725e-09 1.6823492e-07 -4.546432e-08
6.8458476e-08 3.318643e-10 -8.479906e-08 -1.3675131e-07 3.4107532e-07 3.9570507e-09 9.63205e-09 -7.017678e-09
-1.9933077e-09 2.7832689e-08 3.1210825e-09 1.3249695e-07 8.655058e-08 3.6937358e-08 -3.029568e-07 -8.796591e-09
-3.779962e-08 -3.797233e-08
00000000: 646c b8b3 179c cfb2 bebc 1033 8509 f8b3
00000010: c6cf 3832 6e4f e132 19f0 0bb5 eab0 82b2
00000020: c0de 3cb2 81b1 70b3 34ff afb2 1084 19b4
00000030: 3a98 6b33 07f5 ba32 9ab0 6cb2 1755 d232
00000040: 0ac1 3db3 9689 c433 29e5 dab3 1290 dbb3
00000050: 4fa3 abb2 6173 91b1 10a4 3434 8c44 43b3
00000060: 7203 9333 c071 b62f c71a b6b3 ead5 12b4
00000070: 091d b734 96f6 8731 347a 2532 2620 f1b1
00000080: a4fa 08b1 bb14 ef32 aa7a 5631 7c44 0e34
00000090: afdd b933 0ea5 1e33 11a6 a2b4 d11f 17b2
000000a0: 1f59 22b3 0517 23b3

fc1.1.weight f4 [42]
0.7651481 0.8426535 0.72271556 0.7952753 0.7146925 0.766528 0.81902945 0.74000394
0.7518455 0.7132261 0.7740545 0.9581218 0.77084786 0.8429485 0.73939574 0.7168543
0.80474854 0.8182451 0.788888 0.6944706 0.7391854 0.7421829 0.841892 0.87563825
0.7760338 0.7462637 0.72998685 0.8676943 0.82304865 0.82059747 0.681477 0.8221566
0.6889969 0.7541238 0.69214356 0.8778389 0.8331441 0.756362 0.961938 0.7150722
0.793576 0.77718747
00000000: bfe0 433f 24b8 573f e303 393f 2997 4b3f
00000010: 16f6 363f 2e3b 443f eaab 513f e670 3d3f
00000020: f278 403f fc95 363f 7028 463f 7847 753f
00000030: 4956 453f 79cb 573f 0a49 3d3f c383 373f
00000040: 0004 4e3f 8378 513f 90f4 493f d3c8 313f
00000050: 413b 3d3f b3ff 3d3f 3c86 573f d429 603f
00000060: 27aa 463f 230b 3f3f 6be0 3a3f 3721 5e3f
00000070: 51b3 523f ad12 523f 4775 2e3f db78 523f
00000080: 1a62 303f 420e 413f 5230 313f 0dba 603f
00000090: ef48 553f f1a0 413f 9241 763f f90e 373f
000000a0: cc27 4b3f c2f5 463f

fc1.1.bias f4 [42]
-0.10281378 0.017982086 -0.04742481 -0.06375296 0.051158164 -0.00510607 -0.07484466 0.057207942
-0.04073131 -0.012234595 0.1411342 0.0007319932 -0.08105779 0.045291968 -0.06544362 -0.063978314
-0.06170787 -0.10593263 -0.09262026 -0.001051587 0.029852439 0.06006906 -0.059630778 -0.016322624
-0.031317122 -0.053584117 -0.033378985 0.044622626 0.022442343 -0.09539164 0.012285376 -0.0036823445
-0.043123614 -0.052170556 -0.02786604 0.030432642 0.02504558 -0.044539336 0.06492617 -0.055818327
-0.0869815 -0.054842368
00000000: 0890 d2bd 2b4f 933c 8440 42bd e990 82bd
00000010: 398b 513d d250 a7bb 2848 99bd e052 6a3d
00000020: e0d5 26bd 9c73 48bc 7c85 103e 3be3 3f3a
00000030: a001 a6bd 1284 393d 4e07 86bd 1007 83bd
00000040: 64c1 7cbd 35f3 d8bd b1af bdbd 68d5 89ba
00000050: 1a8d f43c fa0a 763d 673f 74bd 06b7 85bc
00000060: 6246 00bd 057b 5bbd 67b8 08bd 37c6 363d
00000070: 01d9 b73c b15c c3bd 9a48 493c 7d53 71bb
00000080: 63a2 30bd cbb0 55bd 5247 e4bc e04d f93c
00000090: 632c cd3c e16e 36bd 03f8 843d c2a1 64bd
000000a0: 5b23 b2bd 64a2 60bd

fc1.1.running_mean f4 [42]
-1.1980876 0.6032286 -0.24690096 -0.9939746 -0.34535635 0.37275696 0.0677697 -1.1278996
0.20467985 -0.44777885 0.7603944 -0.51803213 0.84737754 0.004474197 -0.15960056 0.42309594
-1.0417178 -0.29170933 0.46166077 -1.1463102 -0.07875894 0.88193595 -0.27460167 -0.4909426
-0.2538376 -0.7728113 0.54294086 -0.13632089 -1.4042048 -0.11959669 -0.4352215 -0.3861627
-0.033674035 0.89081585 -0.33986095 -1.7163806 -0.21093139 0.21186015 -0.22818057 0.40055412
0.88621485 0.16688816
00000000: ef5a 99bf 316d 1a3f 9bd3 7cbe 1f75 7ebf
00000010: 8cd2 b0be 00da be3e d7ca 8a3d 045f 90bf
00000020: 9897 513e 4543 e5be 35a9 423f c19d 04bf
00000030: bced 583f 499c 923b 546e 23be 08a0 d83e
00000040: 0257 85bf ed5a 95be cd5e ec3e 4bba 92bf
00000050: 5e4c a1bd 8ec6 613f 9798 8cbe d45c fbbe
00000060: 00f7 81be f6d6 45bf 2cfe 0a3f b497 0bbe
00000070: fcbc b3bf 1cef f4bd 5ad5 debe 1eb7 c5be
00000080: c9ed 09bd 820c 643f 4102 aebe 5cb2 dbbf
00000090: 66fe 57be def1 583e 2ba8 69be 6e15 cd3e
000000a0: fade 623f bbe4 2a3e

fc1.1.running_var f4 [42]
0.2208872 0.22776403 0.14155407 0.14451052 0.34169915 0.30504805 0.18392028 0.19864208
0.1614188 0.31420785 0.31939283 0.19203243 0.19060479 0.19794191 0.23171544 0.19222596
0.19372395 0.112534836 0.18263279 0.19777504 0.09054667 0.24374871 0.16011272 0.36798203
0.110215165 0.2162452 0.17655009 0.21510041 0.277229 0.18373507 0.24424657 0.3453952
0.19744144 0.193916 0.31638423 0.2631756 0.21180576 0.16975167 0.2140745 0.20440918
0.2077044 0.3008767
00000000: 4130 623e f93a 693e 8df3 103e 91fa 133e
00000010: 31f3 ae3e 422f 9c3e 9955 3c3e d468 4b3e
00000020: f84a 253e dadf a03e 7587 a33e 26a4 443e
00000030: e72d 433e 49b1 4a3e d046 6d3e e2d6 443e
00000040: 925f 463e aa78 e63d 1704 3b3e 8a85 4a3e
00000050: 8870 b93d 4399 793e 97f4 233e 2468 bc3e
00000060: 7db8 e13d 626f 5d3e 8cc9 343e 4843 5c3e
00000070: f6f0 8d3e 0c25 3c3e c61b 7a3e a4d7 b03e
00000080: 172e 4a3e ea91 463e 1dfd a13e f4be 863e
00000090: 9ce3 583e 62d3 2d3e 5936 5b3e a450 513e
000000a0: 76b0 543e 830c 9a3e
