Models/stat_dict_MultiLabel_0.95.pth (torch, 714175 bytes, 10 tensors)

conv1.0.weight f4 [32, 1, 2, 2]
00000000: dd10 debe 2a18 3bbe 95d6 103d 2449 aa3e
00000010: 5f7f 063f f55f 08bf 582f b4be 09f0 063f
00000020: 4fb5 25bf d49c f13d b6ce db3e baea a43e
00000030: 1650 23bf 12eb 063f b8b0 cdbe 5361 e43e
00000040: 9871 32be f039 46bd c8c8 6ebe 08ec 583e
00000050: fc4d e73e ddd8 18bd c39b 0abf a295 15bf
00000060: 50cb 23bf 69e8 523e 876c 363e a0a7 82bd
00000070: 13e2 efbe db76 003f c4f3 883e 9120 903e
00000080: 12f5 eebe 8337 083f b92b 3ebe c339 0e3f
00000090: 9e41 d6be f0b0 eebe 00d0 9839 80b8 b03c
000000a0: 358f 02bf 5bf1 d23e a771 563b 9ad2 5cbe
000000b0: 80e7 163f 786f 2fbf 9cbb 50bd 1068 d63e
000000c0: 92d3 df3e c898 8a3e ac66 c2bd 6358 c4be
000000d0: 2dd4 943e c7a0 423e d786 073f a166 bc3e
000000e0: 743a 553e e1a6 d63d fdc7 4b3e 9809 bfbd
000000f0: c8ec f6bd 394a 063e b9b7 abbc 7c78 78be
00000100: 9f95 36bf b42a 0f3f 08aa 7abd 150c 9e3e
00000110: 652b 873e ffe7 23bf bb83 093e f19c b63e
00000120: d46f 32be 4073 f7bd 24b9 783c 976c d03c
00000130: db42 893e 4e16 de3e 359b 7d3e 9574 cabe
00000140: 89e5 16bf 1171 253e 9360 a43e 20a3 0abe
00000150: e9f1 013f 4a0c e2be 79bc ab3d b656 073e
00000160: 8495 73be 79d5 c6bd 85ec c23c 87d0 9cbe
00000170: 94f5 0e3f b3c1 aabe 36f1 84bc 085b 9e3e
00000180: c5a5 10be ff49 c23a 9f00 933e 92c2 953e
00000190: 65bf de3e 7d2f f7bd 2ae3 e4be 8ef0 0dbf
000001a0: 90b1 643e aa1b d6be f319 503d 661c 92be
000001b0: ebff 8e3e 05b9 a0be 5005 67be c416 ff3e
000001c0: e78e cebe 31de 0fbe 1a16 ba3e 260a 193e
000001d0: b81a 9dbe d822 d5bd a809 5dbe d8bc cfbd
000001e0: e9d1 463d d3ec fb3b a1d3 113f 1e68 1bbf
000001f0: 9003 2a3e 367b eabe f015 403e bc0f 6cbe
-0.4337224 -0.18270937 0.03536089 0.33258927 0.525381 -0.5327142 -0.3519237 0.52710015
-0.6472978 0.11797491 0.42931145 0.32210332 -0.63794076 0.5270244 -0.40173888 0.44605502
-0.17426145 -0.048395097 -0.2331878 0.21183789 0.45176685 -0.037316192 -0.54143924 -0.58431447
-0.63982105 0.2059647 0.17814837 -0.06379628 -0.46852168 0.5018136 0.26748478 0.28149846
-0.4667135 0.53209704 -0.18571366 0.5555689 -0.41846937 -0.46619368 0.0002914667 0.021572351
-0.50999767 0.41199765 0.003272155 -0.21564713 0.5894699 -0.6852946 -0.05096017 0.41876268
0.43716103 0.27069688 -0.09492239 -0.38348684 0.29068127 0.19006644 0.52940124 0.3679705
0.2082308 0.104810484 0.19900508 -0.09328002 -0.12056881 0.13114251 -0.02096163 -0.24264711
-0.71322054 0.55924535 -0.06119731 0.30868593 0.26400295 -0.6402587 0.13429157 0.35666612
-0.17425472 -0.12082529 0.01518086 0.025442405 0.2680882 0.43376392 0.24766238 -0.3954207
-0.5894399 0.16156413 0.3210493 -0.1353879 0.5075975 -0.4415 0.08385558 0.13216671
-0.23787504 -0.097086854 0.023794422 -0.30627844 0.5584347 -0.33350906 -0.0162283 0.30928826
-0.14125736 0.0014823078 0.2871141 0.29250008 0.43505397 -0.120696045 -0.44704562 -0.5544518
0.2233336 -0.4181798 0.050805997 -0.2853729 0.27929625 -0.3139116 -0.2256062 0.49822056
-0.403434 -0.14049603 0.36344987 0.14945278 -0.30684447 -0.104070365 -0.21585715 -0.10143441
0.04854003 0.0076881438 0.56963545 -0.60705745 0.16602921 -0.45797127 0.18758368 -0.23052877

conv1.0.bias f4 [32]
00000000: 1c62 b33e ffb0 d3bd a886 abbd 0194 753d
00000010: a649 91be 8a43 debc dbe2 a43e 8d62 d3be
00000020: 58f1 c5be 9a93 9abe d3f8 de3e 877a d13d
00000030: f495 77be 7a14 b6be 1642 d9bb fd01 8cbe
00000040: dbf1 e0bd 658b 013e 1e27 33be 542d 15be
00000050: 707c c43e 4634 db3d 66aa b63e dd1c 7d3b
00000060: fb56 1abe 8168 ec3d 913a e8be 8a10 4ebe
00000070: 7e49 c1bd 40db 5dbc b08a 48bd 90a9 c4be
0.3503579 -0.10336494 -0.08375293 0.0599556 -0.28376502 -0.027131815 0.32204327 -0.41286126
-0.38660693 -0.30190736 0.43549213 0.10228448 -0.24178296 -0.35562497 -0.0066301925 -0.27345267
-0.1098363 0.12650831 -0.17495391 -0.14568073 0.38376188 0.1070333 0.3567688 0.003862194
-0.15072243 0.1154337 -0.45357183 -0.20123497 -0.09437846 -0.013541043 -0.048960388 -0.38410616

conv2.0.weight f4 [16, 32, 2, 2]
00000000: 59a4 32ba 48e9 07be 672d b5bd d16f b53b
00000010: 9f16 4cbc 01f3 29bd af88 d2bd 7469 6dbd
00000020: a3b7 ffbd 2376 27bd a03e 08be b43c 7abd
00000030: ab8b f3bc 5ca2 18be 34bc abbd 3a69 15be
00000040: 876d 83bd b73d 66bd c697 1ebd 4d58 ac3d
00000050: d6d3 c2bc 9c77 a2bd 0bd2 183d fd65 1c3d
00000060: e114 09be 3f9b 5fbb 9d6e a8bc b085 b0bc
00000070: 2117 c5bd b747 0f3d b0ab ef3c 8dcb 013e
00000080: 76a1 15bd a831 5fbd 614a 6c3d 25b6 f1bd
00000090: 5ec6 15bd b23e 97bd d82b 353c 85c0 853d
000000a0: e12e d5bc c191 03be 464d f3bc c1d7 0b3b
000000b0: 0326 9fbd 25c3 fabd 01a2 5bbd e4eb 9cbd
000000c0: 79df dabb 6443 96bd cf16 57bd bc2e d9bd
000000d0: 3931 c7bd 7955 5ebd 51c5 a0bd 214c 523c
000000e0: 3c7a b9bd 22bd f4bd 3634 0cbc cbda 15be
000000f0: afde e53d 4762 083e 027d 153d 6a97 3b3d
00000100: fcc4 90bd 4d2e 2f3d eb4a c83d 4b9c a1bc
00000110: 0be6 b7bd 1398 dcbc 04b7 0fbe b3b4 bbbd
00000120: e4cc ab3c a89e 803d 8d2e 7fbd e453 723d
00000130: d6da 63bd ca57 0b3c b6c0 a53c 256d e5bd
00000140: 4435 5cbd c93e acbd 3145 54bd 64ae d1bd
00000150: 88d9 76bd e5e5 76bd dea1 2ebd 31e8 93bd
00000160: e6bf e6bd 92dd 4fbd c1bf 48bd b34f 023c
00000170: 8664 f4bd 255e 91bd 5bbc 0abd 6b9f 81bc
00000180: b8ae 5bbc eeda 19bd 8252 24bd 1cfc debd
00000190: d205 6bbd 1301 0cbe 604c 97bc 1e3a 0ebe
000001a0: 3971 c43b cb24 3ebd c477 9ebd 8931 2dbd
000001b0: 801e 3ebd f5ed 35bc 8cd1 24bb 8218 233e
000001c0: b5c1 2bbd ea96 85bc 56bb e5bd 546a edbd
000001d0: 28e6 5ebd 0c48 903c 436c 31bd b18e 883d
000001e0: bc06 283c 2879 fcbd 405b 69bd c9c3 85ba
000001f0: 1e71 773d db9c 5fbd 6015 53bc 5888 ea3c
00000200: db41 f6bd 3d43 943c a676 6bbd 7eb5 c2bc
00000210: 1689 2ebe bc5c 473f 4351 0f3f 1421 13be
00000220: 30c3 423e 95fa c1bd 2ad0 a0be 0f5e c33e
00000230: 4cd3 133d 1100 2e3e 1af0 babe 04ab f73e
00000240: c0d9 5d3b 28df 983c 489a 5c3c 152d 843d
00000250: ca1a 53be 111b b63e 2a31 f83d 2d96 92bd
00000260: 527f 063e 902c 52be e073 50be f604 323e
00000270: 74b2 f13e 4424 84bd 5b98 3ebe 852d 8b3f
00000280: 35a4 c23d 376b 963e 1cce a1be 64b1 2f3f
00000290: e023 0d3d 9536 a13d 4e20 663d 9c46 c4bc
000002a0: 0ecb 3d3e 1558 1bbd 885d 56be 36c5 403e
000002b0: 5ac9 bfbe 91b8 8d3e 29a9 a43e 121d dfbe
000002c0: 5114 e03d 401d 133e 9469 cb3d ee02 7f3e
000002d0: ac5b 92bd 0c83 b63a 5fbe a2bc c8cc fcbb
000002e0: a1ab f33c fd88 91bc 06a4 af3d 74d4 2bbc
000002f0: f097 5bbd ab6d b53c b3ce 94bb 3a82 7cbd
00000300: b21d 4dbc b988 963d ebbb aabe f56d 0b3f
00000310: c4cc a2be 63e1 c13d c594 553e ae3f a5be
00000320: 6713 74bd eddd 453c 8ac2 4dbd a7ba d63d
00000330: 0443 5c3e 9ab5 24be f8b7 3cbc 0ee1 9fbd
00000340: b292 663e 05df 38be 358a 8ebe 5f96 213d
00000350: 1fe3 a3be 3ee2 c23d f692 933e b09b 9cbe
00000360: 8f27 043c bdc4 86bd 7132 0cbe 05cf f3bd
00000370: 5574 83be d592 163e 6597 af3d a71a 1dbe
00000380: d6c4 21be 97be f73b b0bf 033d a056 353d
00000390: ca00 a2be 01be ebbc 5b6a 4c3d 4554 4ebe
000003a0: 49e1 f6bd 0b2a 543d 0ea2 8e3d f41e 46bd
000003b0: 0022 7cbe 13cf 093f b668 df3e af9a 83bc
000003c0: 4f96 353e ff47 2bbd f5c3 35bd 5adb 123e
000003d0: 0be9 a4bd 04a4 d03c 09f6 843d ec64 cebc
000003e0: d714 033f 9557 fd3d 7401 7e3a 44aa 5d3f
000003f0: f02f d2bb 58f3 ea3c b057 ab3c e831 3dbd
-0.0006814651 -0.13272583 -0.088465504 0.005537011 -0.012456565 -0.041491512 -0.102799766 -0.057961896
-0.12486198 -0.04088415 -0.1330514 -0.061093047 -0.029729685 -0.14905685 -0.08385506 -0.14590922
-0.06417375 -0.0562112 -0.03871896 0.084152795 -0.023782652 -0.0793297 0.037309688 0.0381832
-0.13386871 -0.0034119633 -0.020560557 -0.021548122 -0.09623552 0.034980502 0.029256672 0.12675305
-0.036530934 -0.054490715 0.05768812 -0.118023194 -0.03656613 -0.07385005 0.011057816 0.06530861
-0.02602333 -0.1284857 -0.029699933 0.0021338316 -0.07770922 -0.12244252 -0.053621296 -0.0766218
-0.006679472 -0.073370725 -0.052511986 -0.10604617 -0.09726185 -0.05428073 -0.07850135 0.012835533
-0.090565175 -0.11950137 -0.00855737 -0.14634244 0.11224114 0.1331874 0.03649617 0.045798697
-0.07068822 0.042768765 0.097799145 -0.019727847 -0.08979424 -0.026927983 -0.14034659 -0.09165325
0.020971723 0.06280261 -0.062300254 0.059162036 -0.05562862 0.008504817 0.020233493 -0.11202458
-0.053761736 -0.08410413 -0.0518238 -0.102383405 -0.060266048 -0.06027784 -0.042634837 -0.07222021
-0.112670705 -0.050748415 -0.049010996 0.007953572 -0.11933236 -0.07098035 -0.033871036 -0.015823087
-0.013408355 -0.037562303 -0.040117748 -0.1088793 -0.057378598 -0.13672285 -0.018469036 -0.13889357
0.0059949425 -0.046421807 -0.07737687 -0.04228357 -0.046415806 -0.011104097 -0.0025149314 0.15927318
-0.04193278 -0.016307313 -0.11217372 -0.11592546 -0.054418713 0.01761248 -0.043316137 0.06667841
0.010255512 -0.12327796 -0.05697179 -0.0010205443 0.06041061 -0.05459295 -0.012883514 0.028629467
-0.1202428 0.018098468 -0.0574862 -0.023768183 -0.17044482 0.77875876 0.5598337 -0.14368087
0.1901977 -0.09471623 -0.31408817 0.381577 0.03609018 0.16992213 -0.36511308 0.48372662
0.0033851713 0.018661097 0.013464518 0.06453911 -0.20615688 0.35567525 0.12118752 -0.0715755
0.13134506 -0.20524812 -0.20356703 0.17384705 0.4720646 -0.064522296 -0.18612806 1.0873266
0.09503976 0.29378673 -0.3160256 0.6863005 0.03445804 0.07871739 0.056183152 -0.02395945
0.1853449 -0.0379258 -0.20934117 0.1882523 -0.37458307 0.27679875 0.3216031 -0.43576866
0.10941375 0.14366627 0.09932247 0.24903461 -0.07146391 0.0013924553 -0.019866167 -0.0077148415
0.029744925 -0.017765516 0.08576207 -0.0104876645 -0.053611696 0.02214702 -0.004541242 -0.06164763
-0.012519287 0.073502965 -0.33346495 0.54464656 -0.3179685 0.09466817 0.20857532 -0.32275146
-0.059588816 0.012076837 -0.050234355 0.1048482 0.2150994 -0.160849 -0.011518471 -0.07806598
0.22516897 -0.18053825 -0.2783982 0.039450046 -0.32009217 0.095158085 0.2882306 -0.3058753
0.008066072 -0.065804936 -0.13691117 -0.1190472 -0.25674692 0.1470445 0.08573798 -0.15342198
-0.15797743 0.007560562 0.03216523 0.044272065 -0.31641227 -0.028777124 0.049906116 -0.20149334
-0.120546885 0.051797908 0.06964503 -0.048369363 -0.24622345 0.53831595 0.43634576 -0.01606497
0.1773312 -0.041816708 -0.044376332 0.14341488 -0.08052262 0.025468834 0.0649224 -0.025194608
0.51203674 0.123702206 0.00096895476 0.8658793 -0.006414406 0.028680488 0.020915836 -0.046190172

conv2.0.bias f4 [16]
00000000: f5b9 79bd ca21 45be a627 bb3b 4d70 cfbd
00000010: 9ef8 78bc e24f e7bc 031b 07be d976 8cbd
00000020: 2c1d 1dbe 3135 07be 0b9a a8bd 2d81 17bb
00000030: dc1a b1bd c386 90bd f70f 86bc a77e eabd
-0.060968358 -0.19251171 0.0057115136 -0.101288415 -0.015195994 -0.028236333 -0.13193898 -0.06858606
-0.1534316 -0.13203885 -0.08232506 -0.0023117766 -0.08647701 -0.07056954 -0.016365035 -0.11449938

fc1.0.weight f4 [64, 2704]
00000000: c084 0e3a b0b0 873a fe60 43bc 8dbf 823c
00000010: 1035 0e3c 3c3d 85bb 23d5 98bc 50a6 e8ba
00000020: eeb2 91bc 00f6 4239 f6c0 56bc 007b be38
00000030: 10c0 b5bb 65de 1bbc ae5f 693c de8e 9fbb
00000040: 0fee 42bc d460 6bbc 9f4a 943c b734 8b3c
00000050: 80d0 cc3b 809c 673a e005 273a a23e 313c
00000060: 165c 453c 0681 283c cadc 5dbc e7f1 8f3c
00000070: 483c 4fbb d09b d0bb 166a 4f3c e852 3e3c
00000080: 503b 803a a367 2dbc c61b c2bb f49d 1d3c
00000090: d011 b8bb 0cf7 c53b 3810 9dbc 5af2 243c
000000a0: 3a98 9abc 0aa2 1c3c f069 b0ba c064 353c
000000b0: 46ad 46bc 4a33 e1bb 2d5f 30bc 9e33 83bb
000000c0: 7d15 80bc 7047 cc3a 7c72 1e3c 8bfe 993c
000000d0: 00ab af3a 18d9 1a3c d41f 8fbc 4554 02bc
000000e0: ea99 7ebc 007e 7938 30df 3dbb 6095 083c
000000f0: a281 85bb e58e 9a3c 25d7 8dbc 08e3 19bb
00000100: 500e 3f3c 8a54 efbb 1eca bebb 44a7 9cbc
00000110: 5669 3e3c f03e ab3a 0050 aa38 cdc2 0dbc
00000120: 546f 8ebc c372 3bbc 10cd e7bb 3e38 73bc
00000130: f998 883c 0db8 933c 6211 6a3c 88f3 11bc
00000140: e467 73bb 1e4e 413c e467 c93b 5248 223c
00000150: d477 dbbb a45b 98bc a00e 3aba c277 733c
00000160: 5c94 4bbc 3db8 933c 0c27 c53b 32e3 c3bb
00000170: 0038 ee3a bcd9 e83b cfa6 863c 507a a2ba
00000180: 60f9 ce3a a8dd 223b 30a5 493b 0227 753c
00000190: 77db 953c 1e1d 573c 028a 483c 8071 a03b
000001a0: fad4 203c 4046 6a3a dd14 9c3c 98c7 863b
000001b0: 541a 1fbc 2284 543c 6a2c 6ebc 2e4c 7f3c
000001c0: 40a1 69bc 9241 403c f40b 16bc 985d e53b
000001d0: b834 103b c31e 853c df79 92bc f234 2d3c
000001e0: 808c 5c39 d8e3 a63b e686 6cbc f70a 75bc
000001f0: 94e7 9fbb 17ad 973c 30b4 a83b 3bf6 943c
00000200: 00a0 9eb8 249e d63b b8cb 523b 8482 97bc
00000210: 20f3 793b f7df 8c3c 9d9d 87bc a691 353c
00000220: 7a2c 6c3c 7e0c 293c 6d49 91bc a824 a7bb
00000230: 8b70 923c 382d 9b3b de2d 8fbb 4a35 98bb
00000240: 4d08 5cbc 20e9 5e3a 2e0d 91bc e078 50bc
00000250: a03e 093b b63c 2a3c 5d80 8b3c 79e6 58bc
00000260: 103a 303c 3b82 18bc f889 493b ea68 493c
00000270: 097f 83bc c00d ae3a c281 673c 14bb 6cbb
00000280: 9674 81bc f669 51bc a638 5ebc aa4f 643c
00000290: 942a 74bc 6271 bbbb 72fb 02bc ee6c 553c
000002a0: 543c 2a3c 9bf7 51bd e1e5 50bd 540d dd3b
000002b0: 6ce1 53bd 90cb 4cbd 883b 8abd 9ae0 28bd
000002c0: e254 86bd dc1e 6dbd 4310 17bd 06fa 7bbd
000002d0: 968b 86bd 28d7 5ebb 59ee 2cbd 53d3 84bc
000002e0: 26fa f8bc f9a5 5cbd 46be a3bb 6817 313c
000002f0: ecca dd3b 068c 543c 3777 85bd 4ae8 9abc
00000300: 08ca 77bc 7295 133c 4df9 71bd 9c5f 8ebd
00000310: 33a8 64bd 9a5a 3bbd d5b5 13bd a118 1bbd
00000320: 0a2b 83bd 150a 80bd 4e5b fabc 52a5 063c
00000330: 1fc4 77bd 1da9 10bd 6635 203c f867 d83b
00000340: 59a9 02bd ed98 21bd ff9f 2ebd 6c85 b1bb
00000350: c694 12bd 30b9 20bd 40a3 1ebc 65f3 ffbc
00000360: d561 4cbd 5a31 18bd 1a44 85bc 0e4e 31bd
00000370: 8538 09bc 8858 65bb 9c72 43bd 848e d73b
00000380: d8fa 5dbd d0d4 7ebc edb1 7cbc bcaf 13bd
00000390: 9855 7b3b 841c 81bd 3045 1abb 011d 13bd
000003a0: bf90 68bd 72e4 47bc e491 87bc 1b87 5bbd
000003b0: 5008 23bd 08d2 6ebd f286 2b3c 0c5a 7dbd
000003c0: 7b5a 45bd e614 3fbd 800e 56bc 369f 52bd
000003d0: 3206 79bd f0c2 d1ba 863b 54bd 9e61 5cbd
000003e0: 8168 81bd 06ae 763c 7d5b 863c f0ec 4fbd
000003f0: 5cd4 2fbd 387e b13b 6107 3cbd 293c 18bd
0.00054366514 0.001035234 -0.01192498 0.01596048 0.008679643 -0.0040661376 -0.018656319 -0.001774976
-0.017785516 0.00018592924 -0.013107529 9.0828165e-05 -0.0055465773 -0.009513472 0.014244003 -0.004869326
-0.011897578 -0.014366347 0.018101988 0.01699291 0.006250441 0.0008835271 0.000637142 0.0108181555
0.012045881 0.010284668 -0.01354141 0.017571403 -0.0031621624 -0.0063662305 0.01265957 0.011616446
0.0009783302 -0.010583791 -0.005923721 0.0096201785 -0.005617358 0.006041413 -0.019172773 0.010067547
-0.018871415 0.0095601175 -0.0013459306 0.011071384 -0.012126273 -0.006872569 -0.010764879 -0.004003956
-0.015635246 0.0015585255 0.00967085 0.018798133 0.0013402402 0.009451173 -0.017471232 -0.007954662
-0.015539626 5.9483573e-05 -0.0028972141 0.008336395 -0.0040742913 0.018866966 -0.017314503 -0.0023481268
0.011661127 -0.007303779 -0.005822434 -0.019122727 0.011621794 0.0013065021 8.121133e-05 -0.008652401
-0.01738707 -0.011440936 -0.007074006 -0.014844952 0.016674506 0.018032098 0.014286371 -0.00890816
-0.003714078 0.01179841 0.006146418 0.009904938 -0.0066976342 -0.018598385 -0.0007097516 0.014860095
-0.012425508 0.018032188 0.0060166176 -0.0059780115 0.0018174648 0.007106034 0.016436962 -0.0012396071
0.0015790872 0.0024851356 0.0030768625 0.0149629135 0.018293126 0.013129501 0.012239935 0.0048963428
0.009816403 0.00089368597 0.019052917 0.004113149 -0.009710867 0.012970956 -0.014536956 0.0155821275
-0.014259636 0.011734383 -0.009158123 0.0069996826 0.002200408 0.01625002 -0.017880378 0.010571705
0.00021033175 0.005093079 -0.014436459 -0.0149562275 -0.004879901 0.018515153 0.005148433 0.018183818
-7.5638294e-05 0.0065496136 0.0032164883 -0.018494852 0.0038139299 0.017196639 -0.016554648 0.011082089
0.014414901 0.01031792 -0.017735207 -0.0051008053 0.01787593 0.004735615 -0.0043694815 -0.0046450244
-0.013429713 0.0008503366 -0.01770648 -0.012724131 0.0020941868 0.010390451 0.017028982 -0.013238543
0.010756031 -0.009308393 0.0030752402 0.01229308 -0.016051786 0.0013279244 0.014130058 -0.003612225
-0.015802663 -0.012781611 -0.013563311 0.013935009 -0.01490273 -0.0057203034 -0.00799452 0.013026459
0.01039036 -0.051261526 -0.05100048 0.0067459736 -0.05172865 -0.04999882 -0.06749636 -0.04122982
-0.06559159 -0.057890758 -0.036880743 -0.061517738 -0.06569593 -0.0034002755 -0.042219494 -0.016214048
-0.030392718 -0.05386922 -0.0049970476 0.010808803 0.006768575 0.012972837 -0.06516879 -0.018909592
-0.015123852 0.0090077985 -0.059075642 -0.0695183 -0.05582447 -0.0457407 -0.03606208 -0.037865285
-0.064046934 -0.06251923 -0.030561116 0.008218126 -0.06048977 -0.03531753 0.009778356 0.006604191
-0.031899784 -0.039452482 -0.042633053 -0.0054175165 -0.035786413 -0.03923911 -0.0096824765 -0.03124399
-0.049897987 -0.03715644 -0.016267825 -0.04328733 -0.008375292 -0.0034995396 -0.047716722 0.0065782685
-0.0541943 -0.015553668 -0.01542328 -0.036056265 0.0038350578 -0.06304267 -0.0023539774 -0.035916332
-0.056778666 -0.012200462 -0.016549058 -0.053595643 -0.03980285 -0.05830577 0.010469185 -0.061853454
-0.048181992 -0.04665079 -0.0130649805 -0.051421367 -0.060796924 -0.001600353 -0.05181458 -0.053804033
-0.06318761 0.015056139 0.016401047 -0.05076307 -0.04292713 0.005416658 -0.045905475 -0.03716675

fc1.0.bias f4 [64]
00000000: 9f6d 83bd c6e5 88bd d39a a1bd 656d 5ebd
00000010: 3302 32bd 6792 e7bd d93f 833d 4237 94bd
00000020: b876 8bbd dfe8 143b fe83 22bd aaae b73c
00000030: 558b a6bd 6a58 023e e98d 9dbd 8190 2bbd
00000040: 751c babd 038d 92bd f51a c9bd b0e6 94bd
00000050: 10c5 d2bd 3425 2cbd 8929 8fbd 0551 9cbd
00000060: 162a 8f3d c44c 60bd a1e6 b7bd 20e0 81bd
00000070: 9cf6 d93c f801 21be 70b9 8bbd 1890 8e3c
00000080: 32a9 0dbe d94f 3d3e 7e19 993d 4134 dbbd
00000090: 2769 22bd 5d50 843d 050b 823d 83bb 023d
000000a0: 46b6 1ebd 4679 24bd 8faa 373d b2d6 1bbd
000000b0: 87ae 95bd 898e cabd 68e4 c3bd d7df 9ebd
000000c0: cf0f 843c c5a1 c4be 83c8 dbbc d457 ba3d
000000d0: 2761 88bd 45e7 50bd 94a3 67bd 264a 8ebd
000000e0: 15da 48bd ccfa 70bd 101a 5bbd 1336 523d
000000f0: 34f9 e4bd e7ac 27be 17de a0bd 76b4 d23d
-0.06417393 -0.06684451 -0.078908585 -0.054303546 -0.04345913 -0.11307221 0.06408662 -0.07237102
-0.06809753 0.002272181 -0.03967666 0.022422154 -0.08132044 0.1272904 -0.07693083 -0.041885857
-0.09087459 -0.07155802 -0.09819595 -0.07270563 -0.10291493 -0.042027667 -0.06990344 -0.07632641
0.06990449 -0.05476071 -0.08979536 -0.063415766 0.02660685 -0.15723407 -0.06822479 0.017402694
-0.13834074 0.1848749 0.074755654 -0.10703326 -0.039651062 0.064606406 0.06349758 0.031917106
-0.03874805 -0.040154718 0.04484039 -0.038046546 -0.07308679 -0.09890468 -0.095650494 -0.07757538
0.01612082 -0.3840467 -0.02682901 0.09098783 -0.06659155 -0.051001806 -0.056552485 -0.069477364
-0.049036104 -0.05883293 -0.053491652 0.0513211 -0.11180344 -0.16374551 -0.0785486 0.102883264

fc2.0.weight f4 [32, 64]
00000000: f053 bbbd 26e1 f23d c415 ccbd ce1e ab3e
00000010: 3f3d 32bd 724f f1bd c06c bfbc 5e21 213e
00000020: ab4e eabd bc92 be3e b03b 353d bc0b 50be
00000030: e212 54bd dfbe b03e 1c8e a53d b9dd 6b3e
00000040: 9a83 b93d b8c4 80bd 69b8 a93e 10d4 a53d
00000050: b9cb d93c c0b6 7bbd f23a a1bd 54a4 603d
00000060: 6a06 87be 79de 89bd 9852 98bd a41b 563e
00000070: 40c2 1bbe 118a 45be 247c b73d 2b19 bdbd
00000080: d0de cd3d bda5 99bd 0f3b f1bc a3c1 8abe
00000090: 2584 2ebe 9d06 81be 8218 4bbf 0749 c63c
000000a0: 1f33 59bd be9e c43d 418e 58be f469 12bd
000000b0: 1436 32be 48b9 3dbd d722 b63d 3075 dc3c
000000c0: 1bc4 e1be 0177 cbbe 603c c23b bc63 e73d
000000d0: 5b67 a5be 7e0d e33d 708f 5f3d 3c14 f7bd
000000e0: 868e edbd 2fed a9be 320a 8b3d 84e6 f93d
000000f0: d0f7 8bbd aaa5 c63e 1868 fabd 40d6 08bb
00000100: bcf5 a2bd aabf 173e f1af b4bd 5837 0fbf
00000110: 1d6c 103e 2653 c9bd e3c1 72be 5dd2 77bd
00000120: 4c52 0cbe d42f 953e cbc0 003f 5211 86be
00000130: 52b2 19be c064 703e 1925 e33d dbca bf3d
00000140: 2090 f83d 3b15 dc3c 57eb 543e 5843 ac3c
00000150: 4ce3 483e 5cd0 b13d 18b9 7cbe e804 863d
00000160: fb4b 25bc 28cc 92bd 9611 cdbd c0a6 973d
00000170: 6428 86be 8a1f cbbd b016 863d ae0b a33c
00000180: de70 833d 6696 1cbe 20eb 72bd aa7d b0be
00000190: 2228 a53e 8afe 0abe 88fe f93d aafa 83be
000001a0: e381 883d 6039 293d d4b5 14be d85f bebc
000001b0: 9656 08be 94db 263d bd69 acbe 8693 a03d
000001c0: 12ca ed3e 4c83 fdbd e8ae 30bd ecfa c6be
000001d0: eed1 1abf 08b4 ec3c 602e 2dbd e412 d83d
000001e0: 1164 42bd e6d5 633e 5ebe 81bd f728 073e
000001f0: 9b91 4abd 0a7b 783e 0029 b0bd 9a99 b7be
00000200: 3662 2c3d 182e d5bc 1a48 dabc fa44 cf3e
00000210: 0903 313e e2e5 e33d 0302 7fbe 0f65 3d3d
00000220: 0088 ebbc b4a3 363e 8b0a 063d f41f 6bbb
00000230: aef5 ea3e 28bd 8dbe f301 b33d dbe4 203e
00000240: 482d 463d 686c 12be 061f 9dbe cb40 193d
00000250: 415d 073e 70cc 6bbc d294 8abc 31b8 a6bc
00000260: 4704 5cbe a0c1 89bd 7705 b03d ee23 7e3e
00000270: 9123 13be 2f00 3bbe 24f5 1ebd 39f4 06bd
00000280: 2e50 293e d147 3a3d 979f 89be 43d7 3bbe
00000290: 7459 163e 05c5 5dbe 5424 263c d74d c0be
000002a0: 396f 40bc b221 e93d f562 aabd 16c4 e23d
000002b0: 6518 fdbd ec0e d53d c0c3 c23d 4abd 0ebd
000002c0: bc99 18be e886 513f f634 f63b d067 8dbe
000002d0: 6bee 5ebe 94df 683d eb4d 5ebd 55a7 2a3d
000002e0: 0e23 34bd 7cbe 6f3e cdfc 693d 7610 c4bc
000002f0: 2806 803e 0f5f c6be c255 aebd 4f1f 9b3d
00000300: 8c50 febc beb3 1f3d b5f1 b6bd ee65 0abe
00000310: 65c1 44bc 1227 2ebd dca8 d73e 82ec f6bc
00000320: 845e b03d 1ede a73d 5c90 aebe d0ad 183e
00000330: cc85 95be f786 dbbd 39ed 413e 317b 6abc
00000340: b2d5 163d 91ba e7bd 8108 cd3d bb2f c7bd
00000350: 907e 21be 2211 90bd 930e 073f 0ebe fd3b
00000360: 8503 ca3c 1d25 0ebe beb1 733b a593 29be
00000370: c4b7 403e 5490 9f3e 3d5c 97bb d468 1a3e
00000380: 0be1 b13d 606e 86bd 5b6b d33e 3c6c bc3e
00000390: 85db 2ebc 7b1d 0e3f f7a4 b73d 6c1f c83e
000003a0: e035 133e caf8 82bd 6a52 b43e 4451 78bd
000003b0: f1b8 3abe ee48 3abe f50e 74bb a421 a23d
000003c0: 5e62 d33c e3bc 16be 4752 d8bd 42d0 c3bc
000003d0: e948 fc3e 3b8c b83c 4d08 633e 6e74 d5bd
000003e0: b92f 80bd b238 86be d91e 39bd f6af 1abf
000003f0: 4295 d3bd 7bc2 a0be 1b12 cb3c 9e1d b9bd
-0.09146869 0.1185935 -0.09965089 0.3342194 -0.04351544 -0.11782731 -0.023367286 0.15735385
-0.11440786 0.37221324 0.044246376 -0.20316976 -0.05177582 0.34520623 0.08083746 0.23033799
0.09058304 -0.06287521 0.33148506 0.08097088 0.0265864 -0.06145358 -0.07872571 0.054844216
-0.2637208 -0.067318864 -0.074376285 0.20908982 -0.15210819 -0.1929095 0.08959225 -0.09233316
0.10052264 -0.07502315 -0.029447107 -0.27100858 -0.17042597 -0.25200358 -0.7933427 0.024204744
-0.05302727 0.0960059 -0.21148016 -0.035745576 -0.17403442 -0.046319276 0.08893364 0.026911348
-0.4409493 -0.3973923 0.0059276074 0.1129832 -0.32305416 0.11086558 0.054580152 -0.12064406
-0.1159945 -0.3318877 0.06789054 0.122021705 -0.06834376 0.38798267 -0.122268856 -0.0020879656
-0.07957026 0.14819208 -0.08822621 -0.5594382 0.14103742 -0.098303124 -0.23706774 -0.060503352
-0.13703269 0.29138052 0.5029418 -0.2618509 -0.1500943 0.23475933 0.1109106 0.093648635
0.12136865 0.026865592 0.207929 0.021028206 0.19617957 0.086823195 -0.24679983 0.065439045
-0.010088916 -0.07167846 -0.1001312 0.07404852 -0.2620269 -0.09918125 0.06547296 0.01990303
0.06418012 -0.15291747 -0.059306264 -0.34470874 0.3225718 -0.13573661 0.12206751 -0.2577718
0.06665399 0.041314483 -0.14522487 -0.023239061 -0.1331428 0.04073675 -0.33674422 0.07840638
0.4644323 -0.123785585 -0.043135554 -0.38863313 -0.6047658 0.02889444 -0.042280555 0.10550478
-0.047458712 0.22249565 -0.06335138 0.1319922 -0.049455266 0.24265686 -0.0860157 -0.35859376
0.04208585 -0.026022956 -0.026645709 0.40482312 0.17286314 0.11127831 -0.24903111 0.046238955
-0.028751373 0.17835885 0.0327249 -0.00358772 0.45890564 -0.27683377 0.08740606 0.15712301
0.048383027 -0.14299166 -0.30687732 0.037415307 0.13219167 -0.014392003 -0.016916666 -0.020351501
-0.21486007 -0.06726384 0.08594792 0.24818394 -0.14369036 -0.18261789 -0.038808003 -0.032947753
0.16534492 0.045478646 -0.2687957 -0.18343835 0.14682561 -0.21657188 0.010140497 -0.37559387
-0.011745268 0.1138338 -0.08319656 0.11072557 -0.123581685 0.10403237 0.095099926 -0.03484849
-0.14902395 0.81846476 0.0075136377 -0.27618265 -0.21770637 0.056853846 -0.054273527 0.041663487
-0.043978743 0.23412508 0.057125855 -0.02393363 0.25004697 -0.387444 -0.08512451 0.07574331
-0.031044267 0.038989775 -0.08932821 -0.13515446 -0.0120089995 -0.04251773 0.42121017 -0.030142073
0.086117774 0.08196662 -0.34094512 0.14910054 -0.2920364 -0.10719102 0.1893815 -0.014311598
0.03682489 -0.113148816 0.100113876 -0.09725901 -0.15770936 -0.07034518 0.52756613 0.0077436035
0.024659881 -0.13881345 0.00371848 -0.16560228 0.18820101 0.311648 -0.00461915 0.15079051
0.08685502 -0.06564021 0.41292843 0.36801326 -0.010672455 0.55513734 0.089670114 0.39086473
0.1437602 -0.06395109 0.35219127 -0.060624376 -0.18234612 -0.18191883 -0.003724036 0.07916573
0.025803741 -0.14720492 -0.10562568 -0.023903016 0.49274376 0.022527805 0.22171135 -0.10422598
-0.062591024 -0.2621513 -0.045195434 -0.60424745 -0.10331203 -0.31398377 0.024788907 -0.09038852

fc2.0.bias f4 [32]
00000000: f328 d6bd f81e 523d 5b06 573e a422 013c
00000010: d618 c2be b471 93bd 309e 263d fb3b cb3c
00000020: 2d81 7c3d 4a7a d1ba b7d0 193e d387 bf3c
00000030: 9c8f 3fbe 439d 2a3e 0404 e5bc 827d 1a3d
00000040: 5678 5dbe b6a1 90bd f3ea 343d dca8 42bd
00000050: 36a4 c1bd 7f9f 8b3d a28f 70bc d169 17bd
00000060: 1182 ed3d ec9b 2c3d a47b 893d 6819 113c
00000070: 7708 c03d 6044 6dbd 613c 803d b8a5 383e
-0.10457029 0.051299065 0.20998518 0.007881794 -0.37909573 -0.071994215 0.040678203 0.024808874
0.06164663 -0.001598188 0.15021025 0.023380196 -0.18707126 0.16661553 -0.027956016 0.03771735
-0.21627936 -0.07062094 0.044169378 -0.047524318 -0.09455149 0.06817531 -0.014682682 -0.03696615
0.11597074 0.042140886 0.06713036 0.008856155 0.093766145 -0.057926536 0.06261516 0.18031967

fc3.0.weight f4 [6, 32]
00000000: e4bb e93e 53b7 a43e 2eff 8b3e 434a babe
00000010: c915 8c3e 52ec 88be a634 293d a23c 5fbe
00000020: 59b0 bebd 3ddf a83d e298 6f3e d3a0 c6bb
00000030: 8fc9 ae3c f2c0 0b3f e10a 47bb de7f 1c3f
00000040: 3da4 97be 1c27 46bd cdb4 0dbf 9b0b 61bd
00000050: 3154 883c 9c28 c53e 39e6 50be 93ea eb3e
00000060: 0177 463d be53 e13c 835a af3e fb6f f93e
00000070: 33eb 863e 2ef9 8cbd 3902 2a3e c227 8f3d
00000080: 737f 17bf 7ee4 bbbe ad10 8abe 4e9f c83e
00000090: a19f 7ebe 4157 a03e 1777 0fbd 7351 603e
000000a0: 6ddb e03d 5166 0fbd 2f04 9fbe 66e7 533d
000000b0: dba3 03bf b1cc 02bf 42b6 42ba efa6 0cbf
000000c0: 0d53 9f3e 08e3 953d caf1 183f 700c 893d
000000d0: 7df6 0ebc 39d2 afbe 267b 403e 800f 4abf
000000e0: 8682 d7bc 7941 c6bc 7830 a8be 09d0 02bf
000000f0: 83db c0be 7646 8a3d e3aa 2fbe 1ca5 b3bd
00000100: 5666 2fbe 31f8 113e 4a80 c0bd d512 abbe
00000110: db94 02bf 5ca6 5abe a339 6fbd 3d4f 91be
00000120: 3026 c0be 67fa e23d 3370 f83c 373b b83d
00000130: f952 f13d e547 f83e e01d babe 5104 9b3e
00000140: 07ba c5be 6647 1fbe fe78 adbe 745f 08bf
00000150: 5c44 00bf 8623 2f3d 50f5 5cbe 7b29 113e
00000160: 5076 c3be 714b 86be 53af b6be ff65 eabc
00000170: da43 a93c a2eb c83d 138e 47be 43ed 12be
00000180: 203d 493e 2072 b4bd c75e 17bf 0ade 96be
00000190: 6d5c d1be 2b9b b2be 1790 cbbd 388a 77be
000001a0: 1a37 88be b791 c43c b194 19bf f15c a1be
000001b0: 9b9d 2f3d 9880 03bf bd32 fcbc e377 ee3d
000001c0: f390 9fbe 23c7 8abe 19f9 b2be b9b5 9abe
000001d0: bb4a cebc ef88 b2be dd83 bfbe 5ee2 ac3d
000001e0: 7e67 89be e47e 66be 71bc a4be 2750 b53c
000001f0: 04de 06bf a64d fc3d 3683 8ebe 3d2e 483e
00000200: a2cd cebb 170e 983d 8520 8fbd c873 4a3d
00000210: b7a8 5e3d 9bdf 15be b339 38bf fb5a f23c
00000220: bb8b 773d 6d36 05bf 29f0 93be 0d72 04bf
00000230: 0124 e4be c0a0 a03b 8325 0ebf d945 63bd
00000240: ff31 483d b867 dfbe 378b 63bc a2ab fa3c
00000250: fddd 1ebf bb21 c5be 1b68 2f3d 3c73 78bd
00000260: 06e7 11bf 9d1c be3e 5672 6d3d 2570 313d
00000270: 303e b3bd fd5d a33e ff38 31bf 9222 363f
00000280: 2680 f1bd 6c1f 92be a6d6 053e 0053 d3be
00000290: af59 e2bc 20e1 b1be d597 3c3d f07e 8fbe
000002a0: 7747 89be d6bf bdbe afda aa3d d768 90be
000002b0: cb98 abbe fd5a 12be 06ba 8f3c 83cf c1be
000002c0: ae68 69be 59c2 12be 931d 0fbf ef92 cabe
000002d0: fb27 293d 0556 e93d 0980 60be 1010 3ebf
000002e0: 9ea1 b73d dd77 9d3d f71c 313e 5a53 7739
000002f0: ffa1 89be aced 13bf eda9 8a3e 0ac5 d3bd
0.45651162 0.32171115 0.27343124 -0.36384782 0.2736037 -0.26742798 0.041309975 -0.21800473
-0.093109794 0.08245704 0.23398164 -0.006061652 0.021336345 0.54591286 -0.0030371475 0.6113261
-0.2961749 -0.04837714 -0.55354005 -0.05494271 0.016641708 0.38507545 -0.20400323 0.46077403
0.048453335 0.027505752 0.34248742 0.48718247 0.26351318 -0.06883465 0.1660241 0.06990005
-0.5917885 -0.36697763 -0.26965848 0.3918404 -0.24865581 0.3131657 -0.035025682 0.2190607
0.10979352 -0.035009686 -0.3105788 0.05173435 -0.514219 -0.51093584 -0.0007427671 -0.5494222
0.3111805 0.073186934 0.5974394 0.066918254 -0.00872576 -0.34340075 0.18796977 -0.789299
-0.026307356 -0.024201142 -0.3284948 -0.51098686 -0.37667474 0.067517206 -0.17155032 -0.087717265
-0.17128882 0.14254834 -0.09399469 -0.33412805 -0.51008385 -0.21352524 -0.058404576 -0.28380767
-0.37529135 0.11082917 0.030326938 0.08995669 0.11783404 0.4849235 -0.36350918 0.3027673
-0.3861849 -0.1555458 -0.33881372 -0.5327065 -0.5010431 0.042758487 -0.21577954 0.1417598
-0.38176203 -0.26229432 -0.35680637 -0.028613089 0.020662237 0.098105684 -0.19487791 -0.1434832
0.19652224 -0.0881083 -0.59128994 -0.29466277 -0.40890828 -0.3488401 -0.09939592 -0.2417382
-0.2660454 0.023995264 -0.5999251 -0.3151622 0.042874914 -0.51368093 -0.030785913 0.1164396
-0.31165275 -0.27105054 -0.3495567 -0.30216768 -0.025182119 -0.34870097 -0.3740529 0.084416136
-0.2683677 -0.22509342 -0.3217502 0.022132946 -0.5268252 0.12319498 -0.2783448 0.19548889
-0.0063111344 0.074245624 -0.069886245 0.049426824 0.054360118 -0.1463608 -0.7196304 0.029584398
0.06043599 -0.5203617 -0.28894165 -0.5173653 -0.4455872 0.0049019754 -0.5552599 -0.055486534
0.048875805 -0.4363382 -0.013888172 0.030599419 -0.6205748 -0.38502297 0.042823892 -0.06065677
-0.5699314 0.37131205 0.057970367 0.04331984 -0.08752096 0.31907645 -0.69227594 0.711465
-0.117920205 -0.28539598 0.13070163 -0.4127426 -0.027630655 -0.3474207 0.046043236 -0.28026533
-0.26812336 -0.37060422 0.08342492 -0.28204986 -0.3351501 -0.14292522 0.017544758 -0.3785363
-0.22793838 -0.1433195 -0.559045 -0.39565226 0.041297894 0.1139336 -0.21923842 -0.7424326
0.08966373 0.07688878 0.17296205 0.00023586806 -0.26881406 -0.57784534 0.27082768 -0.103403166

fc3.0.bias f4 [6]
00000000: 93a2 3b3e b1fb 66bd 86fc 6cbd b1c9 01be
00000010: 21bc e33d 0b9e 913e
0.18323736 -0.056392375 -0.057858013 -0.12674595 0.11119867 0.2844089
