Models/stat_dict_MultiLabel_0.95.pth (torch, 714175 bytes, 10 tensors)

conv1.0.weight f4 [32, 1, 2, 2]
0	0xbdf4a81d	-0.119461276
1	0x3edbc4ff	0.42923734
2	0x3eb1d504	0.3473283
3	0xbf3119f1	-0.6918021
4	0xbe910807	-0.28326437
5	0x3ea816d9	0.3282993
6	0x3dd6c2fc	0.10486409
7	0x3bcf560a	0.0063273953
8	0xbe405654	-0.18782932
9	0xbe9894a4	-0.29800904
10	0xbcb589c0	-0.02216041
11	0xbeb8d0ea	-0.3609689
12	0xbea90b0f	-0.3301625
13	0x3e8e63d9	0.27810553
14	0xbf220cf9	-0.63301045
15	0xbd705ea4	-0.058684006
16	0x3ea23547	0.31681272
17	0x3e6aaa1d	0.22916456
18	0xbf28c69b	-0.6592805
19	0xbe4f0806	-0.20217904
20	0xbdd98de6	-0.10622768
21	0xbe5c5530	-0.21516871
22	0xbedc3682	-0.43010336
23	0x3d580429	0.052738342
24	0x3d098221	0.033571366
25	0xbebc8762	-0.3682204
26	0x3e1d522e	0.1536338
27	0xbe9d464d	-0.30717698
28	0xbefde872	-0.49591404
29	0x3e8b10f9	0.27161387
30	0x3eb8f2a6	0.36122626
31	0xbe36e63e	-0.17861268
32	0x3ed37a01	0.4130402
33	0xbdefd108	-0.117097914
34	0x3e79c671	0.24392106
35	0xbdadf3dc	-0.08493778
36	0x3e94cad7	0.29061005
37	0xbe87f8ac	-0.2655691
38	0x3d7ee1c3	0.062227022
39	0xbe31b518	-0.17354238
40	0x3df5006b	0.1196297
41	0xbf92dc18	-1.1473417
42	0x3f82fcb8	1.0233374
43	0xbf909464	-1.1295285
44	0xbdb0ca08	-0.086322844
45	0x3ed70c40	0.42001534
46	0xbe40b5f4	-0.1881941
47	0xbe9008de	-0.28131765
48	0x3ebc9cef	0.3683848
49	0x3f207995	0.6268552
50	0xbf52f1c6	-0.82400167
51	0xbeaf6b43	-0.34261522
52	0x3f06614b	0.5249221
53	0xbecae536	-0.39628
54	0xbf11e348	-0.5698743
55	0x3ec21f6d	0.379146
56	0x3e5de796	0.21670374
57	0xbe6b0968	-0.22952807
58	0x3eee82fc	0.46584308
59	0x3ea12852	0.31476074
60	0xbe8a8bda	-0.27059823
61	0xbef3000c	-0.47460973
62	0xbe857152	-0.2606302
63	0xbe8d52b2	-0.27602154
64	0xbe87b662	-0.26506335
65	0x3ec43e69	0.38328865
66	0xbe6230c5	-0.22088917
67	0x3dcb3d8d	0.09923849
68	0x3d9695ba	0.07352777
69	0xbdb7a073	-0.0896615
70	0xbeecb374	-0.46230662
71	0xbd8480ad	-0.064698555
72	0x3ed7ca7e	0.42146677
73	0xbf131703	-0.5745699
74	0xbf13e180	-0.5776596
75	0xbe7b4890	-0.24539399
76	0xbeebc8ec	-0.4605173
77	0xbec8af90	-0.39196444
78	0xbebe16c6	-0.3712675
79	0xbece1d6a	-0.40256816
80	0x3efc3453	0.4925867
81	0xbf061c53	-0.5238697
82	0xbef6c4a1	-0.4819689
83	0x3f1ceabc	0.61295676
84	0xbdd867c0	-0.10566664
85	0x3dcf2a42	0.10115482
86	0xbed38f90	-0.41320467
87	0xbf1eaadf	-0.6197948
88	0xbf3ac533	-0.7295715
89	0xbf006a36	-0.50162065
90	0xbe991c1d	-0.2990426
91	0x3c929693	0.017894065
92	0xbeeba082	-0.46020895
93	0x3efda4b2	0.49539715
94	0xbe01a69e	-0.12661216
95	0x3f2d42e6	0.67680204
96	0xbeda9459	-0.42691305
97	0xbeb394d8	-0.35074496
98	0x3ea9b9c3	0.33149537
99	0xbf036615	-0.5132764
100	0xbf425fef	-0.75927633
101	0x3ef702f4	0.4824444
102	0xbd1e70db	-0.038681846
103	0x3e98dae4	0.298545
104	0x3ea21352	0.31655365
105	0x3e55a246	0.20862684
106	0xbd3f161d	-0.04665195
107	0xbeded1e4	-0.4351951
108	0x3edf0615	0.43559328
109	0xbf308218	-0.6894851
110	0xbeca3ccf	-0.39499518
111	0x3f135a75	0.575599
112	0x3d24daf0	0.040247858
113	0xbe993556	-0.29923505
114	0xbea62c64	-0.32455742
115	0xbeb75cd8	-0.35813022
116	0x3da4639b	0.08026811
117	0xbee0140a	-0.4376529
118	0xbb858d5d	-0.0040756897
119	0x3dd5e1ff	0.10443496
120	0x3ea88ed6	0.32921475
121	0xbcd671e0	-0.026177347
122	0xbe63d23c	-0.22248167
123	0xbbbf1780	-0.005831659
124	0xbe994920	-0.29938602
125	0x3eeaf3e7	0.45889208
126	0x3f224a04	0.6339419
127	0xbf2d00b5	-0.67579204

conv1.0.bias f4 [32]
0	0xbd98ba73	-0.07457437
1	0xbd3c1b29	-0.04592434
2	0xbee702d0	-0.45119333
3	0x3e98b8e2	0.29828554
4	0xbc9a742f	-0.018854229
5	0xbe2320fd	-0.15930553
6	0x3e995505	0.29947677
7	0x3e170a7b	0.14750092
8	0xbe87898d	-0.2647213
9	0xbeca7d87	-0.39548895
10	0xbd8eaa4d	-0.06966076
11	0xbee7829c	-0.45216835
12	0xbe886ab2	-0.26643902
13	0xbce85860	-0.028362453
14	0xbee8df73	-0.45482978
15	0xbdfab028	-0.122406304
16	0xbf122ee4	-0.571028
17	0x3ea242b8	0.31691527
18	0xbddf236d	-0.10895429
19	0xbed414c8	-0.41422105
20	0x3c5fdd51	0.013663606
21	0x3ef2f990	0.47456026
22	0x3f343463	0.70392436
23	0xbdac4215	-0.08411042
24	0x3ed21d24	0.41037858
25	0xbe838a63	-0.25691518
26	0xbd91e6c4	-0.07124093
27	0xbd303021	-0.04301465
28	0xbedf312a	-0.43592197
29	0x3e759b3d	0.23985
30	0xbee14162	-0.43995196
31	0xbe1ab238	-0.15107048

conv2.0.weight f4 [16, 32, 2, 2]
0	0x3c432f3d	0.011913118
1	0x3a77bf6e	0.00094508275
2	0xbd60a53a	-0.054845072
3	0xbe02e789	-0.12783636
4	0xbd96e20f	-0.07367336
5	0xba879349	-0.0010343577
6	0xbddcb484	-0.10776618
7	0xbd2f601a	-0.04281626
8	0x3ccfc9b8	0.025364742
9	0x3c93ff98	0.018066213
10	0xbc75e520	-0.015008241
11	0xbcaca8d8	-0.021076605
12	0x3c6e3f85	0.014541511
13	0x3aea00f9	0.0017853073
14	0xbd93843a	-0.072029546
15	0xbd1e3f96	-0.03863486
16	0xbd5dacb5	-0.054119784
17	0x3be6b1eb	0.0070402524
18	0xbdd3fe10	-0.10351193
19	0xbc160c46	-0.0091582
20	0xba5deed9	-0.0008466072
21	0x3d978036	0.07397501
22	0xbb8b20d4	-0.004245857
23	0x3cf28944	0.029606469
24	0xbdb6de4c	-0.089291185
25	0xbca31b76	-0.019910555
26	0x3c129aea	0.008948067
27	0xbba4c0aa	-0.00502785
28	0x3cb5d72c	0.022197329
29	0xbe1e47e3	-0.1545711
30	0xbd5ef658	-0.05443415
31	0xbc9f27ee	-0.01942822
32	0x3d2ca10c	0.042145774
33	0xbd9c23be	-0.07624005
34	0x3d2f85d5	0.04285224
35	0xbda70ee2	-0.081571355
36	0xbbc3cb80	-0.005975187
37	0x3cfa422c	0.030549131
38	0xbc9a8352	-0.018861447
39	0x3c28afaf	0.0102957925
40	0xbca05094	-0.019569673
41	0xbd7ddf68	-0.061980635
42	0x3bafb245	0.0053618276
43	0x3d32c854	0.04364808
44	0x3d7a5d82	0.061124332
45	0x3c394af8	0.011309378
46	0x3d71513a	0.058915354
47	0xbd8495d2	-0.064738885
48	0xbd637ae1	-0.05553711
49	0xbb793472	-0.0038025645
50	0xbd2bdffc	-0.041961655
51	0xbe30a3bb	-0.17249958
52	0xbd7ab0a8	-0.06120363
53	0xbd35316a	-0.044236578
54	0xbe12dd8c	-0.14342326
55	0xbe5a8098	-0.21338117
56	0x3b6a3f86	0.003574343
57	0x3c8ed291	0.01743439
58	0xbe0e9bb1	-0.13926579
59	0xbc649034	-0.013950396
60	0x3c15b2d8	0.009136878
61	0x3d60930e	0.054827742
62	0x3d42b1aa	0.047532715
63	0xbd47c826	-0.04877486
64	0xbc65f596	-0.014035603
65	0xbd8a81c2	-0.067630306
66	0xbdd1260a	-0.102123335
67	0xbc6c94dd	-0.014439789
68	0xbc7cbb0f	-0.015425458
69	0x3ad9e69c	0.0016624513
70	0xbddd45d1	-0.10804332
71	0xbdbcabe3	-0.09212472
72	0x3d424cf9	0.047436688
73	0xbd0cd3d3	-0.0343817
74	0xbd2000fb	-0.039063435
75	0xbd29b071	-0.041428033
76	0x3baae110	0.005214818
77	0xbcd66074	-0.02616904
78	0xbdaff297	-0.08591192
79	0xbd64a893	-0.055824827
80	0xbd0ba3b4	-0.034091666
81	0x3d2882ba	0.041140296
82	0xbe070874	-0.13186818
83	0xbd3eedeb	-0.046613615
84	0xbdd7fee3	-0.10546663
85	0x3cc15f13	0.023604905
86	0x3bb101d7	0.0054018307
87	0xbdd0d1b2	-0.10196246
88	0xbda4b77a	-0.08042808
89	0xbd78b5e4	-0.06072034
90	0xbb703121	-0.0036650377
91	0xbda02417	-0.078193836
92	0xbe0aa82a	-0.13540712
93	0xbdb9af65	-0.09066657
94	0xbde63f5f	-0.11242556
95	0x3d1879da	0.03722558
96	0xbd097b3b	-0.033564787
97	0xbcdd889a	-0.027042676
98	0xbbb4cedd	-0.005517824
99	0xbda0e495	-0.078560986
100	0xbe0350f4	-0.1282385
101	0xbdd276a1	-0.10276533
102	0x3d26d147	0.040726926
103	0xbd73315f	-0.059373256
104	0xbd29c55d	-0.041447986
105	0xbdf1a4dd	-0.11799023
106	0xbd2fbb92	-0.04290349
107	0xbe067186	-0.13129243
108	0xbd9aec70	-0.07564628
109	0x3daa18a9	0.08305485
110	0xbd3e0a69	-0.046396647
111	0xbe38a222	-0.18030599
112	0xbc5e80d0	-0.013580516
113	0x3bc00420	0.0058598667
114	0xbce954c8	-0.02848281
115	0x3daa61d1	0.08319438
116	0xbd78e0e3	-0.060761344
117	0xbe0b2cae	-0.13591263
118	0xba3f5606	-0.000729889
119	0xbde93047	-0.11386161
120	0xbdb38c82	-0.08767034
121	0x3cc5ba28	0.024136618
122	0x3d655006	0.05598452
123	0xbd8876a6	-0.066632554
124	0xbc8215eb	-0.015879592
125	0xbd70a3a5	-0.058749814
126	0x3ab5ff49	0.0013885285
127	0xbd4e2447	-0.050327566
128	0xbdaac529	-0.083383866
129	0xbc92e065	-0.017929265
130	0x3b9dc791	0.00481505
131	0x3c9c495a	0.019077946
132	0x3d1ae1bf	0.037812945
133	0xbda33063	-0.079682134
134	0x3c866048	0.016403332
135	0xbdaf7edb	-0.08569118
136	0x3d088dd0	0.033338368
137	0x3d42866e	0.047491483
138	0xbd59a721	-0.053137902
139	0xbd88930c	-0.06668672
140	0xbcf0f8a7	-0.029415442
141	0xbdef8f52	-0.11697258
142	0xbcfe28d2	-0.031025324
143	0xbc65582c	-0.013998073
144	0xbdd7aa15	-0.105304874
145	0xbd94e4cd	-0.07270203
146	0xbcb87cbc	-0.022520415
147	0xbd2faefa	-0.04289148
148	0x3d231753	0.039817166
149	0x3b76c3fb	0.0037653435
150	0xbd430c4b	-0.047619145
151	0xbd1513b7	-0.036395755
152	0xbcf60161	-0.030029954
153	0xbde5509e	-0.11197017
154	0xbdd09dd9	-0.10186357
155	0xbce7aca6	-0.028280567
156	0xbd170a39	-0.036874983
157	0xbd510d24	-0.051037923
158	0xbd0dc86b	-0.03461496
159	0xbd8600f8	-0.065431535
160	0xbdd875ef	-0.10569369
161	0x3cc8e935	0.024525264
162	0x3c922f68	0.01784487
163	0xbd014ca1	-0.03156722
164	0x3dac4cdc	0.08413097
165	0xbcb612dd	-0.022225792
166	0xbcb441cc	-0.02200403
167	0x3d0c5a9b	0.034266096
168	0x3b9729ec	0.004613152
169	0x3cbf79e0	0.023373544
170	0xbd50a9d6	-0.05094322
171	0xbd65d306	-0.05610945
172	0xbdb35618	-0.087566555
173	0xbd73f54e	-0.059560113
174	0xbd2dd4d3	-0.042439293
175	0xbd8fb64a	-0.07017191
176	0xbdb3b217	-0.08774202
177	0xbd6319e4	-0.055444613
178	0x3c37af89	0.011211284
179	0xbd8b780e	-0.06810008
180	0xbddde839	-0.108353086
181	0xbe03ce5e	-0.12871692
182	0xb95ff23d	-0.00021357178
183	0xbc5bb85c	-0.013410654
184	0xbd617a0f	-0.055048045
185	0xbdf6d5cb	-0.120524965
186	0xbd8cf037	-0.06881755
187	0xbdc5ed3a	-0.09664388
188	0xbd13b30e	-0.03605943
189	0x3dacc739	0.08436436
190	0x3da81503	0.08207133
191	0xbd0624af	-0.032749828
192	0xbdf8359b	-0.121195994
193	0xbbe3364c	-0.006933963
194	0xbd671354	-0.056414917
195	0xbc6ff3f2	-0.014645563
196	0x3d11297a	0.035439946
197	0x3d1eb190	0.038743556
198	0xbda196b8	-0.078900754
199	0x3ce671db	0.028130462
200	0xbd1bd767	-0.03804722
201	0x3d18eb0c	0.037333533
202	0x3d32b0b8	0.043625563
203	0x3bd0faf0	0.0063775703
204	0x3d95aa27	0.073078446
205	0x3b538920	0.0032277778
206	0x3d967235	0.07346002
207	0xbd06c352	-0.032901116
208	0x3c5285a8	0.012849249
209	0x3cd5a886	0.026081335
210	0xbe0dfda7	-0.13866292
211	0xbd8b90c2	-0.0681472
212	0xbe250a0b	-0.16117112
213	0x3c86c609	0.016451852
214	0xbd842c28	-0.06453735
215	0xbcd5342f	-0.02602586
216	0xbe218218	-0.15772283
217	0x3c9d7eed	0.019225562
218	0xbe13b472	-0.14424303
219	0xbc008bea	-0.007845858
220	0xbc521d31	-0.012824343
221	0xbc569801	-0.013097764
222	0xbc8fe65e	-0.017565902
223	0xbdfbfa80	-0.123036385
224	0xbd33658e	-0.043798022
225	0x3c66cc55	0.0140868025
226	0xbdeea71d	-0.11652968
227	0x3d2dfb57	0.042476024
228	0x3bc2aa84	0.005940737
229	0xbd86633b	-0.065618955
230	0xbdfdaae9	-0.12386114
231	0x3a3ddb39	0.00072424446
232	0xbdbcb1f5	-0.0921363
233	0xbbf2f1ba	-0.00741407
234	0xbdfc9453	-0.12332978
235	0xbdf2d859	-0.11857671
236	0x3c8d6430	0.017259687
237	0xbddb319c	-0.107028216
238	0xbd343a76	-0.044001065
239	0x3d186456	0.037205063
240	0x3ce277bc	0.027644984
241	0x3dac7e47	0.08422523
242	0xbdaee4a1	-0.08539701
243	0xbda0c5e8	-0.078502476
244	0x3ca2399b	0.019802859
245	0xbd93b57c	-0.0721235
246	0xbde25b51	-0.110525735
247	0x3d0c34be	0.034229986
248	0x3d616312	0.05502612
249	0xbd4f1e42	-0.050565965
250	0xbcccf934	-0.025021173
251	0x3d365142	0.044511087
252	0x3d647f8d	0.055785704
253	0xbdafca11	-0.08583463
254	0x3dcb9a20	0.099415064
255	0xbc8a002e	-0.016845789

conv2.0.bias f4 [16]
0	0x3ba51ab9	0.005038586
1	0xbde19e2d	-0.11016498
2	0xbdb51a4a	-0.08842905
3	0xbcde68c6	-0.02714957
4	0xbcf4ca4e	-0.029881623
5	0x3c2e6daa	0.010646263
6	0xbe0239cf	-0.12717365
7	0xb93bb5d8	-0.00017901452
8	0x3b773660	0.003772162
9	0xbe53c81d	-0.20681806
10	0x3c8c491a	0.017124701
11	0xbdd31423	-0.10306575
12	0xbe5a7b48	-0.2133609
13	0xbe15cf95	-0.14629968
14	0xbe397645	-0.18111522
15	0x3d0b4856	0.03400453

fc1.0.weight f4 [64, 2704]
0	0x3da86b7e	0.082236275
1	0x3ddf1351	0.10892356
2	0x3de7072e	0.11280666
3	0x3dea8a88	0.11452204
4	0x3df681fa	0.1203651
5	0x3e0221c9	0.127082
6	0x3dccee0b	0.100063406
7	0x3e055054	0.13018924
8	0x3dc038f9	0.09385867
9	0x3e0245e9	0.12721981
10	0x3e010246	0.12598523
11	0x3e035029	0.12823547
12	0x3de7c53c	0.11316916
13	0x3e41c657	0.18923317
14	0x3dc448ba	0.09584184
15	0xbd38279e	-0.044959657
16	0x3d669642	0.05629564
17	0x3d945413	0.072425984
18	0x3dbfe8c9	0.09370572
19	0x3d8f1533	0.06986465
20	0x3d52a9b1	0.05143136
21	0x3db0b48a	0.08628185
22	0x3d87fc41	0.066399105
23	0x3d9af1a8	0.075656235
24	0x3d27af63	0.040938746
25	0x3e0054ca	0.12532344
26	0x3dc56895	0.09639088
27	0x3d947730	0.07249296
28	0x3dc65233	0.09683647
29	0x3dbf556d	0.093424655
30	0x3d960c92	0.07326616
31	0x3d821e43	0.06353428
32	0x3d96c541	0.07361842
33	0x3da2b7f2	0.07945241
34	0x3dad2e9e	0.08456157
35	0x3dae3f71	0.08508194
36	0x3d5b3689	0.053518806
37	0x3d973765	0.073836125
38	0x3dd4a7ec	0.10383591
39	0x3e3a2348	0.18177521
40	0x3dcd817d	0.100344636
41	0x3d5a386d	0.053276468
42	0x3db60989	0.088885374
43	0x3d7b91f6	0.061418496
44	0x3db1f528	0.08689338
45	0x3d817547	0.06321197
46	0x3d911e00	0.070858
47	0x3da5d161	0.080965765
48	0x3d990d17	0.074732
49	0x3d7ff5f9	0.062490437
50	0x3da9dba5	0.08293847
51	0x3df9c4ab	0.121957146
52	0x3dfefeab	0.12450918
53	0x3d9f9c21	0.07793451
54	0x3dc1c065	0.094605245
55	0x3d840b8e	0.064475164
56	0x3d97b449	0.074074335
57	0x3d799e58	0.060942024
58	0x3d78187b	0.06057022
59	0x3dacafec	0.08431992
60	0x3dafc4af	0.08582436
61	0x3d78da21	0.0607549
62	0x3d860a75	0.06544963
63	0x3d5d02d9	0.053957794
64	0x3df02ac0	0.11726904
65	0x3dd0c62e	0.1019405
66	0x3dda3680	0.10654926
67	0x3dbf36b9	0.093366094
68	0x3d37fad6	0.04491695
69	0x3da74a07	0.081684165
70	0x3d8922a1	0.06696058
71	0x3d2a3dc6	0.041562818
72	0x3d52d2bf	0.051470514
73	0x3d957af0	0.07298839
74	0x3d84a32a	0.064764336
75	0x3d9fbd0a	0.07799728
76	0x3d469e62	0.04849089
77	0x3df078da	0.117418006
78	0x3d811bf9	0.063041635
79	0x3db882cf	0.09009325
80	0x3dba9ebb	0.09112307
81	0x3d8468a0	0.06465268
82	0x3d8dff24	0.0693343
83	0x3d949201	0.072544105
84	0x3ccfa84f	0.02534881
85	0x3d711b78	0.058864087
86	0x3cf8b9a4	0.030361958
87	0xbce83af5	-0.028348425
88	0x3d936f19	0.071989246
89	0x3d98235d	0.0742862
90	0x3e04e55d	0.1297812
91	0xbcf6aa03	-0.030110365
92	0x3dcc8b48	0.09987503
93	0x3de5c052	0.11218323
94	0x3dc9a4e7	0.09845906
95	0x3d867038	0.06564373
96	0x3d8ed226	0.069736764
97	0x3d4b4730	0.049628437
98	0x3d9f97bb	0.07792612
99	0x3dc3a39d	0.09552691
100	0x3da3c35d	0.07996247
101	0x3d88048c	0.06641492
102	0x3d5622f4	0.052279428
103	0x3dfa9b17	0.12236612
104	0x3de2d004	0.11074832
105	0x3da10637	0.078625135
106	0x3da671be	0.08127163
107	0x3da48dbe	0.08034848
108	0x3d9a1d67	0.07525139
109	0x3dbdffdf	0.09277319
110	0x3d824cec	0.06362328
111	0x3d6b911c	0.057511434
112	0xbc306002	-0.010765078
113	0x3d6917e0	0.056907535
114	0x3d391cd3	0.045193505
115	0x3d43067c	0.047613606
116	0x3e0e0e8a	0.13872734
117	0x3da7392c	0.081652015
118	0x3d94b5dc	0.072612494
119	0x3db943ac	0.090461105
120	0x3dba37f8	0.090927064
121	0x3da7beba	0.08190675
122	0x3da593f9	0.08084864
123	0x3d75c78a	0.06000475
124	0x3db6fb91	0.08934701
125	0x3dc0d7bd	0.09416149
126	0x3d9e6ce0	0.0773561
127	0x3d7011c0	0.058610678
128	0x3d4c694f	0.049905118
129	0x3e07a064	0.13244778
130	0x3d8099dc	0.06279346
131	0x3db64787	0.089003615
132	0x3dadc2b9	0.08484406
133	0x3d92ced2	0.07168354
134	0x3d8699ac	0.06572279
135	0x3dc19e5c	0.09454033
136	0x3db494f8	0.08817476
137	0x3d927b02	0.07152368
138	0x3d99beac	0.07507071
139	0x3d76b30e	0.060229354
140	0x3dc5fac3	0.096669696
141	0x3d8d8f84	0.06912139
142	0x3dba09f1	0.090839274
143	0x3ddd06ed	0.107923366
144	0x3dcab931	0.09898604
145	0x3db5a668	0.0886963
146	0x3dcb01b9	0.09912438
147	0x3db6a9c4	0.08919099
148	0x3db4e64b	0.088329874
149	0x3daa3f55	0.08312861
150	0x3d731eb7	0.059355464
151	0x3dc18857	0.09449833
152	0x3d7ff10f	0.06248575
153	0x3d92951e	0.07157348
154	0x3da28560	0.079355955
155	0x3de40aa4	0.11134842
156	0x3dd507f9	0.10401911
157	0x3d9eb384	0.07749084
158	0x3db16f4e	0.08663808
159	0x3dad6221	0.08465982
160	0x3d8e50de	0.06949018
161	0x3dd2d9d6	0.10295455
162	0x3da91606	0.08256154
163	0x3da5ac9f	0.080895655
164	0x3d8e9ceb	0.069635235
165	0x3db1b4e1	0.08677078
166	0x3db5cfa8	0.08877498
167	0x3da679e7	0.0812872
168	0x3dcd458a	0.10023029
169	0x3d8e8397	0.069586925
170	0xbc9b55be	-0.018961783
171	0x3c81ad37	0.015829666
172	0x3c94b32f	0.018151848
173	0x3c07590a	0.008260975
174	0xbd292782	-0.041297443
175	0xbc9612e9	-0.018319564
176	0x3c5531d6	0.01301237
177	0xbbc09bbc	-0.00587794
178	0x3d5dfc47	0.05419567
179	0xbd8752fc	-0.06607625
180	0x3c135234	0.008991767
181	0x3c8b7bb5	0.017026762
182	0x39f1fe40	0.00046156533
183	0x3ba499e5	0.0050232285
184	0x3cce422d	0.02517804
185	0x3d80cf1a	0.062895015
186	0x3d5cf6c2	0.053946264
187	0x3d4a09a8	0.049325615
188	0x3d72e59d	0.059301008
189	0x3dad30a6	0.084565446
190	0x3d862677	0.06550305
191	0x3ca46aaf	0.020070402
192	0x3d1c8bc2	0.03821922
193	0x3d71ea95	0.059061605
194	0xbc0d9540	-0.008641541
195	0x3c8f7edb	0.017516544
196	0x3d1a3302	0.0376463
197	0x3d1a1d6d	0.03762572
198	0x3d0a9270	0.03383106
199	0x3d4c3748	0.049857408
200	0x3b25442f	0.0025217643
201	0x3d6cac0a	0.057781257
202	0x3d1539dc	0.036432132
203	0x3ce2302c	0.02761086
204	0x3c1be91a	0.009516025
205	0x3d243ad6	0.040095173
206	0x3d3eff18	0.046629995
207	0xbb918e10	-0.004441984
208	0x3d1e520a	0.038652457
209	0x3c396b90	0.011317149
210	0x3cd2227b	0.025651207
211	0x3d298867	0.04138985
212	0x3d2da713	0.042395663
213	0x3c9eac97	0.019369407
214	0x3d61a627	0.055090096
215	0x3d4f61bc	0.050630316
216	0x3d7ee122	0.062226422
217	0x3be52d4c	0.006993925
218	0x3d844753	0.064589165
219	0x3cf2995a	0.02961414
220	0x3b95afd0	0.0045680776
221	0x3d0b0790	0.03394276
222	0x3cac96cf	0.021068005
223	0x3d7ec6d6	0.062201343
224	0x3d635588	0.05550149
225	0x3d9f610c	0.07782182
226	0xbc256306	-0.01009441
227	0x3d8d655b	0.06904098
228	0x3d82abf5	0.063804545
229	0x3d50d179	0.05098102
230	0x3cde68d7	0.0271496
231	0x3d8eca65	0.069721974
232	0x3d4b59a4	0.049646035
233	0x3c07a08a	0.008278022
234	0x3d372eb8	0.04472229
235	0x3caa1697	0.020762725
236	0x3dc16c7c	0.0944452
237	0x3d72955c	0.05922447
238	0x3d9b613f	0.075869076
239	0x3cee7560	0.029108703
240	0x3d0a757b	0.033803444
241	0x3d9d1197	0.076693706
242	0xbc6bf480	-0.014401555
243	0xbd15b99e	-0.03655397
244	0x3d26631f	0.040621873
245	0x3d802f17	0.06258982
246	0x3c29a52a	0.01035432
247	0x3d18ed40	0.037335634
248	0x3d8c3eb7	0.068478994
249	0x3dcbf29d	0.09958384
250	0x3d7b896a	0.061410345
251	0x3dbe2b3c	0.0928559
252	0x3ccef869	0.025264936
253	0x3d039228	0.032121807
254	0x3c9f2622	0.019427363
255	0x3d26448b	0.04059271

fc1.0.bias f4 [64]
0	0x3cf4b9b4	0.029873706
1	0xbd089fe9	-0.033355627
2	0xbb0282d9	-0.0019914417
3	0xbe07635b	-0.13221495
4	0xbdc8731a	-0.09787579
5	0xbd687038	-0.056747645
6	0xbd89cefd	-0.06728933
7	0xbd47211e	-0.048615567
8	0x3bf6e8ce	0.0075350767
9	0xbdf1adbc	-0.11800715
10	0xbe44a310	-0.19202828
11	0x3cdc4941	0.026890399
12	0xbdefedca	-0.117152765
13	0xbdb9b565	-0.090678014
14	0xbd41b188	-0.047288448
15	0xbe274455	-0.1633466
16	0xbd7eaa0d	-0.06217389
17	0xbceb4480	-0.028719187
18	0xbdbee28f	-0.09320556
19	0xbe10257c	-0.14076799
20	0xbdbe625c	-0.09296104
21	0x3e2a88fe	0.16653821
22	0xbd3e59b3	-0.046472263
23	0xbeeb955b	-0.46012387
24	0xbd4df8af	-0.05028599
25	0xbd5f9bf3	-0.054592084
26	0xbe121ab4	-0.14267999
27	0xbcb12253	-0.021622812
28	0x3cf7915c	0.03022068
29	0xbd4cde86	-0.050016902
30	0xbcb65113	-0.022255456
31	0x3c70fd41	0.014708818
32	0xbe0120c5	-0.12610157
33	0xbd3cafc9	-0.04606608
34	0xbe0e7ae5	-0.13914068
35	0xbd8c5163	-0.06851461
36	0xbd02011f	-0.03173935
37	0xbd9aa872	-0.0755166
38	0xbd8e22d0	-0.06940234
39	0x3d35ad54	0.04435475
40	0x3cbe7667	0.023249818
41	0xbd9f76b7	-0.07786315
42	0xbd015e50	-0.031584084
43	0xbd435697	-0.04769
44	0xbe07bc5b	-0.13255446
45	0xbd956673	-0.07294931
46	0xbc08c4b3	-0.008347678
47	0xbd86f316	-0.06589334
48	0xbde89072	-0.11355676
49	0xbd569232	-0.052385516
50	0xbd85ab9c	-0.065268725
51	0xbd958023	-0.07299831
52	0xbdf34443	-0.11878254
53	0xbde9b660	-0.114117384
54	0xbd71393f	-0.058892485
55	0xbd8c4043	-0.068481945
56	0xbe285c50	-0.16441464
57	0xbeb6c45e	-0.3569669
58	0xbd4cbfc4	-0.04998757
59	0xbd35087d	-0.04419755
60	0xbd618522	-0.055058606
61	0x3dafea92	0.085896626
62	0xbd7a2dc6	-0.06107881
63	0xbe367650	-0.1781857

fc2.0.weight f4 [32, 64]
0	0xbaefb749	-0.0018288876
1	0xbbb9d28f	-0.0056708525
2	0x3e2c9f84	0.16857725
3	0x3cd85588	0.026407972
4	0x3d801fa7	0.06256037
5	0x3dffca54	0.12489763
6	0x3cda8a85	0.02667738
7	0x3d56aa0c	0.052408263
8	0xbcfe2a2c	-0.031025968
9	0xbf1749ae	-0.590968
10	0x3e999cef	0.30002543
11	0x3d9e3134	0.077242285
12	0x3e1d6011	0.15368678
13	0x3dd6074c	0.104506105
14	0xbc9a4a7e	-0.018834349
15	0x3e1852e7	0.14875375
16	0xbc8010de	-0.015633043
17	0x3e208904	0.15677267
18	0xbdcb401c	-0.09924337
19	0x3f3b2af6	0.7311243
20	0x3d8fc480	0.07019901
21	0xbdefb166	-0.11703758
22	0x3d118693	0.03552873
23	0x3ef0eb4c	0.47054517
24	0xbd4ac30d	-0.04950242
25	0xbc855198	-0.016274258
26	0xbd7d2444	-0.061802164
27	0xbd37d82e	-0.0448839
28	0x3dd1e14e	0.102480516
29	0x3dc4a65a	0.096020415
30	0x3e009ae2	0.12559083
31	0x3e4649d1	0.19364096
32	0x3d532981	0.051553253
33	0xbd30da04	-0.043176666
34	0xbde2f235	-0.110813536
35	0x3e3c7c5f	0.18406819
36	0x3eabd77b	0.33562836
37	0x3eaf1f77	0.34203693
38	0xbd066372	-0.032809682
39	0x3d211c57	0.039333668
40	0xbd707afe	-0.058711044
41	0xbd1c097f	-0.038094994
42	0x3bb90c77	0.005647238
43	0x3c48a08d	0.01224531
44	0x3d61fe4c	0.055174157
45	0xbc656377	-0.014000765
46	0xbe0aae70	-0.13543105
47	0xbecb2ffa	-0.3968504
48	0xbd775455	-0.06038316
49	0x3c4efdfe	0.012633799
50	0xbc6ff4d0	-0.01464577
51	0xbda300e4	-0.07959154
52	0x3ecfd6d3	0.40593585
53	0x3dd46930	0.103716254
54	0xbb3dd6bc	-0.0028967103
55	0xbd30636d	-0.04306357
56	0x3e734fa3	0.23760848
57	0xbd3e66df	-0.046484824
58	0x3d8a0b6a	0.06740458
59	0xbd0be11a	-0.03415022
60	0xbdff33d0	-0.12461054
61	0x3ac0f06a	0.0014720086
62	0xbc8ec70a	-0.017428894
63	0xbe3e6172	-0.1859186
64	0x3f2c0528	0.6719537
65	0x3ec5298e	0.38508266
66	0xbb3ad1ae	-0.0028506326
67	0xbcd743da	-0.026277471
68	0xbde2ec40	-0.11080217
69	0x3ce42f54	0.027854599
70	0x3dc24623	0.09486034
71	0x3c959f58	0.018264458
72	0x3d67781f	0.05651104
73	0xbd50f55b	-0.05101524
74	0xbf0eb935	-0.55751354
75	0x3ebc035d	0.36721316
76	0xbc270795	-0.010194679
77	0x3c006ab0	0.007837936
78	0xbcba4fa8	-0.022743061
79	0xbf09c558	-0.5381675
80	0x3da67a5b	0.08128806
81	0x3d8f92a2	0.0701039
82	0x3d83128c	0.06400022
83	0xbef840a6	-0.48486823
84	0x3e22c55d	0.158956
85	0x3e3397e1	0.17538406
86	0x3dfba2ed	0.12286935
87	0xbe06a593	-0.13149099
88	0x3dc03e36	0.09386866
89	0x3dc0bb9e	0.09410785
90	0x3cd93102	0.026512627
91	0xbd167dd0	-0.036741078
92	0x3d903cc4	0.0704284
93	0x3d933dba	0.07189508
94	0x3cc4b794	0.024013318
95	0x3d9d45dc	0.0767934
96	0x3dee173e	0.11625527
97	0x3e376add	0.17911859
98	0xbd91e53b	-0.071238
99	0x3e11e742	0.14248374
100	0xbe473c4f	-0.194566
101	0xbdfcc04b	-0.123413645
102	0x3d2687ab	0.040656727
103	0xbe8e2c6b	-0.27768263
104	0x3ee03201	0.4378815
105	0xbda05983	-0.07829573
106	0xbe44e981	-0.192297
107	0x3d983402	0.07431795
108	0xbd7a593c	-0.061120257
109	0xbdf99ff1	-0.121887095
110	0x3bf90dfe	0.007600545
111	0x3d93c22f	0.07214772
112	0xbd19008b	-0.037354033
113	0xbc782df8	-0.015147679
114	0xbd3fb13c	-0.046799883
115	0x3d70b21c	0.05876361
116	0x3da9088d	0.08253584
117	0xbf33d765	-0.7025054
118	0x3d8a35cb	0.067485414
119	0x3dbb267a	0.09138198
120	0xbf144a52	-0.57925904
121	0xbd601924	-0.054711476
122	0x3d094e94	0.033522204
123	0xbcd64749	-0.026157038
124	0xbf13155b	-0.5745446
125	0x3ee5f177	0.44910786
126	0x3db8b190	0.09018242
127	0xbec3d64a	-0.38249427
128	0xbe55f398	-0.20893705
129	0xbebc20c5	-0.3674375
130	0xbdb08f38	-0.08621067
131	0xbd305d92	-0.043057986
132	0xbdd9638e	-0.10614692
133	0xbdaafe6b	-0.083493076
134	0x3da0eb68	0.078574
135	0x3bcb45b2	0.0062033767
136	0xbd91ca34	-0.07118645
137	0xbe21ca52	-0.15799835
138	0xbd4e6ae0	-0.050394893
139	0xbf0d559a	-0.5520874
140	0x3ec546b0	0.38530493
141	0xbd6a722c	-0.05723779
142	0xbd8e587a	-0.06950469
143	0x3b9d8c06	0.004807952
144	0x3dc5fb44	0.09667066
145	0x3d8b47d1	0.06800807
146	0x3d4f6ad8	0.050639004
147	0x3f00e5ee	0.50350845
148	0x3d998f92	0.07498087
149	0xbe008a26	-0.125527
150	0xbdb8adaa	-0.09017499
151	0xbe0c5eef	-0.1370809
152	0xbdf1b3dc	-0.118018836
153	0xbd69713a	-0.056992747
154	0xbd9d0f17	-0.07668894
155	0x3ccb2a7f	0.024800537
156	0x3e3da4ac	0.18519849
157	0x3d81daf6	0.063405916
158	0x3dd0f979	0.10203833
159	0x3e6fccec	0.23418015
160	0xbce2bde8	-0.027678445
161	0xbd6d6c50	-0.057964623
162	0xbe0d04e0	-0.13771391
163	0x3dc42266	0.095768735
164	0xbe26631f	-0.16248749
165	0x3e7c68cb	0.2464935
166	0xbdd74f22	-0.1051314
167	0xbe0c8cb8	-0.13725555
168	0xbf0ce206	-0.55032384
169	0x3e09016b	0.13379447
170	0x3c20056d	0.009766919
171	0x3c4a3ad0	0.012343124
172	0xbc7511a5	-0.01495782
173	0x3d8aa16f	0.06769072
174	0xbcdf39bd	-0.027249211
175	0xbe7b49d9	-0.2453989
176	0xbc8d1f07	-0.017226709
177	0xbdffc23c	-0.12488219
178	0xbd0bb7bc	-0.03411077
179	0xbd685405	-0.056720752
180	0xbe887fcc	-0.2666
181	0x3d1c72b5	0.03819533
182	0x3d1dcbbc	0.038524374
183	0x3c4f4e80	0.012652993
184	0x3dec4b1c	0.115377635
185	0x3e6ac4a8	0.22926581
186	0xbdbf24a0	-0.093331575
187	0xbd2b8c10	-0.04188162
188	0xbdec7f4a	-0.11547716
189	0xbf0c8839	-0.5489536
190	0xbda50c22	-0.08058955
191	0xbf37bdbf	-0.71773905
192	0xbe118ef0	-0.14214683
193	0xbde84bec	-0.11342606
194	0xbcc38dd2	-0.023871336
195	0xbd09bfd4	-0.033630207
196	0x3cb2e300	0.021836758
197	0xbbaddc33	-0.005305791
198	0x3e163c7c	0.1467151
199	0xbdf37017	-0.11886614
200	0xbdb34d54	-0.087549835
201	0xbe4e4161	-0.20142128
202	0x3e3c2fd2	0.18377617
203	0xbe334142	-0.17505363
204	0xbdf57277	-0.11984723
205	0x3d2bbebc	0.041929945
206	0x3dc7bed8	0.097531974
207	0x3eee7934	0.46576846
208	0xbd4b4e27	-0.04963508
209	0x3d609333	0.05482788
210	0xbcd0def7	-0.025496943
211	0x3cdb2b23	0.026753968
212	0x3d7f9154	0.062394455
213	0xbe49ab6b	-0.19694297
214	0xbcb08646	-0.021548402
215	0xbd15172a	-0.036399044
216	0x3df99b08	0.12187773
217	0x3e26434c	0.16236609
218	0xbd485564	-0.04890956
219	0xbcb0d575	-0.02158616
220	0x3d7ca624	0.06168188
221	0xbcccbe9a	-0.02499323
222	0xbcf18b5a	-0.029485393
223	0x3cddccd3	0.027075207
224	0x3cf41f45	0.029800067
225	0x3dd5e090	0.104432225
226	0xbe560af4	-0.20902616
227	0xbc0106df	-0.007875173
228	0x3db82616	0.08991639
229	0x3d32815b	0.043580394
230	0x3d1a4ed2	0.037672825
231	0xbddb06ad	-0.10694633
232	0xbe012080	-0.12610054
233	0xbca06b43	-0.019582396
234	0x3d74179e	0.059592836
235	0x3de3f522	0.1113074
236	0x3c156530	0.009118363
237	0xbe004ed0	-0.12530065
238	0x3e42a5b9	0.1900853
239	0xbd338b19	-0.043833826
240	0xbe39dfc7	-0.1815177
241	0xbc66006e	-0.014038188
242	0x3db29a54	0.08720842
243	0x3ba43ff4	0.0050125066
244	0x3cffcc05	0.031225214
245	0x3f30ad0a	0.69014037
246	0x3dbfc89f	0.09364437
247	0xbd590e1c	-0.05299197
248	0x3edb760b	0.42863497
249	0x3e3f87a8	0.18704093
250	0x3d98b093	0.07455554
251	0x3c8f3d8c	0.017485403
252	0x3ed7e5f8	0.4216764
253	0xbde4a5b0	-0.11164415
254	0x3de81c05	0.11333469
255	0x3ded8f28	0.115995705

fc2.0.bias f4 [32]
0	0x3dd44b73	0.10365953
1	0x3d8bfcf2	0.06835355
2	0xbe44acf7	-0.19206606
3	0xbe97abbe	-0.29623216
4	0xbd85c226	-0.065311715
5	0xbe4eada5	-0.20183428
6	0x3f20444e	0.62604225
7	0x3efaa4be	0.48953813
8	0x3e31651e	0.1732373
9	0x3f162e39	0.5866428
10	0x3ef4089d	0.4766282
11	0x3d849a80	0.06474781
12	0xbe0c11c0	-0.13678646
13	0x3c96ad6c	0.01839324
14	0xbee41de8	-0.44554067
15	0xbd1c18c2	-0.03810955
16	0x3f228793	0.6348812
17	0xbe6b994d	-0.23007698
18	0xbd88c049	-0.066773005
19	0xbe667100	-0.22504044
20	0xbee73756	-0.45159405
21	0xbd69fb9f	-0.05712473
22	0xbe8546dc	-0.26030624
23	0x3ea4d1fc	0.32191455
24	0xbda83fc5	-0.08215288
25	0x3df16ab3	0.117879294
26	0xbd93710b	-0.071992956
27	0x3e9efb1a	0.3105095
28	0xbe8945bb	-0.26811013
29	0x3d9b4c61	0.075829275
30	0x3e34362c	0.1759879
31	0xbf184654	-0.5948231

fc3.0.weight f4 [6, 32]
0	0x3d28df40	0.041228533
1	0xbee5df97	-0.44897148
2	0x3e7b8ca5	0.2456537
3	0x3eb662bb	0.356222
4	0x3e2b9a52	0.16758087
5	0x3d0347c7	0.032050874
6	0x3f7b4695	0.98154575
7	0x3f352ca3	0.70771235
8	0xbf0b6418	-0.54449606
9	0x3d2e172f	0.04250258
10	0x3f204b5f	0.6261501
11	0xbee81894	-0.45331252
12	0x3d4700dc	0.048584804
13	0x3d8b7838	0.06810039
14	0xbb714bfd	-0.0036818974
15	0xbf094000	-0.5361328
16	0x3f3b3ed1	0.73142725
17	0x3db99b3c	0.09062812
18	0xbcea4fe8	-0.028602555
19	0x3cb26e30	0.021781057
20	0x3e8eb7c1	0.27874568
21	0xbeead5c0	-0.45866203
22	0xbc863ff6	-0.01638792
23	0xbe4e0ad7	-0.20121323
24	0xbe751d60	-0.23936987
25	0xbefdba83	-0.4955636
26	0xbd463157	-0.048386898
27	0x3d59e060	0.053192496
28	0xbe0f0584	-0.13966948
29	0x3f32f3dc	0.6990335
30	0x3ecd69c5	0.40119758
31	0x3dbba516	0.09162347
32	0xbd1f621d	-0.038911927
33	0x3efa90b7	0.48938534
34	0xbe73055a	-0.2373251
35	0xbec0fa1d	-0.3769082
36	0xbe6cea3b	-0.23136227
37	0xbd0a75b8	-0.03380367
38	0xbf79fec8	-0.9765439
39	0xbf3b015c	-0.7304895
40	0x3f15988e	0.58435905
41	0xbd02ae08	-0.03190425
42	0xbf1b15ef	-0.60580343
43	0x3ecc5733	0.39910278
44	0xbd38002d	-0.044922043
45	0xbd1d9121	-0.038468484
46	0x3c424c39	0.011858993
47	0x3f13ec02	0.57781994
48	0xbf40bdbd	-0.7528952
49	0xbf123842	-0.5711709
50	0xbd6b4cca	-0.05744628
51	0xbc9eb396	-0.019372743
52	0xbe90f4f7	-0.28311893
53	0x3efa79c6	0.4892103
54	0x3c1540e9	0.009109714
55	0x3e5414c3	0.20711045
56	0x3e71234d	0.23548622
57	0x3eec9362	0.46206194
58	0x3d696298	0.056978792
59	0xbd29f9c3	-0.041497957
60	0xbdb3cb47	-0.087790065
61	0xbf36c7ff	-0.7139892
62	0xbed876d9	-0.42278174
63	0xbf022be4	-0.5084822
64	0x3d4c7da7	0.04992452
65	0xbf73222b	-0.9497401
66	0xbdf01453	-0.117226265
67	0xbda0958a	-0.07841022
68	0xbf3b8644	-0.7325175
69	0xbdaf3c7c	-0.08556458
70	0x3e72563e	0.23665711
71	0xbcb82f31	-0.02248344
72	0xbea1780c	-0.315369
73	0xbe4d69ca	-0.20059887
74	0x3ac83daf	0.0015277172
75	0xbe82989d	-0.2550706
76	0x3c1b1738	0.009465985
77	0xbefd0338	-0.49416518
78	0xbebd3407	-0.36953756
79	0xbed80916	-0.42194432
80	0x3f392967	0.723288
81	0x3d9b1657	0.0757262
82	0xbd2e3311	-0.04252917
83	0xbeef95c7	-0.4679396
84	0xbebc8dca	-0.36826926
85	0xbe94bb71	-0.29049256
86	0xbf085c7e	-0.5326613
87	0xbe86a9ae	-0.2630133
88	0xbf845979	-1.0339805
89	0xbe9b713c	-0.30359828
90	0xbeefa5bc	-0.46806133
91	0xbe782c81	-0.24235727
92	0xbcba20e3	-0.02272076
93	0xbd8a1af6	-0.06743424
94	0xbd329a6c	-0.0436043
95	0x3d3f86bd	0.046759356
96	0xbe9a65ef	-0.30155894
97	0xbdfb6600	-0.12275314
98	0xbe8e0f41	-0.27746013
99	0xbf2e3fcc	-0.68066096
100	0xbf001d0b	-0.50044316
101	0xbefa4c32	-0.48886257
102	0x3e6b7b43	0.2299624
103	0x3e8a69d5	0.27033868
104	0xbec2b234	-0.38026583
105	0xbe02b595	-0.1276458
106	0x3c9ba53b	0.018999686
107	0xbebec5c7	-0.37260267
108	0xbe35a601	-0.17739107
109	0xbdbfa802	-0.09358217
110	0xbebc96bb	-0.36833748
111	0xbec9a75a	-0.39385492
112	0xbe1c0628	-0.15236723
113	0xbec0e936	-0.37677926
114	0x3dd21ade	0.10259031
115	0xbd8d8f45	-0.06912092
116	0xbe87b1a0	-0.26502705
117	0xbecd0c40	-0.40048409
118	0xbe23d8cc	-0.1600067
119	0x3e682af0	0.2267263
120	0xbdc5f0dc	-0.09665081
121	0xbea72709	-0.3264697
122	0xbcbe1639	-0.023203956
123	0xbdf49545	-0.119425334
124	0x3d2502c5	0.040285844
125	0xbd685a39	-0.056726668
126	0xbba9d565	-0.0051829093
127	0xbf4d6121	-0.8022633
128	0xbf456610	-0.7710886
129	0x3c6a95ed	0.014317972
130	0xbecb766e	-0.39738792
131	0xbd0fb6e9	-0.035086546
132	0x3de8601b	0.11346456
133	0xbf5060b4	-0.8139756
134	0xbc6cf7ca	-0.014463374
135	0x3e267f39	0.16259469
136	0x3ca8b0cc	0.020592116
137	0x3f4f6adf	0.8102245
138	0x3d001216	0.031267248
139	0x3cb1ce59	0.02170484
140	0xbf775796	-0.9661802
141	0x3e7e09e3	0.24808459
142	0xbf00867d	-0.5020521
143	0x3c1da26a	0.009621242
144	0xbda5545d	-0.08072732
145	0xbe7381e8	-0.23780024
146	0x3c9efdf5	0.019408206
147	0xbf033282	-0.51248944
148	0x3d270e0b	0.040784877
149	0x3d6f89e0	0.058481097
150	0xbef9ba49	-0.48774937
151	0xbe980feb	-0.29699644
152	0x3f3316a6	0.69956434
153	0x3ccff14a	0.02538361
154	0xbf0a7dfc	-0.54098487
155	0x3e86cf1d	0.2632989
156	0xbdc33d5c	-0.09533188
157	0xbd021c2d	-0.03176515
158	0xbe3bae6b	-0.18328254
159	0xbdbb741f	-0.09153008
160	0x3be0ee9b	0.0068643815
161	0xbf25f114	-0.6482098
162	0x3ead9da3	0.3390933
163	0x3b97e61c	0.0046355855
164	0x3d57f757	0.052726116
165	0x3c8df348	0.01732792
166	0xbf8cdb74	-1.1004472
167	0xbe66fca5	-0.22557314
168	0xbf254322	-0.6455556
169	0xbd3720a6	-0.04470887
170	0xbe8a7d1c	-0.27048576
171	0xbf16961d	-0.58822805
172	0x3ce60afc	0.02808141
173	0x3cac13ca	0.02100553
174	0x3d19aca4	0.03751816
175	0xbf1d2e66	-0.61398923
176	0xbe284dd1	-0.16435935
177	0xbf03ba2b	-0.51455945
178	0x3d34bb06	0.044123672
179	0x3d131b13	0.03591449
180	0x3edce881	0.43146136
181	0xbf21eae1	-0.6324902
182	0x3bb9925f	0.0056632007
183	0xbf27a1c7	-0.6548123
184	0xbd4bb246	-0.04973056
185	0xbf22d676	-0.6360849
186	0x3c5bab3b	0.013407524
187	0xbeab2789	-0.334286
188	0x3d974b72	0.07387437
189	0xbd5e2a9d	-0.054239858
190	0x3ec3b953	0.3822733
191	0xbf209ee9	-0.6274248

fc3.0.bias f4 [6]
0	0x3ee58106	0.44825
1	0xbf0e88e9	-0.5567766
2	0x3f56932c	0.83818316
3	0xbcdf5eef	-0.027266948
4	0x3e95c5d3	0.2925249
5	0x3c90f8ac	0.017696701
