Models/state_dict_2020.pth (torch, 59535 bytes, 38 tensors)

conv1.0.weight f4 [32, 1, 3, 3]
-0.13218775 0.19334005 -0.12313535 0.24526888 -0.035200495 -0.282976 -0.0029155915 0.29087424
-0.12806523 0.108669415 -0.10472536 -0.041815136 -0.21988414 0.26807678 0.28343412 -0.009483797
-0.06681241 -0.26026592 -0.09369493 0.2322984 -0.17727672 0.084568344 -0.27443832 -0.11777832
0.07164109 0.23860015 -0.15591249 0.16414016 0.037773777 -0.0036049993 -0.2129029 -0.15178537
0.21478407 0.17977782 0.10680643 0.20963736 0.18643224 0.078228384 0.005627079 -0.04967377
0.10089442 0.14207147 -0.02803236 0.21667731 -0.016196104 0.20241918 0.17448911 0.053428765
0.034794055 -0.19813895 0.20772696 -0.22288625 0.21823654 0.0823804 -0.09910787 -0.18592761
-0.22842471 0.1885602 0.25954428 -0.011916918 -0.26590988 0.08598142 -0.16641167 0.2588754
-0.0115486635 -0.16285071 -0.16749729 0.09011372 -0.03003131 0.121543564 -0.2220348 -0.01861798
-0.10307312 0.24266891 -0.06408691 -0.1482172 0.019895913 -0.072306946 0.21921432 0.11589593
-0.0124642635 -0.24703126 -0.23142931 0.1088285 -0.21895073 -0.21493998 0.2724442 0.033883315
0.27993196 0.28580302 -0.26309326 0.21065533 -0.08584944 0.19792481 -0.12900627 0.19302091
0.27712065 -0.12933658 -0.040460505 0.19884332 -0.19164388 -0.13257441 -0.2616201 0.094532385
0.028046252 0.18585554 -0.07219684 0.20002717 0.14110543 -0.29446912 0.00072948047 0.19855377
-0.062138036 0.16348049 0.22120431 -0.29299653 -0.087178 0.259485 -0.11698963 -0.12995574
0.13265249 0.096253365 0.1658712 0.10169453 -0.08716544 0.018418234 -0.19228005 -0.20215562
0.24029492 -0.1766186 0.069237605 -0.07302621 -0.24195313 0.06759448 -0.1294457 0.12091895
0.12763351 -0.22867392 0.17958301 -0.18609071 0.14666791 0.13240257 -0.2478549 0.2046085
-0.14700413 -0.06302678 0.03347104 0.05573272 -0.19508792 0.19562334 -0.06536786 0.10024734
0.21429318 -0.049848385 0.06495959 0.065805465 -0.18357912 0.16466272 -0.054646607 -0.100724615
-0.19326831 -0.08618563 -0.28818163 0.30463874 -0.25145453 0.24132916 -0.14115894 0.26413158
-0.04764493 -0.23852721 0.07864992 0.12649192 -0.047727298 0.098026045 -0.1660299 0.2801622
-0.21810684 -0.22279216 -0.08131514 0.22751006 -0.17051277 0.29659203 -0.055601537 0.32619926
-0.1633093 -0.2625336 -0.028971137 -0.21938053 0.16450882 -0.15612459 -0.16883022 -0.06242483
-0.24244277 -0.019321345 0.13252406 -0.16435552 -0.14719337 -0.013760323 0.13234717 -0.2814838
0.280094 -0.07946589 0.1187664 0.2861852 -0.007520825 -0.19633146 -0.11107147 0.18726398
0.27475685 -0.23939836 -0.008126699 -0.043182638 0.11978179 -0.006255134 -0.06879628 -0.26007858
-0.276211 0.25140852 0.045765206 -0.19460118 0.28149295 -0.1532734 0.16867842 -0.19649838
0.20587458 0.2744798 0.13842769 0.020506851 0.15647 -0.29661736 -0.03980753 -0.1964473
-0.06369777 0.060599625 0.08965254 0.11812268 -0.08282017 -0.023751786 -0.02585885 -0.24241608
0.1929906 -0.20316027 -0.14640096 0.0045888983 -0.2364126 -0.10819601 0.099694096 -0.12605996
-0.19133112 0.0008429011 -0.09877281 -0.2377259 -0.14747976 -0.054075148 -0.027342396 0.044460762
00000000: 3a5c 07be effa 453e 632e fcbd c427 7b3e
00000010: 652e 10bd 3be2 90be 8213 3fbb 78ed 943e
00000020: 8823 03be 128e de3d 407a d6bd 5946 2bbd
00000030: 4f29 61be 5c41 893e 471e 913e ed61 1bbc
00000040: f2d4 88bd 9341 85be 21e3 bfbd a2df 6d3e
00000050: 0788 35be 2b32 ad3d 2e83 8cbe c335 f1bd
00000060: 90b8 923d 9953 743e 86a7 1fbe 5c14 283e
00000070: adb8 1a3d da41 6cbb 3803 5abe a06d 1bbe
00000080: 5bf0 5b3e ad17 383e 54bd da3d 2dab 563e
00000090: 18e8 3e3e 3436 a03d 5c63 b83b b976 4bbd
000000a0: bca1 ce3d 2f7b 113e 1fa4 e5bc a8e0 5d3e
000000b0: b1ad 84bc f946 4f3e 46ad 323e 1fd8 5a3d
000000c0: 3684 0e3d f0e4 4abe 60b6 543e 4b3c 64be
000000d0: 6679 5f3e 0eb7 a83d 11f9 cabd cf63 3ebe
000000e0: 2be8 69be ed15 413e fde2 843e 2d3f 43bc
000000f0: 5725 88be 0717 b03d d267 2abe 518b 843e
00000100: 9b36 3dbc 56c2 26be 6984 2bbe 8b8d b83d
00000110: 3904 f6bc d5eb f83d 175d 63be bc84 98bc
00000120: 0018 d3bd 337e 783e ff3f 83bd 40c6 17be
00000130: c1fc a23c aa15 94bd b879 603e d85a ed3d
00000140: e936 4cbc c3f5 7cbe cefb 6cbe 7ae1 de3d
00000150: 9f34 60be 3a19 5cbe ce7d 8b3e 3bc9 0a3d
00000160: 3e53 8f3e c654 923e 29b4 86be 08b6 573e
00000170: d5d1 afbd cdac 4a3e 381a 04be 46a7 453e
00000180: c2e2 8d3e cf70 04be eab9 25bd 959d 4b3e
00000190: 4b3e 44be 96c1 07be 12f3 85be 329a c13d
000001a0: 41c1 e53c ea50 3e3e f0db 93bd ecd3 4c3e
000001b0: f17d 103e a8c4 96be 9b3a 3f3a ae51 4b3e
000001c0: 7484 7ebd 6e67 273e 6283 623e a403 96be
000001d0: 618a b2bd 38db 843e 4298 efbd 1e13 05be
000001e0: 0ed6 073e 7c20 c53d 24da 293e 3945 d03d
000001f0: cb83 b2bd d6e1 963c 10e5 44be e201 4fbe
00000200: df0f 763e 82db 34be 72cc 8d3d c48e 95bd
00000210: 90c2 77be fa6e 8a3d 6a8d 04be 5ba4 f73d
00000220: 5cb2 023e 7f29 6abe 9ce4 373e 908e 3ebe
00000230: 1d30 163e 8a94 073e adcd 7dbe e484 513e
00000240: 4088 16be 2f14 81bd ee18 093d fe47 643d
00000250: 21c5 47be 7c51 483e 96df 85bd 7a4e cd3d
00000260: ac6f 5b3e d22d 4cbd 8909 853d 04c5 863d
00000270: 2afc 3bbe 589d 283e 1fd5 5fbd b548 cebd
00000280: 21e8 45be 1782 b0bd 8b8c 93be 9cf9 9b3e
00000290: a6be 80be fe1e 773e f88b 10be 413c 873e
000002a0: 5527 43bd 7a40 74be 3613 a13d 1987 013e
000002b0: b37d 43bd e1c1 c83d be03 2abe 6b71 8f3e
000002c0: 6657 5fbe a123 64be 8d88 a6bd 66f8 683e
000002d0: e69a 2ebe e9da 973e 70be 63bd 9703 a73e
000002e0: 8e3a 27be ce6a 86be e154 edbc 4aa5 60be
000002f0: 0075 283e 20df 1fbe d4e1 2cbe 2eb1 7fbd
00000300: eb42 78be cc47 9ebc 63b4 073e d04c 28be
00000310: dcb9 16be fa72 61bc 0486 073e a51e 90be
00000320: 7b68 8f3e 03bf a2bd cc3b f33d de86 923e
00000330: 4171 f6bb 1d0b 49be 7079 e3bd 21c2 3f3e
00000340: eeac 8c3e d824 75be d925 05bc 47e0 30bd
00000350: 2850 f53d def7 ccbb 10e5 8cbd 0529 85be
00000360: 876b 8dbe 9eb8 803e 4c74 3b3d 8845 47be
00000370: d81f 903e b4f3 1cbe 09ba 2c3e df36 49be
00000380: c9d0 523e 9e88 8c3e fdbf 0d3e fcfd a73c
00000390: ac39 203e 3bde 97be 380d 23bd 7b29 49be
000003a0: fa73 82bd 5037 783d c09b b73d 4eea f13d
000003b0: 9f9d a9bd 1b93 c2bc f0d5 d3bc ec3b 78be
000003c0: 549f 453e 3f09 50be 22ea 15be 785e 963b
000003d0: 2516 72be df95 ddbd 6b2c cc3d dd15 01be
000003e0: 4eec 43be 23f6 5c3a 6649 cabd 6b6e 73be
000003f0: ef04 17be e77d 5dbd 29fd dfbc 7d1c 363d

conv1.0.bias f4 [32]
-0.0022521573 0.00038229537 -2.0805383e-06 -2.5166271e-05 -1.0346471e-06 5.090217e-05 0.003337859 -0.0061000003
-8.259268e-06 -1.9353552e-05 -1.504457e-06 -0.0036169272 7.842684e-06 3.428915e-06 -0.0007668435 7.253202e-05
0.0003888341 0.004622181 0.0006439071 -2.1224473e-06 -4.688986e-05 -6.0093726e-06 -5.8642663e-06 -6.4344104e-06
3.7332065e-05 -0.00032597198 -3.3045235e-05 0.0006871284 -7.128184e-06 1.2444156e-05 -1.1513131e-05 -0.000105471874
00000000: ee98 13bb d16e c839 609f 0bb6 281c d3b7
00000010: 34de 8ab5 ca7f 5538 fbbf 5a3b 83e2 c7bb
00000020: 4991 0ab7 7059 a2b7 c0ec c9b5 f809 6dbb
00000030: 1294 0337 501c 6636 ff05 49ba 551c 9838
00000040: 6edc cb39 aa75 973b e0cb 283a 5e6f 0eb6
00000050: 9bab 44b8 1ea4 c9b6 aac5 c4b6 2ae7 d7b6
00000060: 0095 1c38 38e7 aab9 0d9a 0ab8 6820 343a
00000070: a22e efb6 3ec7 5037 8528 41b7 c830 ddb8

conv1.1.weight f4 [32]
0.76782495 0.8861371 0.7491957 0.72190815 0.7445378 0.7745654 0.785388 0.7468062
0.7350298 0.79025173 0.73741424 0.7856225 0.8391798 0.71280974 0.81226665 0.7504677
0.76908934 0.78494656 0.8980907 0.8532662 0.8321437 0.78347003 0.8133817 0.7869141
0.8844152 0.7936393 0.80706906 0.8431805 0.7539442 0.81786114 0.8210252 0.8571241
00000000: 2d90 443f e2d9 623f 4acb 3f3f f9ce 383f
00000010: 079a 3e3f eb49 463f 300f 493f b12e 3f3f
00000020: ea2a 3c3f f04d 4a3f 2ec7 3c3f 8e1e 493f
00000030: 7dd4 563f b37a 363f b5f0 4f3f a71e 403f
00000040: 0ae3 443f 42f2 483f 46e9 653f a76f 5a3f
00000050: 5f07 553f 7e91 483f c839 503f 3473 493f
00000060: 0969 623f f22b 4b3f 149c 4e3f adda 573f
00000070: 7d02 413f 595f 513f b52e 523f 7c6c 5b3f

conv1.1.bias f4 [32]
-0.015563459 0.017212331 0.025377981 -0.033370644 -0.025570313 -0.045765214 0.016517492 -0.0030636655
-0.01993225 0.0066703144 -0.0063598496 -0.022478571 0.011486242 -0.011676457 -0.0017811516 -0.046625998
-0.015202564 -0.03149724 0.020869078 -0.024072556 -0.00075309456 -0.016489418 0.0021073492 -0.01363547
-0.012980181 -0.016630864 0.008592965 -0.0049177404 -0.025811864 -0.008309016 -0.01034457 0.0062504946
00000000: e1fd 7ebc e000 8d3c 7ce5 cf3c a8af 08bd
00000010: d578 d1bc 4e74 3bbd b14f 873c c7c7 48bb
00000020: f548 a3bc a792 da3b 4966 d0bb fb24 b8bc
00000030: ca30 3c3c 9c4e 3fbc 8875 e9ba e7fa 3ebd
00000040: 2d14 79bc 4003 01bd a1f5 aa3c cf33 c5bc
00000050: 526b 45ba d114 87bc 741b 0a3b 4e67 5fbc
00000060: d3aa 54bc 733d 88bc 82c9 0c3c ff24 a1bb
00000070: 6773 d3bc 8a22 08bc 457c 29bc f3d0 cc3b

conv1.1.running_mean f4 [32]
0.010486748 0.007892406 -0.14108723 0.32987618 0.437465 0.37287134 -0.23724021 -0.1138235
0.12206617 0.020526834 0.14019756 -0.0032777102 -0.034336906 0.28260797 -0.39657378 0.13661245
0.073900834 -0.20807296 -0.03308425 0.015156403 -0.08590491 -0.5420074 0.10753641 -0.012230434
0.09848933 0.022453116 -0.22687574 -0.60706747 0.030247934 -0.31017068 0.38106805 -0.3610018
00000000: 9cd0 2b3c 264f 013c 2c79 10be 88e5 a83e
00000010: 6afb df3e fee8 be3e 19ef 72be 4c1c e9bd
00000020: d4fd f93d e427 a83c f38f 0f3e dace 56bb
00000030: dba4 0cbd feb1 903e b80b cbbe 22e4 0b3e
00000040: 5259 973d 1411 55be 5a83 07bd 9052 783c
00000050: eaee afbd ffc0 0abf 0d3c dc3d 2962 48bc
00000060: c6b4 c93d 99ef b73c 1d52 68be c668 1bbf
00000070: 84ca f73c b1ce 9ebe 5a1b c33e 3ad5 b8be

conv1.1.running_var f4 [32]
0.042506102 0.013722587 0.028969921 0.053507637 0.06294917 0.058570057 0.046971515 0.014649621
0.015927246 0.08271754 0.020675879 0.013866774 0.022850607 0.045092713 0.086703 0.022926686
0.027295338 0.038668405 0.018297547 0.018406253 0.015576967 0.1248384 0.03244949 0.028717797
0.017827507 0.026950853 0.04131274 0.12390232 0.033337954 0.059113067 0.06738285 0.059967663
00000000: e11a 2e3d b4d4 603c 5452 ed3c d32a 5b3d
00000010: 7feb 803d 28e7 6f3d 3465 403d f704 703c
00000020: db79 823c d067 a93d 7660 a93c 7731 633c
00000030: 3231 bb3c 23b3 383d 5891 b13d bfd0 bb3c
00000040: 799a df3c c362 1e3d bde4 953c b6c8 963c
00000050: 8936 7f3c 46ab ff3d c2e9 043d 9641 eb3c
00000060: fe0a 923c 09c8 dc3c 8c37 293d 80c0 fd3d
00000070: 618d 083d 8b20 723d 0500 8a3d a7a0 753d

conv2.0.weight f4 [16, 32, 3, 3]
0.0043223035 0.043492872 -0.025084376 -0.012025592 -0.021347813 -0.012089074 0.07142683 -0.03798542
0.014933969 0.0162598 -0.0021736783 0.06184128 0.035226688 0.03674422 0.012829362 0.01095852
-0.018391954 -0.016503064 -0.05245168 -0.00101275 0.04718521 0.018729761 0.053327426 -0.013196594
0.037818138 -0.024925146 -0.013173776 0.05874984 0.05573583 -0.027488092 -0.004028266 -0.0036647308
-0.03644286 -0.0014716563 0.039971106 -0.04361072 0.033291046 0.026954891 0.022468816 -0.013434002
-0.040240433 -0.032441545 -0.02599477 -0.04903425 -0.00620832 0.00048653744 0.04082683 0.020825999
-0.018037522 -0.0508082 0.025807181 0.010098302 0.0052997964 -0.035432357 0.014070004 0.008793527
9.901356e-05 0.055520326 0.013877317 -0.011569551 0.033763923 0.014414006 0.008595246 -0.040645037
-0.014115404 0.009180252 0.053211804 -0.026273798 0.023084689 0.04937585 0.03288831 0.04124614
-0.00060034165 0.023452526 -0.049509317 0.026680732 0.027995694 -0.024185576 0.05006776 -0.030890778
-0.020495635 0.049000233 -0.058677632 -0.030476341 0.009639507 0.0041551194 0.006199863 -0.0064533297
0.05401819 -0.03402915 -0.054559 0.05552577 -0.023717064 -0.042061057 0.013935353 0.014590512
0.041765343 -0.030595446 0.005929248 0.0028195668 0.021034697 -0.048053242 -0.0065875133 -0.048359808
-0.01928783 -0.049935836 -0.019693417 -0.07581774 -0.026904196 0.071924955 0.03945288 0.024916248
0.0321179 0.004423361 -0.009406225 0.07849265 0.050700244 0.018366823 -0.0126113575 0.020868871
-0.03421071 0.044092838 0.012711589 0.005133123 -0.0307368 0.0076212073 -0.007656315 0.017656634
-0.037564598 0.04294333 -0.020630071 -0.0099808015 -0.03707642 -0.043927044 0.050354853 0.01877704
0.060915325 0.05806903 0.029292906 0.07079669 -0.022925338 -0.00057381426 0.039325375 -0.012088978
0.0043616886 0.010516626 -0.04209066 -0.04113734 -0.0027205553 -0.023139326 -0.040532097 0.060485914
-0.03837204 0.019641737 0.014782262 -0.034588948 0.051546678 0.026106512 0.007470156 -0.05043552
0.0400684 0.007942529 -0.032482006 0.04250869 -0.056944143 -0.023991503 0.0038728523 0.019250741
-0.044094466 -0.091099925 -0.04633049 0.032075673 0.014626164 -0.01665831 -0.016112033 0.011126321
-0.025897503 -0.030681767 -0.055208452 0.063500695 -0.05941218 0.06785945 0.05409976 -0.03934565
-0.0059830174 -0.04851038 0.053858936 0.004119984 0.03980579 -0.037973274 0.023320602 0.01833552
0.035519388 0.02871224 -0.052896246 -0.0049665975 -0.048900813 0.045953758 -0.0038542955 -0.0055036726
0.028105779 0.011093313 0.017595852 -0.009583364 0.025546445 0.015286497 -0.05137731 -0.020847183
-0.020394232 0.06626594 0.052003574 0.063615486 0.02654411 0.057522174 0.026526824 0.016707703
0.045831952 0.06875304 -0.057279736 0.039486688 0.0036518096 -0.0047061797 0.046578735 -0.037890524
0.055532105 0.03710668 -0.007955405 0.049099322 0.0237056 8.634082e-05 0.010099291 0.032577343
0.015463029 -0.041778628 -0.017349157 0.057083305 0.026459787 0.062054556 0.024333538 0.056668524
-0.019286575 0.058760878 0.035561685 0.054014135 0.039412905 0.01228846 -0.04478683 0.029773444
0.03683232 0.014539187 0.04134898 0.049664494 0.00577858 0.047711514 0.027142648 0.011188357
00000000: 1ca2 8d3b 9525 323d c07d cdbc fd06 45bc
00000010: 9ce1 aebc 4011 46bc 3b48 923d 9a96 1bbd
00000020: 9bad 743c 4633 853c 4574 0ebb 484d 7d3d
00000030: dc49 103d 1b81 163d 3f32 523c 5d8b 333c
00000040: b9aa 96bc 6f31 87bc 93d7 56bd 40be 84ba
00000050: 4745 413d 286f 993c dc6d 5a3d 8736 58bc
00000060: 31e7 1a3d d22f ccbc d2d6 57bc aca3 703d
00000070: 414b 643d b52e e1bc 8bff 83bb fb2b 70bb
00000080: 1c45 15bd 97e4 c0ba beb8 233d 28a1 32bd
00000090: 315c 083d 81d0 dc3c 8610 b83c 4a1a 5cbc
000000a0: 27d3 24bd 6de1 04bd fcf2 d4bc 23d8 48bd
000000b0: 2a6f cbbb f315 ff39 093a 273d 499b aa3c
000000c0: 6dc3 93bc 421c 50bd 9569 d33c 5973 253c
000000d0: eaa9 ad3b 8521 11bd e085 663c ba12 103c
000000e0: 80a5 cf38 4869 633d b05d 633c 378e 3dbc
000000f0: 0a4c 0a3d b928 6c3c 13d3 0c3c 697b 26bd
00000100: 4c44 67bc c568 163c 9ff4 593d 263c d7bc
00000110: 1a1c bd3c 553e 4a3d e4b5 063d b6f1 283d
00000120: 3f60 1dba 831f c03c 48ca 4abd 8d91 da3c
00000130: 3a57 e53c d420 c6bc da13 4d3d a80e fdbc
00000140: 76e6 a7bc 78b4 483d f557 70bd 85a9 f9bc
00000150: 06ef 1d3c ab27 883b 3828 cb3b 7476 d3bb
00000160: 2d42 5d3d 2662 0bbd 4279 5fbd fd6e 633d
00000170: 4a4a c2bc 3748 2cbd 1b51 643c 0b0d 6f3c
00000180: 2312 2b3d 4da3 fabc 234a c23b 7bc8 383b
00000190: f550 ac3c 7ad3 44bd 11dc d7bb ef14 46bd
000001a0: 8301 9ebc 8589 4cbd 1754 a1bc 5546 9bbd
000001b0: 3066 dcbc 644d 933d 5899 213d 291d cc3c
000001c0: 0f8e 033d d7f1 903b 911c 1abc c1c0 a03d
000001d0: 0fab 4f3d 0576 963c de9f 4ebc 32f5 aa3c
000001e0: 8820 0cbd b19a 343d 4544 503c c233 a83b
000001f0: becb fbbc 52bb f93b d3e1 fabb a5a4 903c
00000200: 56dd 19bd 58e5 2f3d 6500 a9bc 8486 23bc
00000210: 72dd 17bd d8ec 33bd e440 4e3d 4fd2 993c
00000220: 5982 793d cbd9 6d3d adf7 ef3c dbfd 903d
00000230: ebcd bbbc 066c 16ba a513 213d d910 46bc
00000240: 7fec 8e3b ed4d 2c3c 4267 2cbd a17f 28bd
00000250: 584b 32bb af8e bdbc fc04 26bd 14c0 773d
00000260: 002c 1dbd b5e7 a03c 4d31 723c 24ad 0dbd
00000270: 9c22 533d 53dd d53c 36c8 f43b 7a95 4ebd
00000280: c31e 243d 6221 023c da0b 05bd 981d 2e3d
00000290: 433e 69bd d489 c4bc aecf 7d3b bbb3 9d3c
000002a0: 669c 34bd 9992 babd 0ac5 3dbd c861 033d
000002b0: 94a2 6f3c 0277 88bc 62fd 83bc 2c4b 363c
000002c0: 0027 d4bc 5458 fbbc 4222 62bd a70c 823d
000002d0: 305a 73bd e5f9 8a3d b697 5d3d e728 21bd
000002e0: 300d c4bb d2b2 46bd 309b 5c3d ee00 873b
000002f0: 650b 233d dd89 1bbd d90a bf3c 5f34 963c
00000300: c77c 113d ee35 eb3c bca9 58bd d7be a2bb
00000310: 384c 48bd 023a 3c3d 5998 7cbb 2758 b4bb
00000320: 173e e63c bac0 353c 2d25 903c 8b03 1dbc
00000330: c746 d13c 3774 7a3c 0471 52bd b6c7 aabc
00000340: ce11 a7bc 70b6 873d b301 553d d648 823d
00000350: 0973 d93c 5f9c 6b3d c84e d93c 98de 883c
00000360: 49ba 3b3d 65ce 8c3d 289e 6abd cbbc 213d
00000370: 3353 6f3b 4c36 9abb 58c9 3e3d 1833 1bbd
00000380: a275 633d 2dfd 173d 6357 02bc 5f1c 493d
00000390: 3f32 c23c e011 b538 7f77 253c d26f 053d
000003a0: a558 7d3c 1120 2bbd d21f 8ebc 2fd0 693d
000003b0: 32c2 d83c eb2c 7e3d 2157 c73c 411d 683d
000003c0: e1fe 9dbc 3faf 703d 21a9 113d ed3d 5d3d
000003d0: 6d6f 213d 8955 493c 6572 37bd 70e7 f33c
000003e0: 7ddd 163d c535 6e3c 8c5d 293d ff6c 4b3d
000003f0: 3e5a bd3b 266d 433d 425a de3c 5f4f 373c

conv2.0.bias f4 [16]
-6.4405094e-06 4.4352337e-06 -9.263291e-07 2.5363031e-05 -3.5053527e-05 1.7537333e-05 1.8174545e-05 -2.2001303e-05
-1.2368774e-06 1.081015e-05 -4.95214e-06 -2.6634216e-06 -7.0120814e-06 2.8136074e-05 -1.0475999e-06 8.747679e-07
00000000: 8e1b d8b6 5ed2 9436 daa8 78b5 b2c2 d437
00000010: 7006 13b8 231d 9337 8a75 9837 708f b8b7
00000020: c902 a6b5 3e5d 3537 8f2a a6b6 3cbd 32b6
00000030: 5249 ebb6 c205 ec37 429b 8cb5 98d1 6a35

conv2.1.weight f4 [16]
0.89804935 0.8762111 0.87084943 0.8449705 0.9790809 0.8980278 0.89030963 0.8335194
0.83086294 0.8834989 0.91281044 0.8643376 0.82967687 0.8526745 0.83044344 0.82847816
00000000: 90e6 653f 5f4f 603f fdef 5e3f fd4f 583f
00000010: 0ca5 7a3f 26e5 653f 55eb 633f 8761 553f
00000020: 6fb3 543f fc2c 623f f2ad 693f 3b45 5d3f
00000030: b465 543f e048 5a3f f197 543f 2517 543f

conv2.1.bias f4 [16]
0.017577754 0.018160805 -0.031067837 -0.037396573 0.0140885785 0.011241242 -0.04249756 -0.042813778
-0.028197786 -0.008629815 0.0001849469 0.0028809179 0.0058535235 -0.015590876 -0.008032986 -0.0046171267
00000000: 39ff 8f3c f8c5 943c fa81 febc 262d 19bd
00000010: c8d3 663c 302d 383c ec11 2ebd 805d 2fbd
00000020: 0bff e6bc 1164 0dbc 4eee 4139 c8cd 3c3b
00000030: eace bf3b e070 7fbc c99c 03bc 444b 97bb

conv2.1.running_mean f4 [16]
0.4046175 -0.24634044 -0.07890291 0.013593259 0.3715948 0.19255602 -0.050493814 -0.12054211
-0.17147997 0.003098602 0.05554634 0.12167965 -0.15651949 0.0943013 0.059479564 0.037451718
00000000: 062a cf3e ab40 7cbe d997 a1bd 43b6 5e3c
00000010: ac41 be3e 682d 453e 9ad2 4ebd c8de f6bd
00000020: 7298 2fbe ea11 4b3b 8f84 633d 2e33 f93d
00000030: a546 20be 0a21 c13d d8a0 733d f966 193d

conv2.1.running_var f4 [16]
0.22501263 0.3923725 0.23206374 0.17433357 0.1071913 0.30577755 0.119136535 0.11881688
0.2223891 0.17364544 0.27945495 0.19309057 0.15586154 0.2547917 0.16352871 0.18531768
00000000: b669 663e 0ce5 c83e 1ea2 6d3e 8084 323e
00000010: 1d87 db3d e08e 9c3e dbfd f33d 4456 f33d
00000020: f8b9 633e 1cd0 313e b814 8f3e 89b9 453e
00000030: 2b9a 1f3e 0f74 823e 1274 273e ebc3 3d3e

conv3.0.weight f4 [8, 16, 3, 3]
0.048542008 -0.046165217 -0.062334973 0.06345686 -0.022919504 -0.0039056137 -0.086904 0.00020962302
-0.09117872 0.057864215 -0.09284055 -0.00383083 -0.0072957356 0.03043177 0.004993825 0.08129141
-0.04283379 -0.03066501 -0.029247101 0.035389423 0.0029845797 0.058363438 0.02839233 0.060509603
-0.046472404 0.038153276 0.019478127 -0.021170491 0.0012083978 -0.0526807 -0.017540801 -0.04604074
-0.005942189 -0.0110817095 0.022621432 0.03862227 0.03274113 -0.047550835 -0.018799242 0.109716594
0.05034984 0.013280259 -0.050724737 -0.07605398 0.07901489 0.011116902 -0.06668098 -0.055039525
0.05059642 0.019611785 0.033213414 -0.005568108 -0.02423895 -0.07494496 0.056694034 0.10028314
-0.032243963 -0.04676101 -0.03943205 0.008722086 0.00429402 0.029115196 0.028274074 0.013435386
0.0110877175 -0.018207096 0.11758216 0.047936972 0.0103873415 -0.023198871 0.014223115 -0.044800077
0.07053982 0.048913796 -0.05346973 0.0062286444 0.0063753393 -0.067794316 -0.058272574 0.06134344
-0.051545218 -0.110380284 0.089215845 0.023426875 -0.010222882 0.09207623 0.083124675 0.016900316
0.04339365 -0.07025442 -0.01610159 0.07180924 0.064132474 0.0049882093 0.0064062607 0.032541312
-0.039723713 -0.04233211 -0.055711053 -0.019101823 0.040610842 0.04606589 0.021785025 -0.02934513
0.0057653436 -0.059264056 -0.07263122 0.041072868 -0.03961203 -0.017570095 -0.08667653 0.07021766
0.08504091 -0.00912636 0.027397713 -0.00704442 0.04673409 0.04469399 0.07273768 -0.067754805
-0.03248504 -0.0339187 -0.028405236 -0.05553527 -0.011697196 0.00065981847 -0.07467555 0.054652516
-0.043978 -0.013954093 0.011686932 0.026951313 0.050878227 0.032260396 0.021216357 0.0022137938
-0.08014403 -0.06804061 -0.0048312666 -0.023916839 -0.052175 -0.059591673 -0.03742071 -0.009682038
-0.00023894866 0.02986968 0.07397378 0.08649369 0.036429796 0.047355853 0.122119285 -0.022099968
0.008588379 -0.00079324236 -0.015841784 -0.08046928 -0.069881335 -0.00065084605 -0.008963385 0.05526782
-0.0017002668 -0.08290888 -0.046199743 -0.030500608 -0.03314593 -0.06425615 0.082081124 -0.029271811
-0.053173095 -0.037103917 -0.025921887 -0.043262187 0.04579575 -0.012062708 0.070036106 -0.0013819719
0.018763976 -0.034228534 0.055797562 -0.0073111746 -0.12600541 -0.021309186 -0.035823308 0.018065302
0.050689723 0.06932258 -0.013393722 -0.042154577 -0.010802013 0.06447699 0.038106818 -0.06273635
-0.03467192 0.046675622 -0.056239653 0.038506936 -0.016900603 -0.024633324 -0.022622157 0.010601516
0.07110575 0.0040172148 0.009132914 0.026496146 0.06678278 0.027223255 -0.039987415 -0.017046893
0.008062407 -0.05686255 -0.030583963 0.003480545 -0.048027933 -0.020574536 -0.010273142 0.06929552
-0.012549358 -0.049291372 0.031340037 0.052668106 -0.06453966 -0.013121148 -0.069189206 -0.006365282
-0.045200706 0.01620532 -0.019230248 -0.03356183 0.057513945 -0.04193457 -0.020989131 0.01219522
0.041746303 0.045130186 0.08303223 -0.02909637 -0.029019142 0.08284033 -0.01678541 0.0058386917
0.08181364 0.04722566 0.05691477 -0.019116648 0.07241286 -0.051120624 -0.071828075 -0.022339998
0.014553988 0.071752526 0.042554546 0.013578196 -0.104447745 0.03750936 -0.010987652 0.09665709
00000000: fcd3 463d bd17 3dbd f552 7fbd acf5 813d
00000010: afc1 bbbc 53f5 7fbb b9fa b1bd 40ce 5b39
00000020: e9bb babd 0703 6d3d 3023 bebd aa0e 7bbb
00000030: 1111 efbb 0c4c f93c 3ea3 a33b 1c7c a63d
00000040: 7c72 2fbd 3035 fbbc 9e97 efbc 80f4 103d
00000050: f098 433b 800e 6f3d 0897 e83c ebd8 773d
00000060: d959 3ebd 9c46 1c3d 9890 9f3c bd6d adbc
00000070: 1a63 9e3a b8c7 57bd bab1 8fbc 3795 3cbd
00000080: b2b6 c2bb 0f90 35bc 9550 b93c 6332 1e3d
00000090: 901b 063d aac4 42bd de00 9abc 18b3 e03d
000000a0: a23b 4e3d 7295 593c bec4 4fbd 30c2 9bbd
000000b0: 8fd2 a13d ab23 363c 0a90 88bd 2071 61bd
000000c0: 313e 4f3d e5a8 a03c ca0a 083d ad74 b6bb
000000d0: c390 c6bc be7c 99bd 0138 683d 3f61 cd3d
000000e0: 3f12 04bd 7988 3fbd 8083 21bd 15e7 0e3c
000000f0: dab4 8c3b fe82 ee3c 089f e73c 1820 5c3c
00000100: 42a9 353c 0c27 95bc eace f03d 8f59 443d
00000110: ab2f 2a3c 8f0b bebc 1108 693c 4980 37bd
00000120: 2e77 903d d559 483d 1303 5bbd a819 cc3b
00000130: 39e8 d03b bfd7 8abd 39af 6ebd 4243 7b3d
00000140: 1421 53bd 0f0f e2bd ccb6 b63d b8e9 bf3c
00000150: e07d 27bc 7692 bc3d 453d aa3d 8872 8a3c
00000160: 8abd 313d 8de1 8fbd 7be7 83bc b910 933d
00000170: e357 833d 2274 a33b 9ceb d13b 0a4a 053d
00000180: 55b5 22bd 6f64 2dbd 4631 64bd 6d7b 9cbc
00000190: 8e57 263d 96af 3c3d 8276 b23c 3365 f0bc
000001a0: 35eb bc3b debe 72bd adbf 94bd 063c 283d
000001b0: 3940 22bd 29ef 8fbc 7783 b1bd 47ce 8f3d
000001c0: ee29 ae3d ba86 15bc 2b71 e03c e1d4 e6bb
000001d0: 3f6c 3f3d 0c11 373d 7ef7 943d 08c3 8abd
000001e0: 090f 05bd 56ee 0abd 19b2 e8bc f478 63bd
000001f0: 99a5 3fbc abf7 2c3a 7fef 98bd 51db 5f3d
00000200: 4622 34bd b59f 64bc 8c7a 3f3c 00c9 dc3c
00000210: b065 503d 7a23 043d edcd ad3c 4c15 113b
00000220: 8e22 a4bd e058 8bbd 9a4f 9ebb 3fed c3bc
00000230: 74b5 55bd 6616 74bd 7546 19bd 69a1 1ebc
00000240: 4b8e 7ab9 42b1 f43c 917f 973d 9b23 b13d
00000250: 6937 153d 36f8 413d ad19 fa3d fe0a b5bc
00000260: 46b6 0c3c 98f1 4fba a1c6 81bc 14cd a4bd
00000270: f21d 8fbd 8a9d 2aba 29db 12bc 8260 623d
00000280: 7ddb deba 22cc a9bd f13b 3dbd 69dc f9bc
00000290: 07c4 07bd ba98 83bd 261a a83d 70cb efbc
000002a0: 08cc 59bd 47fa 17bd 235a d4bc b133 31bd
000002b0: 5394 3b3d aaa2 45bc 176f 8f3d 4823 b5ba
000002c0: e9b6 993c 3833 0cbd fc8b 643d 9492 efbb
000002d0: 9007 01be 9a90 aebc 76bb 12bd affd 933c
000002e0: 07a0 4f3d fff8 8d3d 5771 5bbc 47aa 2cbd
000002f0: edfa 30bc 830c 843d e515 1c3d ea7b 80bd
00000300: 2504 0ebd f02e 3f3d 8d5b 66bd 73b9 1d3d
00000310: 2273 8abc d3cb c9bc 1a52 b9bc fbb1 2d3c
00000320: e49f 913d d7a2 833b 38a2 153c 720e d93c
00000330: 69c5 883d 4e03 df3c d8c9 23bd eda5 8bbc
00000340: 3018 043c b5e8 68bd 388b fabc db19 643b
00000350: f0b8 44bd ee8b a8bc ae50 28bc cfea 8d3d
00000360: d39b 4dbc c0e5 49bd 695e 003d 83ba 573d
00000370: 5f2d 84bd 15fa 56bc 12b3 8dbd db93 d0bb
00000380: 6024 39bd 05c1 843c c188 9dbc 2178 09bd
00000390: be93 6b3d 95c3 2bbd 66f1 abbc 76ce 473c
000003a0: 2cfe 2a3d 6eda 383d cd0c aa3d 835b eebc
000003b0: 8db9 edbc 31a8 a93d 8e81 89bc 7f52 bf3b
000003c0: e98d a73d b26f 413d 761f 693d 849a 9cbc
000003d0: 324d 943d dc63 51bd 991a 93bd 5f02 b7bc
000003e0: da73 6e3c fdf2 923d ad4d 2e3d 1577 5e3c
000003f0: b3e8 d5bd 6aa3 193d 8d05 34bc 27f4 c53d

conv3.0.bias f4 [8]
-1.5363582e-06 -1.852038e-06 2.1772582e-06 3.333037e-06 -1.9790099e-07 -1.3226434e-05 5.8282285e-06 -4.008106e-06
00000000: de34 ceb5 8b93 f8b5 031d 1236 24ad 5f36
00000010: 9c7e 54b4 1ae7 5db7 1a90 c336 5e7d 86b6

conv3.1.weight f4 [8]
0.83584535 0.8876961 0.9469441 0.87725246 0.8939897 0.89700985 0.9579385 0.8821066
00000000: f6f9 553f 0d40 633f ee6a 723f 9e93 603f
00000010: 82dc 643f 70a2 653f 753b 753f bdd1 613f

conv3.1.bias f4 [8]
-0.022943703 -0.0010296034 0.021532616 0.0010374793 -0.015654396 0.008648095 0.0014998326 -0.037015297
00000000: 6ff4 bbbc c2f3 86ba 2b65 b03c 07fc 873a
00000010: a63d 80bc bdb0 0d3c 0896 c43a 5a9d 17bd

conv3.1.running_mean f4 [8]
-0.029713025 0.047572955 -0.12674339 0.12978461 -0.08518813 -0.025294408 -0.21995497 -0.20804471
00000000: bb68 f3bc dcdb 423d 05c9 01be 42e6 043e
00000010: 1d77 aebd 3836 cfbc e03b 61be ac09 55be

conv3.1.running_var f4 [8]
0.15527982 0.13824771 0.27368551 0.1232399 0.12025338 0.11422623 0.35862777 0.32949403
00000000: ac01 1f3e cf90 0d3e 8220 8c3e 3365 fc3d
00000010: 6747 f63d 71ef e93d 0f9e b73e 71b3 a83e

conv4.0.weight f4 [4, 8, 3, 3]
0.000208829 0.01769134 -0.03632432 -0.048101455 -0.001642652 -0.0820384 -0.08302585 -0.084207244
0.042530622 -0.06946684 0.12784731 -0.050399162 0.03530845 -0.063839056 0.017273407 0.078740165
-0.065426625 -0.022301942 0.012629802 0.02562615 0.12150109 0.15554829 -0.03342468 0.05264265
-0.026448172 0.038262222 0.020551492 0.022987777 -0.1017178 0.033355147 -0.08605151 0.021023555
0.13574024 0.032846797 0.084815115 0.031404436 0.053375583 -0.10010249 0.056225818 -0.073869504
0.018519225 -0.108805425 0.09920963 0.079836406 -0.056695275 -0.040712733 0.05889431 -0.03183757
0.07804469 0.07361435 -0.03232077 0.059672 0.038383063 0.05382572 0.13507326 -0.018199753
0.01156097 0.030464122 -0.06399346 -0.008857709 -0.09484275 0.07403154 -0.076996334 0.09952181
-0.036873158 0.10254216 0.0049802596 0.038139194 0.12576334 0.08153526 0.014099489 -0.043581072
-0.058163438 -0.038918592 -0.08211504 0.07403224 0.0772353 0.015468913 -0.06574513 -0.061458033
-0.03697726 0.004347135 0.046134986 -0.02847585 0.027765745 0.09054205 0.0169188 0.09476342
-0.086752005 -0.1354316 0.06289903 0.05051092 -0.119574085 -0.0934175 -0.10964177 -0.028403953
-0.03390994 -0.051783238 -0.09784391 -0.020297451 -0.10265319 0.08061891 0.011895631 -0.12500657
-0.026215127 -0.06577668 0.007026438 -0.0047846814 0.04057101 -0.012070656 -0.050532997 -0.09719511
-0.049787764 0.103082314 -0.07828435 0.07794609 0.05533208 -0.03917367 0.02995418 0.029447297
-0.10517305 0.078957394 0.096616596 -0.059844524 -0.09785309 -0.07150544 -0.069653995 -0.10831465
-0.022768538 -0.13549808 -0.12466107 -0.06880971 -0.09768166 -0.09793156 -0.05342049 0.068593875
-0.042386685 -0.07319453 -0.09015137 0.08636484 0.07864346 0.04028131 -0.055577837 0.094295084
0.07015751 0.023682537 0.00011262115 -0.0749544 0.10147603 -0.08533915 -0.08758689 -0.18451671
-0.0014448285 -0.0669717 0.11376952 0.06127416 -0.05952688 -0.035151005 0.080129944 -0.033153504
-0.030612241 0.080904804 0.025510456 -0.07372445 0.017507063 0.10419661 -0.09884979 -0.055500686
-0.011270145 0.032174308 -0.068802476 -0.10280017 -0.06583001 0.048515417 -0.115585834 -0.1135008
-0.046338048 0.005098148 0.12111822 -0.042992905 0.061429195 0.047140993 0.09484468 -0.010328355
-0.11155441 -0.1241118 -0.073852755 -0.07038536 -0.057221808 0.07755959 0.011455751 0.048813038
-0.032396685 -0.0797761 0.10619609 -0.1056586 0.07348376 0.10404301 0.08948277 -0.02346815
0.021131119 0.022329131 -0.008318938 0.073909745 -0.030747088 -0.12549639 -0.0295013 0.05503139
0.071257465 0.10784213 0.07350503 -0.082052395 -0.012560121 0.10857053 0.11230671 -0.011699057
0.0925289 -0.08373781 0.03883828 0.08216476 0.064344026 -0.030972445 0.13152604 0.023738664
-0.040629923 -0.10547787 0.008475404 0.07556022 -0.11247392 0.08065792 -0.008751011 -0.08105308
-0.09641065 0.018440835 0.068476886 0.11774818 0.079985924 -0.085291535 0.05998208 0.055422287
-0.057586275 -0.042910665 -0.0025056272 -0.05721955 -0.036534503 0.0035638178 -0.015257465 0.0012476018
0.08840875 -0.017538022 0.02214196 -0.029534144 -0.015670732 0.08972625 0.078384094 0.051594187
00000000: 1cf9 5a39 6eed 903c cfc8 14bd 0806 45bd
00000010: 414e d7ba c003 a8bd 7509 aabd d974 acbd
00000020: 9734 2e3d a144 8ebd 68ea 023e 5a6f 4ebd
00000030: 989f 103d 0dbe 82bd f680 8d3c 8642 a13d
00000040: 65fe 85bd 90b2 b6bc 3bed 4e3c efed d13c
00000050: 90d5 f83d 0d48 1f3e 51e8 08bd d29f 573d
00000060: d6a9 d8bc d9b8 1c3d 9a5b a83c dd50 bc3c
00000070: 6c51 d0bd 689f 083d c63b b0bd 9739 ac3c
00000080: 7dff 0a3e 5d8a 063d 8cb3 ad3d f0a1 003d
00000090: 5ba0 5a3d 8902 cdbd 0b4d 663d e548 97bd
000000a0: a1b5 973c 61d5 debd 6b2e cb3d 4581 a33d
000000b0: 4e39 68bd 65c2 26bd 293b 713d 1d68 02bd
000000c0: e5d5 9f3d 1fc3 963d c962 04bd a16a 743d
000000d0: 8f37 1d3d 5c78 5c3d a550 0a3e a617 95bc
000000e0: 396a 3d3c e58f f93c 010f 83bd ed1f 11bc
000000f0: ea3c c2bd d99d 973d 41b0 9dbd 17d2 cb3d
00000100: 4f08 17bd a001 d23d 7231 a33b d837 1c3d
00000110: 1bc8 003e f5fb a63d 8b01 673c 1182 32bd
00000120: c93c 6ebd 1a69 1fbd ee2b a8bd 379e 973d
00000130: 8a2d 9e3d 5371 7d3c 62a5 86bd 6bbb 7bbd
00000140: 7875 17bd 6972 8e3b 0af8 3c3d 3046 e9bc
00000150: fd74 e33c 1c6e b93d 4c99 8a3c 5313 c23d
00000160: 09ab b1bd 95ae 0abe 35d1 803d 8ae4 4e3d
00000170: 42e3 f4bd ad51 bfbd dd8b e0bd 68af e8bc
00000180: 26e5 0abd a91a 54bd 6362 c8bd d746 a6bc
00000190: d63b d2bd 871b a53d e5e5 423c b901 00be
000001a0: 1bc1 d6bc edb5 86bd 093e e63b d1c8 9cbb
000001b0: ca2d 263d 00c4 45bc b0fb 4ebd 3b0e c7bd
000001c0: 41ee 4bbd d21c d33d 8c53 a0bd 33a2 9f3d
000001d0: e4a3 623d 9274 20bd 7862 f53c 753b f13c
000001e0: f864 d7bd 6ab4 a13d ecde c53d 881f 75bd
000001f0: 3367 c8bd 7271 92bd c1a6 8ebd 12d4 ddbd
00000200: 1685 babc 02c0 0abe 4e4e ffbd 1bec 8cbd
00000210: 520d c8bd 5790 c8bd 72cf 5abd f27a 8c3d
00000220: a99d 2dbd 04e7 95bd 48a1 b8bd 0de0 b03d
00000230: d30f a13d 04fe 243d 96a5 63bd c81d c13d
00000240: beae 8f3d e101 c23c 052f ec38 b181 99bd
00000250: aad2 cf3d 4bc6 aebd c160 b3bd f3f1 3cbe
00000260: 6660 bdba 7528 89bd feff e83d 9dfa 7a3d
00000270: 75d2 73bd 80fa 0fbd 2b1b a43d f8cb 07bd
00000280: 86c6 fabc 6bb1 a53d 4efb d03c d8fc 96bd
00000290: f96a 8f3c 0865 d53d c271 cabd b054 63bd
000002a0: 6aa6 38bc 35c9 033d 50e8 8cbd e588 d2bd
000002b0: e2d1 86bd 1ab8 463d 44b8 ecbd 1c73 e8bd
000002c0: f7cc 3dbd 5d0e a73b d40c f83d 5419 30bd
000002d0: 2e9d 7b3d ea16 413d ed3d c23d 4338 29bc
000002e0: a376 e4bd 542e febd 1d40 97bd 3326 90bd
000002f0: 6a61 6abd 90d7 9e3d e7b0 3b3c 2ef0 473d
00000300: 63b2 04bd a761 a3bd 567d d93d 8963 d8bd
00000310: a77e 963d 8014 d53d be42 b73d 4740 c0bc
00000320: 2b1b ad3c 95eb b63c 284c 08bc fe5d 973d
00000330: 51e1 fbbc 2082 00be b6ac f1bc 9868 613d
00000340: 6fef 913d 56dc dc3d ce89 963d 160b a8bd
00000350: f7c8 4dbc 3a5a de3d 0f01 e63d 67ad 3fbc
00000360: cb7f bd3d bb7e abbd e314 1f3d ff45 a83d
00000370: cdc6 833d edb9 fdbc c3ae 063e 9677 c23c
00000380: 906b 26bd c804 d8bd 6cdc 0a3c 51bf 9a3d
00000390: ba58 e6bd fb2f a53d 6760 0fbc 28ff a5bd
000003a0: f272 c5bd 3c11 973c 9c3d 8c3d f525 f13d
000003b0: a9cf a33d 54ad aebd c5af 753d 7b02 633d
000003c0: 96df 6bbd 18c3 2fbd 7335 24bb 0c5f 6abd
000003d0: 34a5 15bd f18e 693b 72fa 79bc 9286 a33a
000003e0: a60f b53d e6ab 8fbc 0e63 b53c 97f1 f1bc
000003f0: e85f 80bc 65c2 b73d d787 a03d 6d54 533d

conv4.0.bias f4 [4]
-3.6531372e-07 3.1080228e-06 -1.8625602e-06 -2.4591482e-06
00000000: 5620 c4b4 6d93 5036 15fd f9b5 d807 25b6

conv4.1.weight f4 [4]
0.90927166 0.9329658 0.94839954 0.85563093
00000000: 07c6 683f d9d6 6e3f 50ca 723f a10a 5b3f

conv4.1.bias f4 [4]
-0.07609071 -0.047100056 0.0005019429 -0.023880221
00000000: 72d5 9bbd fdeb 40bd d194 033a 74a0 c3bc

conv4.1.running_mean f4 [4]
0.32653934 -0.6936915 -0.042940397 -0.17452173
00000000: 2a30 a73e c495 31bf 45e2 2fbd d3b5 32be

conv4.1.running_var f4 [4]
0.07609843 0.08603658 0.14871396 0.12010491
00000000: 7ed9 9b3d f233 b03d 7948 183e 90f9 f53d

fc1.0.weight f4 [42, 84]
-0.050229043 0.029647935 -0.048830155 0.006933272 -0.039479837 -0.008192219 -0.05653606 0.042721424
0.06688879 -0.02951905 -0.11499116 -0.036484018 0.019089278 -0.033643726 0.008680594 0.001375607
0.055734962 0.06604921 0.034264635 -0.0801801 0.029124571 0.056498542 0.043954346 -0.006180963
-0.037215825 0.052665252 0.0046734763 0.0040766164 -0.007338147 -0.0055696177 0.056486964 -0.00563374
-0.075433515 0.057069905 0.0060717873 0.032071404 0.009114607 -0.0008457666 -0.011868042 0.091494426
-0.0063013756 0.032143988 0.045491338 0.08375608 -0.04450879 0.032320034 -0.0062726648 0.12143029
0.06597956 0.020167153 -0.053092003 -0.030452682 0.007031351 0.030049803 0.03843955 -0.010832204
-0.06415581 -0.007565146 0.067045875 -0.033148475 -0.050440665 0.029221145 0.0030078725 -0.05598764
-0.06669772 0.062506005 0.048159894 -0.014783961 0.081360854 -0.031440277 -0.060735177 0.045969192
0.010095705 0.02949452 0.046743054 0.023786511 0.016099429 0.034385603 0.06359625 0.021759339
-0.00047690788 0.043432225 0.08599465 0.019413117 -0.0040544225 0.13656577 0.02893131 0.0028396538
0.06918875 -0.027120072 0.008282957 0.046875622 0.023682786 0.062072765 -0.042505253 -0.08589026
-0.072349615 -0.06337985 -0.054611366 0.005941418 -0.02664188 -0.040554084 -0.022289999 -0.042623166
-0.12643532 -0.038957525 -0.0285611 0.021740653 -0.0939259 -0.019291464 -0.042081393 -0.047464453
0.036411263 0.052815028 -0.07357527 0.061238665 -0.17946005 -0.11809057 -0.06722686 0.007820423
-0.0072337477 -0.10607731 0.040673446 0.029731046 0.013670457 -0.0013237236 -0.10194131 -0.057759754
0.03780354 0.07576338 -0.043435853 0.092849605 0.10605634 -0.1026574 -0.04101429 -0.019519275
-0.014040319 0.052880447 -0.032478794 -0.026831577 -0.05818153 0.05267776 0.03579003 0.1419355
0.081432685 -0.026406582 -0.07740102 -0.060839113 0.022185482 0.023214739 0.04204487 0.027922163
-0.038161065 0.052652854 -0.030122554 -0.08035221 0.03048535 0.038544443 0.008011788 0.103012204
0.08638647 0.017147558 -0.032507528 -0.0016533451 0.028143147 0.067336775 -0.033095047 0.023931565
-0.039932784 -0.06492776 -0.02424014 0.02333367 0.08729481 -0.012349826 0.02081313 -0.111640885
-0.01620594 0.062163994 0.06515057 -0.09941391 0.031785004 0.0075542163 0.022593765 -0.10247351
-0.04138694 -0.005778117 -0.022373749 0.011070408 -0.021922106 -0.057638496 -0.019169651 0.024628732
-0.03565526 0.041912038 -0.0037568784 0.041525453 -0.017745014 -0.053096037 0.040897164 -0.0458994
7.765624e-05 0.11620856 0.072305016 0.06558275 -0.059254825 0.08676349 0.01587691 -0.1046495
-0.03917955 0.032493282 -0.039378345 0.04062969 0.040972505 -0.038169734 0.04606408 -0.004361852
0.08575255 0.029920252 0.019288056 0.030367501 -0.045594104 -0.048372705 -0.03596184 0.026310615
-0.06290572 0.024929553 -0.046611033 0.0626218 -0.049716182 -0.009203737 0.05369385 0.036337055
0.046557184 -0.033601545 0.038876865 -0.040434834 -0.025684286 -0.081058085 -0.054607324 -0.09843315
0.019973354 0.03304447 0.02908867 -5.8732374e-05 -0.06510742 -0.02173932 0.03448457 0.113474034
-0.16061392 -0.21265197 0.021284256 0.08703214 -0.045337256 0.06819854 0.043313645 0.023682069
00000000: f8bc 4dbd 3ae0 f23c 2102 48bd 8030 e33b
00000010: 9cb5 21bd a838 06bc 5b92 67bd a9fc 2e3d
00000020: fdfc 883d efd1 f1bc 7c80 ebbd 4470 15bd
00000030: 1e61 9c3c 01ce 09bd 0d39 0e3c b64d b43a
00000040: 584a 643d cf44 873d 1359 0c3d 7735 a4bd
00000050: a796 ee3c 046b 673d 7909 343d ad89 cabb
00000060: 9f6f 18bd 85b7 573d f623 993b 2395 853b
00000070: d774 f0bb 5781 b6bb e05e 673d 3d9b b8bb
00000080: e37c 9abd 22c2 693d d8f5 c63b 4e5d 033d
00000090: 6f55 153c 70b6 5dba 2d72 42bc 6e61 bb3d
000000a0: c57b cebb 6aa9 033d 2055 3a3d 4f88 ab3d
000000b0: d94e 36bd 0362 043d ed8a cdbb 72b0 f83d
000000c0: 4b20 873d 9635 a53c 0077 59bd e777 f9bc
000000d0: 3f67 e63b 012b f63c ca72 1d3d 8e79 31bc
000000e0: 1f64 83bd 0be5 f7bb 594f 893d b2c6 07bd
000000f0: df9a 4ebd 2f61 ef3c ba1f 453b 4c53 65bd
00000100: d098 88bd 2603 803d 4f43 453d 6d38 72bc
00000110: 85a0 a63d 85c7 00bd 73c5 78bd 314a 3c3d
00000120: 7568 253c 7e9e f13c a575 3f3d eedb c23c
00000130: f3e2 833c ebd7 0c3d c03e 823d a440 b23c
00000140: 7e09 fab9 fde5 313d f71d b03d 4208 9f3c
00000150: f6da 84bb e6d7 0b3e 5b01 ed3c 7c19 3a3b
00000160: d5b2 8d3d ea2a debc 3db5 073c a700 403d
00000170: 6702 c23c 0340 7e3d fd19 2ebd 3ce7 afbd
00000180: 092c 94bd 4bcd 81bd 2bb0 5fbd 3ab0 c23b
00000190: 1240 dabc 0a1c 26bd 8499 b6bc a195 2ebd
000001a0: 4378 01be ed91 1fbd f8f8 e9bc 7419 b23c
000001b0: 395c c0bd 2209 9ebc 8a5d 2cbd 166a 42bd
000001c0: fa23 153d 9254 583d a2ae 96bd 65d5 7a3d
000001d0: 60c4 37be 78d9 f1bd 3cae 89bd 3b21 003c
000001e0: 1309 edbb 103f d9bd 3399 263d 868e f33c
000001f0: 0dfa 5f3c cb80 adba 9bc6 d0bd 7e95 6cbd
00000200: e2d7 1a3d d529 9b3d cbe9 31bd ef27 be3d
00000210: 1134 d93d 0b3e d2bd 9afe 27bd e3e6 9fbc
00000220: 5e09 66bc 2b99 583d 7c08 05bd e5cd dbbc
00000230: c24f 6ebd a3c4 573d 9198 123d 8a57 113e
00000240: 2ec6 a63d 9e52 d8bc 6d84 9ebd 6f32 79bd
00000250: 54be b53c d62c be3c 3e37 2c3d 05bd e43c
00000260: c74e 1cbd 85aa 573d 93c3 f6bc b38f a4bd
00000270: 6abc f93c c7e0 1d3d e043 033c 10f8 d23d
00000280: 64eb b03d 0979 8c3c 9d26 05bd 0eb5 d8ba
00000290: 758c e63c dde7 893d ac8e 07bd 210c c43c
000002a0: 8f90 23bd d8f8 84bd 4293 c6bc 4126 bf3c
000002b0: 9fc7 b23d ed56 4abc 4c80 aa3c faa3 e4bd
000002c0: 52c2 84bc ac9f 7e3d a96d 853d 8599 cbbd
000002d0: fe30 023d 5c89 f73b 8f16 b93c a2dd d1bd
000002e0: 5a85 29bd 5c56 bdbb 2749 b7bc a860 353c
000002f0: fd95 b3bc 5816 6cbd ac09 9dbc 32c2 c93c
00000300: 400b 12bd f5ab 2b3d f635 76bb 9816 2a3d
00000310: fe5d 91bc 3b7b 59bd c983 273d 0201 3cbd
00000320: 60db a238 c1fe ed3d a714 943d 4050 863d
00000330: 30b5 72bd 0fb1 b13d 4b10 823c 7a52 d6bd
00000340: bc7a 20bd ad17 053d 304b 21bd 516b 263d
00000350: c9d2 273d de57 1cbd b0ad 3c3d deed 8ebb
00000360: 089f af3d 511b f53c fc01 9e3c 44c5 f83c
00000370: e2c0 3abd 7522 46bd b94c 13bd 5c89 d73c
00000380: b7d4 80bd 1039 cc3c 36eb 3ebd dc3f 803d
00000390: 32a3 4bbd 45cb 16bc 15ee 5b3d 2ad6 143d
000003a0: bfb2 3e3d c6a1 09bd 593d 1f3d ff9e 25bd
000003b0: da67 d2bc c801 a6bd eeab 5fbd 5297 c9bd
000003c0: 299f a33c a359 073d 5d4b ee3c 6857 76b8
000003d0: 0a57 85bd a916 b2bc b13f 0d3d 1365 e83d
000003e0: fa77 24be 70c1 59be 525c ae3c e83d b23d
000003f0: 8fb3 39bd adab 8b3d a669 313d e600 c23c

fc1.0.bias f4 [42]
-6.561088e-07 -1.655565e-08 3.550633e-08 -2.7344595e-09 5.976741e-08 -1.4978894e-09 1.6845883e-07 -2.6826296e-08
-2.7071103e-09 8.21411e-09 1.8795465e-10 -8.143624e-08 -4.575663e-08 1.3412925e-08 -1.8803041e-08 7.254157e-08
-1.3702756e-08 3.5429704e-08 -1.28915305e-08 -1.2818576e-08 -1.3923376e-08 -4.9910774e-08 5.810806e-08 -8.023203e-09
-3.4059804e-09 2.3752428e-08 -1.8653012e-09 -2.760696e-08 -2.6879714e-08 3.1671178e-08 7.422054e-09 4.277142e-08
2.2569787e-07 -2.1492587e-08 5.7660507e-09 -1.0486441e-08 7.695936e-09 -3.8822186e-08 1.0059655e-08 9.557305e-08
1.1165104e-08 -4.545086e-08
00000000: 741f 30b5 4236 8eb2 9f7f 1833 1fe9 3bb1
00000010: 7b59 8033 4cde cdb0 9ce1 3434 a66f e6b2
00000020: fd07 3ab1 0a1e 0d32 88a8 4e2f 0ce2 aeb3
00000030: f285 44b3 ab6e 6632 5384 a1b2 26c8 9b33
00000040: 5c69 6bb2 5f2b 1833 8d79 5db2 b238 5cb2
00000050: a833 6fb2 7a5d 56b3 7d92 7933 6cd6 09b2
00000060: a40e 6ab1 2408 cc32 ba2e 00b1 5924 edb2
00000070: 1ee5 e6b2 d406 0833 1405 ff31 acb3 3733
00000080: 5c57 7234 b39e b8b2 b81e c631 db27 34b2
00000090: 1637 0432 72bd 26b3 d5d2 2c32 d73d cd33
000000a0: a6d0 3f32 c035 43b3

fc1.1.weight f4 [42]
0.6817957 0.73579854 0.7552508 0.68131053 0.8358432 0.74289024 0.7479072 0.6815664
0.74927247 0.7150807 0.7781734 0.77148956 0.73195887 0.73253953 0.58985466 0.6565583
0.81532645 0.7921919 0.7910398 0.7308576 0.82603097 0.67669356 0.71800053 0.69207364
0.78823227 0.7012605 0.66147304 0.6821155 0.7033579 0.66307247 0.6519253 0.75348794
0.6185771 0.7377846 0.7024182 0.678083 0.69675225 0.7433323 0.70609885 0.7710608
0.6443323 0.845849
00000000: 2a8a 2e3f 4b5d 3c3f 1e58 413f 5e6a 2e3f
00000010: d2f9 553f 0e2e 3e3f d976 3f3f 237b 2e3f
00000020: 52d0 3f3f 870f 373f 5f36 473f 5780 453f
00000030: a861 3b3f b687 3b3f b700 173f 3414 283f
00000040: 3cb9 503f 17cd 4a3f 9681 4a3f 7c19 3b3f
00000050: c476 533f ca3b 2d3f e2ce 373f bd2b 313f
00000060: 97c9 493f cf85 333f 4c56 293f 1f9f 2e3f
00000070: 430f 343f 1ebf 293f 94e4 263f 96e4 403f
00000080: 125b 1e3f 74df 3c3f aed1 333f d996 2d3f
00000090: 5b5e 323f 074b 3e3f e5c2 343f 3e64 453f
000000a0: f6f2 243f 8f89 583f

fc1.1.bias f4 [42]
-0.015601447 -0.07477641 0.07038259 -0.057765134 0.05181776 0.04513902 -0.025351958 -0.04724304
-0.02860364 0.02042731 0.032046415 0.023533588 -0.001841306 -0.040386252 -0.0068158256 -0.03545248
0.02306446 -0.019560196 0.10271288 0.031273205 -0.06724539 -0.00833946 -0.0012790653 -0.021202426
-0.028109083 0.016224338 -0.0487477 -0.026917698 0.056506533 -0.06827756 0.059575867 0.06812763
0.042824656 -0.016798645 -0.015020759 -0.04511051 0.01645058 -0.04334087 0.02675688 -0.10819628
-0.02583193 -0.09199878
00000000: 369d 7fbc 6024 99bd bf24 903d 229b 6cbd
00000010: dc3e 543d b1e3 383d e9ae cfbc eb81 41bd
00000020: 2e52 eabc 2d57 a73c 1a43 033d 83c9 c03c
00000030: fa57 f1ba 0e6c 25bd 4a57 dfbb 9f36 11bd
00000040: aef1 bc3c b43c a0bc 215b d23d 5518 003d
00000050: f3b7 89bd 3ba2 08bc 4fa6 a7ba b6b0 adbc
00000060: 0545 e6bc e7e8 843c abab 47bd 8182 dcbc
00000070: 6573 673d 1bd5 8bbd d305 743d 8086 8b3d
00000080: e868 2f3d 509d 89bc a119 76bc ccc5 38bd
00000090: 5ec3 863c 3286 31bd 3f31 db3c 0396 ddbd
000000a0: 7c9d d3bc db69 bcbd

fc1.1.running_mean f4 [42]
1.1530077 -0.30999416 -0.65500605 1.2126908 -2.0534782 -0.61644566 -0.19590734 0.6756219
0.7510324 -0.12563615 0.3347062 0.6678357 0.010265051 -0.27811408 -0.77192926 -0.9064095
-0.30920926 -0.09435793 -0.851177 1.1839845 1.4964565 -0.19740453 -0.67310673 0.19378826
-0.40157917 -0.63779616 -0.3451677 -0.86309 0.80278087 -0.71531403 -0.21489586 -0.40374777
0.18612286 1.1850723 -1.3695211 0.9551207 -0.78240645 -0.6854923 -1.031642 -0.25308868
-0.7109052 0.08855891
00000000: c295 933f 8eb7 9ebe 7aae 27bf 7439 9b3f
00000010: 306c 03c0 62cf 1dbf ef9b 48be 8ff5 2c3f
00000020: a943 403f c3a6 00be 9c5e ab3e 48f7 2a3f
00000030: bf2e 283c f864 8ebe 289d 45bf 740a 68bf
00000040: ad50 9ebe bb3e c1bd bce6 59bf ce8c 973f
00000050: e38b bf3f 6a24 4abe b950 2cbf 6e70 463e
00000060: c99b cdbe 9c46 23bf d2b9 b0be 77f3 5cbf
00000070: 0c83 4d3f d21e 37bf a90d 5cbe 07b8 cebe
00000080: fe96 3e3e 73b0 973f 784c afbf ca82 743f
00000090: ca4b 48bf 6c7c 2fbf d80c 84bf d794 81be
000000a0: e2fd 35bf 605e b53d

fc1.1.running_var f4 [42]
0.20795377 0.16887863 0.22124614 0.15627293 0.3811402 0.31451735 0.17512019 0.18889499
0.17217799 0.19925283 0.2073418 0.16514443 0.13571884 0.13767472 0.19646244 0.2286282
0.4222987 0.09043322 0.23817044 0.3683548 0.22757052 0.13926046 0.19814745 0.11711601
0.16681376 0.15907581 0.15686142 0.21798067 0.32865492 0.13086861 0.12784539 0.17190446
0.09056629 0.20325406 0.23692042 0.18791239 0.29667932 0.13325906 0.3826789 0.085610524
0.15117335 0.033548657
00000000: d5f1 543e 85ee 2c3e 598e 623e 0306 203e
00000010: cf24 c33e 6b08 a13e b552 333e b06d 413e
00000020: 6d4f 303e ef08 4c3e 6951 543e 9f1b 293e
00000030: e1f9 0a3e 9afa 0c3e 732d 493e 831d 6a3e
00000040: 8937 d83e 0d35 b93d f4e2 733e 0099 bc3e
00000050: 3f08 693e 4b9a 0e3e 2ae7 4a3e 85da ef3d
00000060: 3ad1 2a3e c5e4 223e 48a0 203e 5336 5f3e
00000070: 7545 a83e 6c02 063e e7e9 023e b907 303e
00000080: d27a b93d d521 503e 449b 723e 1b6c 403e
00000090: 5ae6 973e 1075 083e 7dee c33e 9254 af3d
000000a0: 30cd 1a3e 516a 093d
