Models/stat_dict_add_norm.pth (torch, 153103 bytes, 38 tensors)

conv1.0.weight f4 [32, 1, 2, 2]
0.06349929 0.24520837 0.08943338 -0.26287612 -0.057541344 -0.3120079 -0.33806 -0.012393301
0.41720396 -0.35091043 -0.13422188 0.1622859 -0.42716184 0.20542005 -0.20266536 0.38999522
0.34762058 -0.3782722 0.34667397 -0.15169947 0.38322204 -0.17763354 -0.38335738 -0.32293648
-0.352265 -0.46602812 -0.37437156 0.3691598 -0.3087714 -0.029731698 -0.068357065 0.009988982
-0.34683138 0.3140294 0.32020172 -0.21527869 -0.28113768 -0.28352922 -0.27352357 -0.49751654
-0.16636921 -0.30838847 -0.24643622 -0.10491797 0.1755294 -0.15791386 0.22772811 0.1513973
0.35838205 0.32083085 0.29934058 -0.4770699 -0.2376912 0.21404341 0.36912918 -0.23416305
0.25847173 0.17654361 0.29434007 -0.496155 -0.03367921 -0.38413197 0.114719525 -0.4125068
-0.07659066 0.42576903 0.22241436 0.43725622 -0.47662532 -0.12592562 -0.049398325 -0.033772748
0.3735868 0.3005726 0.36468357 -0.20748556 0.5015392 0.20086472 -0.031828932 0.38776615
-0.12927419 -0.13003738 0.49543676 -0.26321086 0.07822725 0.293239 -0.3031477 0.27324587
-0.3928038 -0.43075606 -0.38069835 -0.24055716 -0.3295526 0.14958023 -0.38973656 -0.37015268
0.33899233 -0.22651634 0.22734848 -0.46871904 0.024415642 0.476785 -0.23954427 0.049895033
0.007000335 -0.4421214 -0.089973345 0.19244611 -0.06569491 0.1407426 0.32340693 -0.22938381
-0.34896642 0.25497442 0.31350464 -0.24159378 -0.12401012 -0.27233624 -0.1061018 -0.14456868
-0.070413485 -0.5283914 -0.07553988 0.12078593 0.20560826 -0.02332538 -0.11306323 0.16574349
00000000: ea0b 823d e717 7b3e d928 b73d b397 86be
00000010: 79b0 6bbd 80bf 9fbe 3316 adbe 460d 4bbc
00000020: c29b d53e 88aa b3be 7671 09be 462e 263e
00000030: f5b4 dabe a259 523e 8287 4fbe 74ad c73e
00000040: 53fb b13e e5ac c1be 407f b13e 1b57 1bbe
00000050: ae35 c43e 91e5 35be 6b47 c4be ee57 a5be
00000060: 145c b4be 3d9b eebe a1ad bfbe 8302 bd3e
00000070: 4917 9ebe e48f f3bc cafe 8bbd d4a8 233c
00000080: e293 b1be 76c8 a03e 7bf1 a33e 0472 5cbe
00000090: 47f1 8fbe be2a 91be 480b 8cbe 7dba febe
000000a0: b15c 2abe 18e5 9dbe c759 7cbe 3cdf d6bd
000000b0: fbbd 333e 2cb4 21be 8f31 693e e507 1b3e
000000c0: da7d b73e f143 a43e 2b43 993e 8242 f4be
000000d0: 5265 73be 322e 5b3e 80fe bc3e 70c8 6fbe
000000e0: 6856 843e d9c7 343e beb3 963e 0708 febe
000000f0: 36f3 09bd f2ac c4be 12f2 ea3d 1734 d3be
00000100: 90db 9cbd 66fe d93e 97c0 633e 0ce0 df3e
00000110: 3c08 f4be a5f2 00be e655 4abd 4b55 0abd
00000120: c546 bf3e a7e4 993e ceb7 ba3e 1877 54be
00000130: df64 003f 7baf 4d3e 0e5f 02bd 4989 c63e
00000140: 7460 04be 8528 05be e3a9 fd3e 93c3 86be
00000150: 9c35 a03d 6c23 963e 2d36 9bbe e2e6 8b3e
00000160: 941d c9be 0f8c dcbe e5ea c2be 9e54 76be
00000170: 1ebb a8be 8f2b 193e 8d8b c7be a784 bdbe
00000180: 6790 ad3e e6f3 67be 0ace 683e f1fb efbe
00000190: 5003 c83c 2a1d f43e 184b 75be bc5e 4c3d
000001a0: 1163 e53b bc5d e2be f243 b8bd 9810 453e
000001b0: 0e8b 86bd d41e 103e 9895 a53e 97e3 6abe
000001c0: baab b2be 028c 823e ae83 a03e 5c64 77be
000001d0: 05f9 fdbd a86f 8bbe e74b d9bd d009 14be
000001e0: f234 90bd a944 07bf a7b4 9abd 9d5e f73d
000001f0: f98a 523e de14 bfbc b28d e7bd a9b8 293e

conv1.0.bias f4 [32]
-0.41874543 0.5173573 0.14395304 -0.07551919 -0.06620657 -0.51517713 -0.57996684 -0.0068470617
0.05866499 -0.14658757 0.35532638 -0.027131492 -0.027769277 -0.40227833 0.13020498 0.32718602
0.09355417 0.22413188 -0.5631881 -0.294141 0.05930661 -0.32312274 0.18597153 0.41420066
0.48437503 -0.26430362 0.24112703 -0.38052353 -0.21490446 -0.31088215 0.49447957 -0.07041232
00000000: cd65 d6be 8771 043f 6d68 133e cea9 9abd
00000010: 4f97 87bd a6e2 03bf b578 14bf 515d e0bb
00000020: b34a 703d 0d1b 16be 57ed b53e dd42 debc
00000030: 657c e3bc 6df7 cdbe 7454 053e ed84 a73e
00000040: 5499 bf3d d482 653e 182d 10bf a699 96be
00000050: 7deb 723d 5870 a5be 526f 3e3e 1c12 d43e
00000060: 0100 f83e ce52 87be 01ea 763e fbd3 c2be
00000070: ea0f 5cbe f22b 9fbe 6d2c fd3e 5634 90bd

conv1.1.weight f4 [32]
1.0452776 0.9212941 0.96535796 0.9973051 0.9215685 0.9589568 1.0694942 0.9097494
1.2554216 0.9584495 0.802251 0.95220983 0.9509715 0.99232835 0.9280634 0.8117208
0.87120765 0.987814 0.86729264 1.0084054 1.1582553 1.0049785 0.75370246 1.0199311
1.1149381 0.9711747 1.0459352 1.0364797 1.3643645 0.82025963 1.0019861 0.9252655
00000000: a8cb 853f eed9 6b3f b321 773f 634f 7f3f
00000010: eaeb 6b3f 317e 753f 30e5 883f 56e5 683f
00000020: a8b1 a03f f25c 753f 5260 4d3f 06c4 733f
00000030: de72 733f 3b09 7e3f 9095 6d3f efcc 4f3f
00000040: 7707 5f3f 61e1 7c3f e406 5e3f 6e13 813f
00000050: b641 943f 23a3 803f a5f2 403f 1a8d 823f
00000060: 4bb6 8e3f e89e 783f 34e1 853f 5eab 843f
00000070: 7fa3 ae3f 89fc 513f 1541 803f 33de 6c3f

conv1.1.bias f4 [32]
0.027159194 0.00500288 -0.08951285 -0.032247107 -0.07621729 -0.07180944 0.040796965 -0.03455569
0.067895025 -0.0864126 -0.26536307 -0.12795112 -0.039139282 -0.042597454 -0.18158792 -0.12249059
-0.07103563 0.019100806 -0.15312561 -0.14862026 0.032104194 0.029131237 -0.20414346 -0.04777129
0.09514382 -0.13013242 0.03871066 -0.021283746 0.09573021 -0.2735186 0.013308751 -0.04167137
00000000: f57c de3c 33ef a33b 8352 b7bd 8b15 04bd
00000010: cf17 9cbd d410 93bd b81a 273d 448a 0dbd
00000020: 8c0c 8b3d 17f9 b0bd abdd 87be 9e05 03be
00000030: 8350 20bd ab7a 2ebd 2ff2 39be 59dc fabd
00000040: 217b 91bd 4b79 9c3c f6cc 1cbe e92f 18be
00000050: b07f 033d a2a4 ee3c fc0a 51be d4ab 43bd
00000060: c3da c23d 6f41 05be 128f 1e3d 405b aebc
00000070: 330e c43d a10a 8cbe f30c 5a3c 99af 2abd

conv1.1.running_mean f4 [32]
-0.33979875 0.08604664 0.20517607 -0.095738456 0.032280497 -0.8142273 -1.0727574 -0.24395671
0.10000863 -0.9473448 -0.1396912 0.20920977 0.27326238 -0.334261 0.27425408 -0.10157181
0.6970116 -0.18636087 -0.06518228 0.33966464 0.0431503 -0.12023913 -0.6792649 -0.1469708
0.4076925 -0.07986136 0.040264856 -0.2802392 -0.22599527 -0.69913805 0.1614409 0.07145515
00000000: 1afa adbe 3939 b03d ad19 523e 8612 c4bd
00000010: 8e38 043d 3371 50bf 1d50 89bf cacf 79be
00000020: 53d1 cc3d 3085 72bf 360b 0fbe 163b 563e
00000030: 0ce9 8b3e 4224 abbe 086b 8c3e e204 d0bd
00000040: 5a6f 323f 62d5 3ebe 4a7e 85bd 86e8 ad3e
00000050: 5ebe 303d ef3f f6bd 4ee4 2dbf 837f 16be
00000060: 12bd d03e 5a8e a3bd c3ec 243d 837b 8fbe
00000070: 4e6b 67be b6fa 32bf c350 253e 1457 923d

conv1.1.running_var f4 [32]
0.012705443 0.08774392 0.018292971 0.05069108 0.056603294 0.07494825 0.1465553 0.03326953
0.012551341 0.30557227 0.11489998 0.037770815 0.08507015 0.011662573 0.046436682 0.11322965
0.18807542 0.09350619 0.1356658 0.20207135 0.033199333 0.048422936 0.35219496 0.17316616
0.055395253 0.052158218 0.032239623 0.012485807 0.011609079 0.07243302 0.06949038 0.01284475
00000000: 7e2a 503c 16b3 b33d 24db 953c 73a1 4f3d
00000010: dbd8 673d 787e 993d 9812 163e a145 083d
00000020: 24a4 4d3c f873 9c3e ae50 eb3d 92b5 1a3d
00000030: 4239 ae3d 6014 3f3c 6434 3e3d f2e4 e73d
00000040: d896 403e 2c80 bf3d faeb 0a3e cbeb 4e3e
00000050: 06fc 073d 2157 463d e652 b43e 7852 313e
00000060: 22e6 623d dba3 553d b20d 043d 4591 4c3c
00000070: 0234 3e3c c357 943d f950 8e3d c972 523c

conv2.0.weight f4 [16, 32, 3, 3]
0.13290954 0.13715318 0.11448125 -0.12575029 0.012092673 0.03776319 0.08973186 0.00079509197
-0.12790994 0.043981805 0.01773614 0.05567266 -0.0037714404 0.010606989 0.06552105 -0.013814016
-0.05167137 0.12122002 0.027687564 -0.05324997 -0.18834732 0.16063622 0.06481298 0.12581564
0.12639008 0.16027229 0.013799075 0.0025706808 -0.030367838 0.14185035 0.04192038 -0.12150316
-0.033089828 0.059879404 -0.076684445 -0.030978793 0.09771547 0.01736185 -0.0034651528 0.13339236
0.04801933 -0.06529735 0.054700796 0.08315967 -0.06737166 0.0821853 0.15574339 0.17080732
0.030777952 -0.1314389 0.03460335 0.07105416 0.02292076 0.11319172 0.059398804 0.16315666
0.047549814 0.003623591 -0.0111280475 0.015327164 0.022426454 -0.10327081 0.1460131 0.09781274
0.020345226 0.11547785 0.050430104 -0.03203004 0.047738727 0.026592918 -0.06051063 0.09083357
0.04796856 -0.14155404 0.14492528 0.07864131 0.11288854 0.18890779 0.07936094 -0.028979933
-0.05014027 0.06459107 0.055506464 0.1014685 0.01740732 0.009024389 0.09941549 0.036537882
-0.071978666 0.0921933 0.065622896 0.030211106 0.058324825 0.02435799 0.028290443 0.15496942
-0.046085697 -0.09192609 0.17621627 0.035594784 0.08925189 -0.01905228 0.12808672 0.041419208
0.04679809 0.07985098 0.084269404 0.0560693 0.08120742 0.14064911 0.029237801 0.035619304
0.14415805 -0.105205804 0.09490267 0.12548395 0.11898563 0.06560048 -0.051331826 -0.0033571946
0.06702375 0.07707546 0.23438628 -0.01465844 -0.004965189 0.009364259 0.12607232 0.11895182
-0.06781773 -0.006348243 0.06894928 -0.13357322 0.1547924 0.114740446 -0.03191809 0.06541236
0.0138038015 -0.0056998217 0.08119398 -0.037487723 0.08569951 -0.021148207 0.0027287216 0.07367124
0.06744402 -0.10640815 0.08032514 0.069988854 0.027284687 -0.01475485 0.08984291 0.06577718
0.10363847 0.08837848 0.029251477 0.09243457 0.051819067 -0.035784118 0.12083724 -0.04322796
-0.082032606 0.05448689 0.012721801 -0.007709857 -0.015594965 0.077708825 0.113492824 -0.11195135
0.020728327 0.06401737 0.14853808 0.06485264 -0.06766102 -0.17459606 0.1366015 -0.0058517293
0.07136554 0.060433667 0.055338867 0.029664468 0.09347225 0.022183355 0.08137477 0.04556239
0.057122935 0.011540537 0.07491174 0.03798519 0.0061813327 -0.02131687 -0.088326536 0.042354975
0.037078645 -0.023287717 -0.064580426 0.17716816 -0.093008034 -0.05763668 -0.008620061 0.045972522
0.08838465 0.06283519 -0.023609549 0.10413444 -0.05214267 -0.07306324 0.1289948 0.111027874
0.026548723 0.18434294 0.002746537 -0.11080855 0.09627875 -0.044888113 -0.08441838 0.066295326
0.1546985 0.13845062 0.11704426 0.012810092 -0.04982873 -0.070622586 0.13249518 0.06822647
0.08971498 0.118522994 -0.09641307 0.041375417 -0.050756626 -0.04745508 0.00016771734 0.18252736
0.018354557 -0.09738389 0.123239905 0.14639843 0.039805066 0.10313936 0.03839988 0.1270615
0.054468103 0.0017484461 0.14483969 0.046707723 -0.08885302 -0.059854705 0.10127758 0.10919581
-0.011260377 0.01866896 0.09894671 -0.07969361 0.07983891 -0.15845554 0.09052103 0.05619149
00000000: 7019 083e e271 0c3e 2575 ea3d afc4 00be
00000010: 5920 463c 93ad 1a3d 56c5 b73d b86d 503a
00000020: d3fa 02be 4426 343d 624b 913c 0409 643d
00000030: 452a 77bb f0c8 2d3c e62f 863d 2f54 62bc
00000040: 5ca5 53bd 3442 f83d 08d1 e23c a41c 5abd
00000050: 1fde 40be d27d 243e abbc 843d d1d5 003e
00000060: 676c 013e 6b1e 243e 8415 623c de78 283b
00000070: f9c5 f8bc 3841 113e b4b4 2b3d a6d6 f8bd
00000080: 3389 07bd 1b44 753d bc0c 9dbd 3dc7 fdbc
00000090: 0c1f c83d 703a 8e3c 9e17 63bb 0298 083e
000000a0: ebaf 443d 9eba 85bd f10d 603d 9e4f aa3d
000000b0: 27fa 89bd c450 a83d 327b 1f3e 1de8 2e3e
000000c0: 0b22 fc3c eb97 06be 3ebc 0d3d d884 913d
000000d0: 51c4 bb3c 0fd1 e73d 294c 733d 8a12 273e
000000e0: 98c3 423d c579 6d3b 6a52 36bc c91e 7b3c
000000f0: afb7 b73c a57f d3bd 7584 153e 0c52 c83d
00000100: 08ab a63c a77f ec3d cc8f 4e3d ee31 03bd
00000110: af89 433d 64d9 d93c ffd9 77bd f306 ba3d
00000120: ae7a 443d 8bf3 10be 4b67 143e b20e a13d
00000130: 1b32 e73d 0b71 413e fd87 a23d 5367 edbc
00000140: e25f 4dbd 5348 843d bf5a 633d b8ce cf3d
00000150: cc99 8e3c 08db 133c 599a cb3d bfa8 153d
00000160: 8d69 93bd d7cf bc3d 4c65 863d 487d f73c
00000170: 03e6 6e3d 688a c73c 5cc1 e73c 4eb0 1e3e
00000180: 5bc4 3cbd bf43 bcbd 0a72 343e d6cb 113d
00000190: b2c9 b63d 8713 9cbc 2a29 033e 30a7 293d
000001a0: 5baf 3f3d e988 a33d 7095 ac3d eca8 653d
000001b0: 1350 a63d 5206 103e 1d84 ef3c 8ce5 113d
000001c0: 2b9e 133e 2476 d7bd 555c c23d dd7e 003e
000001d0: bdae f33d 8b59 863d 5241 52bd 6104 5cbb
000001e0: bf43 893d bdd9 9d3d f502 703e f429 70bc
000001f0: 06b3 a2bb 8d6c 193c 1a19 013e 039d f33d
00000200: 06e4 8abd ec04 d0bb 4835 8d3d 6bc7 08be
00000210: e681 1e3e 0afd ea3d 8bbc 02bd eaf6 853d
00000220: 5729 623c 92c5 babb 0849 a63d ba8c 19bd
00000230: 3a83 af3d 013f adbc 5ad4 323b f2e0 963d
00000240: 1720 8a3d 84ec d9bd 8281 a43d 5156 8f3d
00000250: 2384 df3c 54be 71bc 8fff b73d 30b6 863d
00000260: 6840 d43d c7ff b43d cba0 ef3c 564e bd3d
00000270: 3b40 543d 5e92 12bd 8479 f73d cd0f 31bd
00000280: b600 a8bd a52d 5f3d 1a6f 503c f8a2 fcbb
00000290: 0682 7fbc ce25 9f3d ed6e e83d c046 e5bd
000002a0: 74ce a93c 8a1b 833d 5e1a 183e 76d1 843d
000002b0: dc91 8abd 4fc9 32be 43e1 0b3e ddbf bfbb
000002c0: 1928 923d 4b89 773d 02ab 623d e602 f33c
000002d0: 616e bf3d deb9 b53c d1a7 a63d a19f 3a3d
000002e0: bdf9 693d 8514 3d3c 546b 993d 5c96 1b3d
000002f0: c78c ca3b b7a0 aebc 8be4 b4bd 697c 2d3d
00000300: c7df 173d e2c5 bebc be42 84bd 926b 353e
00000310: ff7a bebd 7014 6cbd 283b 0dbc af4d 3c3d
00000320: 0303 b53d bcaf 803d d068 c1bc 7044 d53d
00000330: 8d93 55bd 2ea2 95bd 3617 043e 9562 e33d
00000340: b57c d93c 65c4 3c3e 3fff 333b 98ef e2bd
00000350: cb2d c53d 99dc 37bd 8be3 acbd d8c5 873d
00000360: 4969 1e3e 00c6 0d3e e7b4 ef3d 6ce1 513c
00000370: 3619 4cbd 93a2 90bd d1ac 073e 52ba 8b3d
00000380: 7dbc b73d 2fbc f23d 3774 c5bd 4579 293d
00000390: 2ee6 4fbd 4260 42bd 48dd 2f39 74e8 3a3e
000003a0: 4c5c 963c 3471 c7bd 3465 fc3d 78e9 153e
000003b0: a30a 233d bb3a d33d 3149 1d3d 691c 023e
000003c0: f219 5f3d 1e2c e53a db50 143e 9950 3f3d
000003d0: 92f8 b5bd 352a 75bd 9f6a cf3d 0ea2 df3d
000003e0: 727d 38bc a6ef 983c 93a4 ca3d 6736 a3bd
000003f0: 9582 a33d 2b42 22be 1763 b93d 0c29 663d

conv2.0.bias f4 [16]
-0.17461921 -0.19192675 -0.09673865 0.04863573 0.03397271 0.022257622 0.050573695 0.13055836
0.022718009 0.092343464 -0.26347262 -0.0030279087 0.06217451 -0.16950543 0.05027369 -0.27622348
00000000: 61cf 32be 7288 44be ea1e c6bd 4236 473d
00000010: f826 0b3d 9e55 b63c 5d26 4f3d 17b1 053e
00000020: 1e1b ba3c 921e bd3d e2e5 86be e16f 46bb
00000030: b3aa 7e3d d592 2dbe c9eb 4d3d 2a6d 8dbe

conv2.1.weight f4 [16]
1.0184889 1.1121509 0.7359292 0.81806564 0.9974748 1.0425364 0.9104114 1.0331174
1.1314065 0.92675173 0.897355 0.9453652 0.9253587 1.0751016 1.0131974 1.0413156
00000000: d85d 823f f65a 8e3f db65 3c3f c06c 513f
00000010: 825a 7f3f d571 853f b910 693f 313d 843f
00000020: eed1 903f 9a3f 6d3f 0fb9 653f 7403 723f
00000030: 4fe4 6c3f ee9c 893f 74b0 813f d449 853f

conv2.1.bias f4 [16]
-0.09036228 -0.04389794 -0.23486052 -0.17186409 -0.07065339 -0.1361713 -0.14630546 -0.021622056
0.20706724 -0.088877015 -0.112724796 -0.07784502 -0.0641115 0.009421774 0.0012170661 -0.009579785
00000000: dc0f b9bd 54ce 33bd 477f 70be 24fd 2fbe
00000010: b9b2 90bd 7d70 0bbe 19d1 15be bd20 b1bc
00000020: 6f09 543e 2705 b6bd 42dc e6bd 366d 9fbd
00000030: e44c 83bd c95d 1a3c f685 9f3a 88f4 1cbc

conv2.1.running_mean f4 [16]
2.9638128 0.09381264 0.57615405 -1.6351101 0.902917 0.33875996 0.3670993 -2.1688645
-1.3099768 -0.07688118 0.5222438 -0.5020854 1.3111191 -1.9387876 -0.71807784 -0.90155077
00000000: 1caf 3d40 d720 c03d d57e 133f 4a4b d1bf
00000010: 9225 673f f271 ad3e 70f4 bb3e adce 0ac0
00000020: 52ad a7bf e173 9dbd c5b1 053f ab88 00bf
00000030: c0d2 a73f 312a f8bf f3d3 37bf 08cc 66bf

conv2.1.running_var f4 [16]
3.707057 3.4233027 10.000617 7.433351 2.589446 5.3302937 13.352475 6.0868907
6.9476 6.049836 14.252858 6.2370486 8.141036 14.170765 11.598783 7.127715
00000000: 6c40 6d40 6417 5b40 8702 2041 03de ed40
00000010: 7cb9 2540 c491 aa40 bda3 5541 cfc7 c240
00000020: bd52 de40 4298 c140 b50b 6441 e795 c740
00000030: af41 0241 74bb 6241 9d94 3941 3e16 e440

conv3.0.weight f4 [8, 16, 3, 3]
-0.022205504 0.124368094 0.08501675 0.03900568 0.15008798 0.10707467 0.0390731 0.020806763
0.098096624 -0.124561116 -0.06995782 -0.17066142 0.09820871 -0.0639368 0.023230782 0.081594415
-0.04215875 -0.12900762 0.09963793 0.05786473 0.1444494 0.003734636 0.06933384 -0.0465554
-0.10188583 0.13944484 0.025897425 0.15091483 0.098794356 0.09603227 0.17098957 0.12620744
0.0034943863 0.009745266 0.0079530785 -0.014615416 -0.042711712 -0.027884046 0.07037617 -0.0005092955
0.0583809 -0.12512131 -0.028178217 0.08796543 0.0709537 -0.15470639 -0.07762447 0.05286297
-0.1200995 -0.08088788 0.16036916 -0.04717206 -0.115240365 -0.017271115 0.029602868 0.19405706
0.002845734 0.06489591 0.06441194 0.12367422 -0.1192952 -0.011665153 0.005293483 0.084221266
-0.13844097 -0.1427242 -0.23452461 -0.036540136 -0.062413923 -0.09878944 -0.037449054 -0.012974069
0.022644533 -0.14467506 0.02446245 0.0030096567 -0.2199455 -0.20267244 -0.072710276 -0.19285707
-0.07231498 0.0034253807 0.09033255 0.06399673 -0.045239653 0.09455562 0.024218012 -0.015961232
0.15630071 0.1629252 0.08129707 0.041536644 0.03987675 0.022699099 0.10210003 0.11244611
0.01624133 -0.011440921 0.017130619 -0.04655038 0.113752164 0.08513956 0.02042442 0.022431687
-0.015186193 -0.0077843145 -0.12226822 -0.024004571 0.106321126 0.017251626 0.12204238 0.007730873
0.06830678 0.122090735 0.097824246 0.04379339 0.060927663 0.18438685 -0.011627067 0.02894207
0.10519593 -0.05373381 -0.06277806 -0.13447438 -0.11028519 -0.004408504 0.023262743 0.2264698
0.22432923 0.07901371 -0.04591371 0.09030474 -0.098921455 -0.0790112 -0.05264288 0.15029888
0.019144647 -0.008005046 0.18509753 0.16972873 0.11755463 -0.019378912 0.052578356 -0.02612276
0.036031727 0.085720696 0.03735992 0.024927095 0.07259251 -0.016113438 -0.16152526 -0.10990228
-0.16080932 0.21579711 -0.10656052 -0.07958389 -0.058984276 0.07593542 -0.14007048 0.03613159
0.07089372 -0.028223485 0.05440404 -0.008623795 -0.0040837033 -0.0987212 -0.07747451 -0.08783528
-0.091991656 -0.11749085 0.07438889 -0.02581275 -0.14345294 -0.03157305 -0.07303366 -0.031733997
-0.117565945 -0.1866464 -0.14588279 -0.06269482 -0.06521184 -0.0595639 0.13816895 -0.062131297
-0.09280007 0.07082819 -0.10080446 0.009909964 0.115242705 0.09616039 -0.014495409 -0.178671
-0.012091405 -0.108077474 -0.027423913 0.051568918 -0.006725998 -0.07532047 0.10373624 0.0005652703
0.035958588 -0.022327013 -0.042909544 0.042197008 0.0055957693 -0.044439822 0.039782323 -0.06791861
0.12012858 -0.059273142 -0.17186269 0.0130074555 -0.1737344 0.012423945 0.022872642 -0.11443727
-0.0748925 -0.083503045 -0.03903739 0.09282326 -0.12965657 -0.16790251 -0.11517021 -0.010725639
-0.073919095 0.038370524 -0.07909391 -0.101333454 0.113069475 0.02739597 -0.04400515 -0.065744966
-0.21744297 -0.06898971 0.055692542 -0.027184479 -0.015206402 -0.14872171 -0.116443306 -0.232828
-0.16513556 -0.05732084 -0.11852801 0.0018428293 0.087209255 -0.073501796 0.034706093 -0.06430953
-0.23371707 0.015210749 0.050968714 -0.06625572 -0.084893435 -0.06406746 0.0060617644 0.0061820187
00000000: 51e8 b5bc b3b4 fe3d 431d ae3d 6bc4 1f3d
00000010: aab0 193e f749 db3d 1d0b 203d f272 aa3c
00000020: e2e6 c83d e619 ffbd 0c46 8fbd dec1 2ebe
00000030: a621 c93d 4cf1 82bd 7b4e be3c f91a a73d
00000040: a7ae 2cbd 931a 04be f90e cc3d 9103 6d3d
00000050: 8bea 133e cbc0 743b e6fe 8d3d e0b0 3ebd
00000060: 85a9 d0bd a1ca 0e3e d626 d43c 6b89 1a3e
00000070: b254 ca3d 91ac c43d e417 2f3e 863c 013e
00000080: 1302 653b 9caa 1f3c a14d 023c 7f75 6fbc
00000090: 7af2 2ebd 156d e4bc 6221 903d 3e82 05ba
000000a0: d020 6f3d cd1f 00be 01d6 e6bc 3827 b43d
000000b0: 2c50 913d 5a6b 1ebe 94f9 9ebd d786 583d
000000c0: baf6 f5bd 8ba8 a5bd d037 243e 7d37 41bd
000000d0: 2403 ecbd 277c 8dbc b781 f23c e5b6 463e
000000e0: 7e7f 3a3b 26e8 843d 68ea 833d e948 fd3d
000000f0: 0b51 f4bd 331f 3fbc f474 ad3b 337c ac3d
00000100: 78c3 0dbe 4b26 12be 3827 70be 1cab 15bd
00000110: bea5 7fbd 1e52 cabd 2e64 19bd 3191 54bc
00000120: 0781 b93c b325 14be 7a65 c83c a93d 453b
00000130: 6539 61be 5d89 4fbe 20e9 94bd 537c 45be
00000140: e019 94bd 5a7c 603b 4600 b93d b810 833d
00000150: 374d 39bd 60a6 c13d da64 c63c 21c1 82bc
00000160: 4b0d 203e ddd5 263e 147f a63d 5422 2a3d
00000170: ce55 233d 76f3 b93c d219 d13d 254a e63d
00000180: 8a0c 853c b372 3bbc 8355 8c3c 9cab 3ebd
00000190: e5f6 e83d a65d ae3d 1d51 a73c a8c2 b73c
000001a0: 83cf 78bc 9013 ffbb c367 fabd 3ca5 c4bc
000001b0: e4be d93d 4853 8d3c 5bf1 f93d 4353 fd3b
000001c0: 6de4 8b3d b50a fa3d 1458 c83d b360 333d
000001d0: 498f 793d e8cf 3c3e 747f 3ebc ec17 ed3c
000001e0: f770 d73d fc17 5cbd c991 80bd a7b3 09be
000001f0: 34dd e1bd 3675 90bb 8291 be3c b3e7 673e
00000200: 90b6 653e f1d1 a13d 0410 3cbd b1f1 b83d
00000210: 5597 cabd a0d0 a1bd 0fa0 57bd f3e7 193e
00000220: 3cd5 9c3c 9927 03bc 358a 3d3e 5ecd 2d3e
00000230: 7bc0 f03d 86c0 9ebc 675c 573d 66ff d5bc
00000240: 0196 133d 558e af3d b706 193d e833 cc3c
00000250: 62ab 943d 5400 84bc e166 25be 7214 e1bd
00000260: 33ab 24be ebf9 5c3e 673c dabd e1fc a2bd
00000270: 7f99 71bd 0884 9b3d a36e 0fbe b8fe 133d
00000280: ba30 913d f034 e7bc c5d6 5e3d d14a 0dbc
00000290: 96d0 85bb 572e cabd f5aa 9ebd fce2 b3bd
000002a0: 1f66 bcbd 0b9f f0bd 3459 983d 4375 d3bc
000002b0: 54e5 12be be52 01bd ac92 95bd 82fb 01bd
000002c0: 6ac6 f0bd 3c20 3fbe 4c62 15be 2466 80bd
000002d0: c98d 85bd 47f9 73bd 297c 0d3e 637d 7ebd
000002e0: f70d bebd 5f0e 913d 9272 cebd 675d 223c
000002f0: 5e04 ec3d bdef c43d 277e 6dbc 88f5 36be
00000300: 071b 46bc b957 ddbd 1da8 e0bc ee39 533d
00000310: c365 dcbb 9e41 9abd aa73 d43d a62e 143a
00000320: 5049 133d 24e7 b6bc ebc1 2fbd c5d6 2c3d
00000330: b75c b73b 8806 36bd caf2 223d ea18 8bbd
00000340: f905 f63d 65c8 72bd c6fc 2fbe 391d 553c
00000350: 6ee7 31be cd8d 4b3c 685f bb3c 165e eabd
00000360: 3d61 99bd a503 abbd ace5 1fbd 1f1a be3d
00000370: b1c4 04be a3ee 2bbe 5cde ebbd 97ba 2fbc
00000380: e562 97bd 692a 1d3d fdfb a1bd ea87 cfbd
00000390: f890 e73d 836d e03c bf3e 34bd 4ca5 86bd
000003a0: 5fa9 5ebe 7a4a 8dbd dd1d 643d fcb1 debc
000003b0: 4624 79bc 814a 18be d479 eebd 776a 6ebe
000003c0: 4c19 29be 42c9 6abd d0be f2bd 178b f13a
000003d0: c49a b23d 1c88 96bd fa27 0e3d b7b4 83bd
000003e0: 8753 6fbe 8136 793c 92c4 503d 14b1 87bd
000003f0: 9cdc adbd cd35 83bd c4a1 c63b 8892 ca3b

conv3.0.bias f4 [8]
0.17488073 0.0033379714 -0.02783873 -0.32609695 0.0026339232 0.09826951 -0.114346474 -0.15618195
00000000: ef13 333e dec1 5a3b 0c0e e4bc 2ef6 a6be
00000010: e69d 2c3b 8641 c93d 7c2e eabd 29ee 1fbe

conv3.1.weight f4 [8]
0.96618676 0.7322406 1.0938404 0.96298176 1.0202471 0.9922408 1.1868466 1.0837144
00000000: 0458 773f 1f74 3b3f f602 8c3f f985 763f
00000010: 7597 823f 7e03 7e3f 97ea 973f 27b7 8a3f

conv3.1.bias f4 [8]
-0.004972742 -0.12025895 -0.008553993 -0.056477007 -0.040269118 -0.05245266 -0.02176938 -0.07269978
00000000: 62f2 a2bb 534a f6bd 0c26 0cbc 6f54 67bd
00000010: 3bf1 24bd 9ad8 56bd b355 b2bc 9fe3 94bd

conv3.1.running_mean f4 [8]
0.48043513 -2.1002257 -0.31945542 -0.297856 -1.6473193 -0.21651013 -0.3414865 0.46605137
00000000: 98fb f53e 196a 06c0 a98f a3be 9580 98be
00000010: 5cdb d2bf d5b4 5dbe 52d7 aebe 499e ee3e

conv3.1.running_var f4 [8]
6.9115453 4.40464 1.5422463 1.7754049 1.8218232 5.106706 1.5567251 3.0011275
00000000: 612b dd40 d0f2 8c40 5468 c53f 7840 e33f
00000010: 8131 e93f 236a a340 c542 c73f 7912 4040

conv4.0.weight f4 [4, 8, 3, 3]
0.0369121 0.10479141 -0.20611697 0.059176456 -0.11259552 0.039483927 -0.18433683 -0.10936735
-0.13323323 -0.0010029995 0.21012849 0.031484712 -0.049159657 0.053239573 -0.050198145 -0.085919484
0.12327762 0.0047358507 0.12025395 -0.05602805 0.22680572 -0.070156574 -0.07432177 -0.034063857
-0.05981527 -0.021241251 -0.2505167 -0.029510053 -0.11735472 0.14573953 0.019038944 -0.013225452
-0.30365452 -0.23869656 0.08018461 -0.18148991 0.044522304 -0.07290294 0.052147664 0.07334548
-0.08041549 0.11229344 -0.020603523 -0.09006065 0.23852615 -0.07756318 0.10371403 -0.24132547
0.096242264 0.03190088 -0.069013506 0.059718437 -0.025953386 -0.18158047 0.068869084 -0.1160739
-0.16327828 -0.08577393 -0.01612909 -0.11956612 -0.019959208 0.024841065 0.1691988 0.0061606294
0.011813667 -0.05663963 0.047461096 -0.27542004 -0.18216877 0.08945661 -0.035340447 -0.0037887031
-0.07666893 -0.050365325 0.19583781 0.048907485 -0.15759093 -0.043033645 0.026417466 -0.18706673
-0.020615991 -0.04972879 0.056120973 0.0619651 0.0013887358 -0.08035677 0.11988896 0.077450596
0.08881242 -0.115256645 0.027670396 0.12535751 0.0928009 0.26555318 -0.014055492 0.010185253
-0.16143544 -0.26232484 0.0718336 0.121914916 0.09697128 0.10889304 0.12620449 -0.08167926
-0.14084421 0.07306906 -0.11427729 -0.16263598 -0.23277277 0.11177759 -0.07817095 0.014060411
0.04808771 -0.08997958 0.16573328 0.0012621186 0.23330387 0.006043834 -0.047635224 -0.089114994
-0.044731446 -0.056183774 0.16872384 0.13803953 -0.0045975335 0.06250501 0.22397052 -0.07624332
-0.13156939 -0.13976586 -0.060605172 -0.10382045 0.08613496 0.06977855 -0.11564118 0.09072962
-0.06523035 -0.01183527 0.05422668 0.010684198 -0.14368016 0.07497266 0.13488567 0.05199502
0.12786199 -0.039614994 -0.12456848 0.051946633 0.11577057 0.07065365 0.038499705 0.031460386
0.05831192 -0.09731679 0.009124433 -0.04684275 0.051300533 -0.024295198 -0.11597493 -0.09944727
0.050422527 0.06563936 0.022851136 -0.053419527 -0.045872267 -0.1311755 0.07627178 -0.06029124
0.107543744 0.13212855 -0.16938685 -0.17152767 0.11204846 -0.16170429 -0.0017797245 0.16618618
0.029996464 -0.004559638 -0.059060175 0.026905162 -0.15339446 0.00031770673 0.13865528 -0.107191496
0.019082922 -0.03343378 -0.055908203 0.031832937 -0.06593247 0.13699035 0.040559404 0.088366255
-0.009510555 0.056595933 -0.07019181 0.04495701 0.023275603 0.06677625 0.15200403 -0.039915122
0.0009293775 0.060664687 0.028653208 -0.14495613 -0.16970615 -0.24430612 -0.22465497 0.14805439
0.058397695 0.012475784 0.15008835 -0.120211706 -0.19682409 0.10464621 0.1430199 -0.042960733
0.056800548 -0.23121656 -0.24119884 -0.12714948 -0.048405197 -0.13655874 -0.119253606 -0.028672753
-0.0774329 0.040995035 0.057824735 0.0031792154 -0.014686945 0.03888348 -0.006207711 -0.030862344
0.053745672 0.0100942245 -0.07724021 -0.08124284 -0.13450345 -0.12533416 -0.06250528 -0.10201204
-0.053949807 0.16295597 0.12235157 0.041375715 -0.10313995 -0.06946634 0.006939141 0.015536873
-0.08530691 0.062176038 -0.060892843 -0.011134394 0.09074123 -0.030820206 -0.014022764 -0.09374093
00000000: 2431 173d e19c d63d 5410 53be 0363 723d
00000010: 7b98 e6bd e6b9 213d cbc2 3cbe fdfb dfbd
00000020: 4b6e 08be 1477 83ba ec2b 573e 1df6 003d
00000030: a35b 49bd bd11 5a3d 929c 4dbd 8ef6 afbd
00000040: fa78 fc3d 322f 9b3b b447 f63d ab7d 65bd
00000050: c23f 683e 40ae 8fbd 0336 98bd 8b86 0bbd
00000060: db00 75bd 2202 aebc ba43 80be 11bf f1bc
00000070: ac57 f0bd be3c 153e 8ff7 9b3c 91af 58bc
00000080: 9b78 9bbe df6c 74be d437 a43d 7ed8 39be
00000090: 055d 363d 234e 95bd ca98 553d 2836 963d
000000a0: e0b0 a4bd 1afa e53d b8c8 a8bc b871 b8bd
000000b0: 3340 743e 72d9 9ebd 0568 d43d 061e 77be
000000c0: aa1a c53d 7faa 023d f456 8dbd 529b 743d
000000d0: 329c d4bc 3bf0 39be 3c0b 8d3d 27b8 edbd
000000e0: 6c32 27be 3eaa afbd 2721 84bc 15df f4bd
000000f0: 7e81 a3bc 7d7f cb3c 7342 2d3e 1bdf c93b
00000100: 1c8e 413c f5fe 67bd 9166 423d db03 8dbe
00000110: 738a 3abe 0735 b73d 25c1 10bd e44b 78bb
00000120: 9a04 9dbd df4b 4ebd b589 483e 3753 483d
00000130: 845f 21be 0c44 30bd 7169 d83c 6c8e 3fbe
00000140: dee2 a8bc 6ab0 4bbd 1bdf 653d 1ecf 7d3d
00000150: 3e06 b63a 1792 a4bd 5888 f53d 6b9e 9e3d
00000160: 49e3 b53d ad0b ecbd 07ad e23c b85d 003e
00000170: 660e be3d 96f6 873e 0249 66bc 0ce0 263c
00000180: 554f 25be 714f 86be 7f1d 933d 87ae f93d
00000190: e198 c63d 5003 df3d c03b 013e 7547 a7bd
000001a0: 7739 10be 3ba5 953d 360a eabd 0c8a 26be
000001b0: fc5b 6ebe a6eb e43d 1718 a0bd a35d 663c
000001c0: 9ef7 443d 3747 b8bd fcb5 293e ac6d a53a
000001d0: 36e7 6e3e 5b0b c63b 271d 43bd ec81 b6bd
000001e0: 5238 37bd f520 66bd f1c5 2c3e 3c5a 0d3e
000001f0: e8a6 96bb a002 803d 8758 653e 7525 9cbd
00000200: 20ba 06be c81e 0fbe 213d 78bd d19f d4bd
00000210: 8767 b03d 0ee8 8e3d 48d5 ecbd 73d0 b93d
00000220: 7d97 85bd b8e8 41bc cc1c 5e3d c60c 2f3c
00000230: e420 13be 448b 993d 781f 0a3e bbf8 543d
00000240: 41ee 023e 5543 22bd c21d ffbd fec5 543d
00000250: 1f19 ed3d dcb2 903d deb1 1d3d 9bdc 003d
00000260: 7bd8 6e3d 064e c7bd a57e 153c 2fde 3fbd
00000270: 8220 523d b906 c7bc 4484 edbd 03ab cbbd
00000280: da87 4e3d ee6d 863d 4e32 bb3c 6fce 5abd
00000290: 8fe4 3bbd df52 06be 6134 9c3d f3f3 76bd
000002a0: e53f dc3d b54c 073e bf73 2dbe f3a4 2fbe
000002b0: aa79 e53d cf95 25be a545 e9ba b62c 2a3e
000002c0: 25bb f53c 0469 95bb 15e9 71bd 3768 dc3c
000002d0: 7013 1dbe e091 a639 a6fb 0d3e 3787 dbbd
000002e0: ca53 9c3c dcf1 08bd 0000 65bd 4163 023d
000002f0: 9a07 87bd 3347 0c3e 9e21 263d 5ef9 b43d
00000300: 29d2 1bbc 23d1 673d b9c0 8fbd d724 383d
00000310: 7aac be3c fdc1 883d f2a6 1b3e 0a7e 23bd
00000320: 78a1 733a 897b 783d 22ba ea3c 616f 14be
00000330: 73c7 2dbe 622b 7abe f40b 66be 929b 173e
00000340: 6c32 6f3d 3b67 4c3c c3b0 193e 8e31 f6bd
00000350: 418c 49be c150 d63d cf73 123e 98f7 2fbd
00000360: b1a7 683d 09c4 6cbe d4fc 76be 7933 02be
00000370: 8744 46bd 0ed6 0bbe 3c3b f4bd 1fe3 eabc
00000380: 2495 9ebd 69ea 273d a1d9 6c3d 625a 503b
00000390: 83a1 70bc 4944 1f3d 0e6a cbbb 07d3 fcbc
000003a0: 6c24 5c3d 3f62 253c 1d30 9ebd a562 a6bd
000003b0: 46bb 09be 9957 00be c502 80bd b0eb d0bd
000003c0: 79fa 5cbd eedd 263e 7693 fa3d 9579 293d
000003d0: 0a3b d3bd 5e44 8ebd bc61 e33b 5e8e 7e3c
000003e0: 64b5 aebd 4dac 7e3d c66a 79bd 096d 36bc
000003f0: 8ad6 b93d a87a fcbc bcbf 65bc 3ffb bfbd

conv4.0.bias f4 [4]
0.105426215 -0.08350544 0.014780945 -0.13198544
00000000: b3e9 d73d e604 abbd c72b 723c 3127 07be

conv4.1.weight f4 [4]
1.0320244 1.1165271 0.95955706 1.0184817
00000000: 6019 843f 5cea 8e3f 88a5 753f 9c5d 823f

conv4.1.bias f4 [4]
0.011337572 0.075347826 0.006754932 0.0014215304
00000000: 39c1 393c f64f 9a3d 7a58 dd3b a552 ba3a

conv4.1.running_mean f4 [4]
-0.6455435 0.03872231 0.059063442 -1.5607908
00000000: 5742 25bf 499b 1e3d 82ec 713d fec7 c7bf

conv4.1.running_var f4 [4]
0.51836884 0.57859755 0.45631614 0.57522506
00000000: d2b3 043f f81e 143f 45a2 e93e f341 133f

fc1.0.weight f4 [64, 400]
0.0905595 0.09255762 -0.119649634 0.064471476 0.08028753 0.118862964 0.09273472 0.1018026
0.02635123 0.036904275 0.15222575 0.12792377 -0.0039859675 0.06139591 0.03780776 0.124301545
0.11057847 0.14878358 0.16550922 0.15172769 -0.11764863 0.13927644 0.1314862 0.075527966
0.018784303 0.051776163 0.0955506 0.124056496 0.07256026 0.096349776 -0.03066803 0.1452175
-0.0063368706 0.07535457 0.04896189 -0.03717356 -0.066041484 0.09791967 0.084691465 -0.02120805
0.083434425 0.10886759 0.055716187 0.012803082 0.056767844 0.081153415 0.045836385 0.056194186
0.095569275 0.06048088 0.024948288 0.07468452 0.14270173 0.12165089 0.1342589 0.10567543
0.07737828 0.0980249 -0.011956704 -0.069614336 0.1875786 -0.038054742 0.14753263 0.03984838
-0.04799399 -0.0779449 0.11589506 0.10501199 0.05533756 -0.18720002 0.2081959 -0.029876575
0.2179001 0.09306353 -0.045297183 -0.043981645 -0.019033218 0.018412981 0.1771842 -0.043556735
0.12794295 0.10971269 -0.07575546 0.036741022 -0.02665698 0.015802853 -0.015278381 -0.12305154
0.08672381 -0.027769567 0.17665544 -0.048713427 -0.003318832 0.17212413 -0.06146225 0.07087054
0.17243609 -0.13341165 0.13457833 -0.09130714 0.013034636 -0.026229333 -0.12144738 0.103141434
0.0049619908 0.027880024 0.0910441 -0.016418118 0.068788536 0.19049177 0.077220306 0.09965253
-0.10836297 0.11260627 0.07108446 0.007441978 -0.005984219 0.18996637 0.09099252 -0.09054816
-0.17363238 0.099634096 0.08514663 -0.075579695 0.012713723 0.12839168 0.03901301 -0.11815293
0.09358091 -0.070177965 0.14818203 0.02115755 -0.01977607 0.1230625 0.11254259 0.0656216
0.036736887 0.004875444 -0.09813941 0.0072460743 0.12975301 0.025700666 0.05335321 -0.113795735
-0.06919839 0.15407492 0.1701999 0.058654133 0.11359238 0.048678584 0.13949154 -0.023796672
-0.059936218 -0.02642034 -0.12766065 0.024830436 0.08601416 0.1210354 0.007863026 -0.055264834
-0.021680554 -0.11605867 0.15787554 0.02134376 0.0022391074 -0.00039490618 -0.04172813 -0.04675851
0.12647888 0.1825263 0.26655194 -0.09143256 0.040617708 -0.005513447 0.11299998 0.035976928
-0.076902114 -0.03907199 -0.105248205 0.13230152 0.22405612 -0.20327583 -0.15656133 -0.080148466
-0.07363299 -0.039535392 -0.08968722 -0.031148545 -0.06254732 -0.09370313 0.02560787 0.15778628
0.061392933 0.03851378 0.013885161 0.08900455 0.04511916 0.018832073 0.039228573 0.15160455
0.016367143 -0.15081033 -0.12612993 0.057375632 -0.09943191 -0.112607844 -0.08573679 -0.14524688
-0.06440536 -0.004876324 -0.10217834 -0.12881812 -0.07419977 -0.124666825 0.11433614 0.1271508
0.0073002535 0.0892631 -0.10008706 -0.050751276 0.023315 -0.14895838 0.057811372 0.025542717
0.1006435 0.013483337 0.048616227 0.01830679 0.117976874 -0.078996345 -0.08911887 -0.06690187
0.070355065 0.05521142 -0.074543364 -0.11799515 -0.018490441 0.04348059 0.04201193 0.049905013
-0.10324708 -0.013960981 -0.12122214 -0.0167476 0.04413895 0.022010168 -0.1495393 -0.055126917
-0.037926137 -0.09118856 0.019063542 0.03056121 -0.0005278502 0.036926705 -0.0813498 -0.04715844
00000000: 4277 b93d d98e bd3d de0a f5bd 9f09 843d
00000010: ca6d a43d 6d6e f33d b3eb bd3d e27d d03d
00000020: 89de d73c f028 173d 11e1 1b3e 73fe 023e
00000030: b89c 82bb 477a 7b3d 4fdc 1a3d cf91 fe3d
00000040: f776 e23d b95a 183e 407b 293e 815e 1b3e
00000050: c4f1 f0bd 7c9e 0e3e 52a4 063e 68ae 9a3d
00000060: 8ae1 993c 3e13 543d 08b0 c33d 5511 fe3d
00000070: 799a 943d 0853 c53d 853b fbbc e5b3 143e
00000080: 86a5 cfbb 7f53 9a3d 438c 483d 4e43 18bd
00000090: c240 87bd 1c8a c83d b872 ad3d 81bc adbc
000000a0: abdf aa3d f9f5 de3d a836 643d 05c4 513c
000000b0: 6685 683d c333 a63d efbe 3b3d e02b 663d
000000c0: d3b9 c33d cdba 773d 5a60 cc3c 33f4 983d
000000d0: 6720 123e 1a24 f93d 2a7b 093e 5c6c d83d
000000e0: 8178 9e3d 47c1 c83d 0de6 43bc f691 8ebd
000000f0: 9b14 403e 4adf 1bbd cb12 173e 0e38 233d
00000100: 5995 44bd 93a1 9fbd 645a ed3d 8710 d73d
00000110: a3a9 623d 5db1 3fbe 4e31 553e b8bf f4bc
00000120: 3421 5f3e 1898 be3d 8a89 39bd 1926 34bd
00000130: 8deb 9bbc d2d6 963c c66f 353e 8c68 32bd
00000140: 7a03 033e 0cb1 e03d ae25 9bbd c17d 163d
00000150: bd5f dabc fc74 813c 2d52 7abc 7202 fcbd
00000160: 419c b13d 017d e3bc 2ae5 343e bb87 47bd
00000170: c380 59bb 4f41 303e d7bf 7bbd 9324 913d
00000180: 1693 303e 109d 08be e7ce 093e 3dff babd
00000190: 3a8f 553c e6de d6bc 67b9 f8bd d13b d33d
000001a0: 3298 a23b a664 e43c 5475 ba3d 4a7f 86bc
000001b0: 01e1 8c3d 4610 433e ae25 9e3d a016 cc3d
000001c0: 68ed ddbd 1e9e e63d bb94 913d d6db f33b
000001d0: 4417 c4bb 8b86 423e 495a ba3d 5071 b9bd
000001e0: b0cc 31be f60c cc3d 5b61 ae3d 87c9 9abd
000001f0: 384d 503c 1c79 033e 1bcc 1f3d 2afa f1bd
00000200: 59a7 bf3d 77b9 8fbd 08bd 173e 9952 ad3c
00000210: 6d01 a2bc 3108 fc3d bb7c e63d 9e64 863d
00000220: 6b79 163d 30c2 9f3b 51fd c8bd 7a70 ed3b
00000230: f9dd 043e 348a d23c e588 5a3d bd0d e9bd
00000240: e3b7 8dbd d1c5 1d3e e248 2e3e 513f 703d
00000250: 1fa3 e83d 3263 473d dfd6 0e3e 3df1 c2bc
00000260: ae7f 75bd 786f d8bc 79b9 02be 3369 cb3c
00000270: 3128 b03d 68e1 f73d ecd3 003c 615d 62bd
00000280: 6b9b b1bc 2bb0 edbd 20aa 213e 1cd9 ae3c
00000290: fdbd 123b 690b cfb9 1eeb 2abd da85 3fbd
000002a0: ae83 013e 2de8 3a3e 7f79 883e fe40 bbbd
000002b0: c15e 263d 25aa b4bb 896c e73d 8b5c 133d
000002c0: db7e 9dbd f309 20bd 5f8c d7bd 0d7a 073e
000002d0: f86e 653e 8a27 50be 9d51 20be e124 a4bd
000002e0: e5cc 96bd ddef 21bd efad b7bd 3c2b ffbc
000002f0: cf18 80bd 6de7 bfbd 99c7 d13c ba92 213e
00000300: 2877 7b3d a0c0 1d3d 967e 633c 0448 b63d
00000310: dece 383d b845 9a3c 24ae 203d 393e 1b3e
00000320: 6314 863c 066e 1abe 3428 01be b602 6b3d
00000330: f5a2 cbbd f19e e6bd c596 afbd 99bb 14be
00000340: f5e6 83bd 92c9 9fbb e142 d1bd e6e8 03be
00000350: 0df6 97bd 5251 ffbd 1129 ea3d d233 023e
00000360: f736 ef3b 92cf b63d 72fa ccbd 92e0 4fbd
00000370: 19ff be3c 8c88 18be 9ecb 6c3d f63e d13c
00000380: 2e1e ce3d 37e9 5c3c cf21 473d 1ff8 953c
00000390: dc9d f13d d6c8 a1bd f483 b6bd d903 89bd
000003a0: 5116 903d 5f25 623d 31aa 98bd 71a7 f1bd
000003b0: 4479 97bc b418 323d b414 2c3d 3369 4c3d
000003c0: 3573 d3bd 99bc 64bc 5043 f8bd 4332 89bc
000003d0: 0bcb 343d ab4e b43c d520 19be c3cc 61bd
000003e0: 7058 1bbd 11c1 babd 252b 9c3c 815b fa3c
000003f0: 6d5f 0aba 7540 173d b99a a6bd 3529 41bd

fc1.0.bias f4 [64]
0.002457308 0.00872823 -0.010941348 -0.049921103 0.021143457 -0.02276932 -0.028754327 -0.031606052
-0.0318824 0.01800583 0.03938342 0.026409818 0.032313395 -0.047342606 0.017898774 0.038391545
-0.009360731 0.012385495 0.042037185 0.040857166 -0.03213785 0.031278122 0.029561516 -0.01485742
0.007655342 -0.03180811 0.024326619 0.035118755 -0.0070622656 -0.032141387 0.025905143 0.039433032
0.04275871 -0.044105027 -0.042225674 0.041044652 0.014335471 0.046155203 1.8590705e-05 0.057922363
-0.013278505 0.013908589 0.017581094 -0.007910177 0.0014261481 0.02554318 -0.048338 0.010074082
0.030266521 -0.0067812717 0.024895705 -0.014174004 -0.023376416 0.012318855 -0.04700209 -0.0038762356
-0.024735862 -0.047249548 -0.014356244 0.032792654 0.031057047 0.04956158 -0.008552948 0.04421651
00000000: c90a 213b da00 0f3c 5743 33bc 127a 4cbd
00000010: 0b35 ad3c ba86 babc 328e ebbc 5975 01bd
00000020: 1f97 02bd f680 933c 8250 213d 6759 d83c
00000030: 0d5b 043d 52ea 41bd 73a0 923c 7440 1d3d
00000040: c05d 19bc 88ec 4a3c 2f2f 2c3d d859 273d
00000050: faa2 03bd 7d1d 003d fe2a f23c 896c 73bc
00000060: aad9 fa3b 3949 02bd 9e48 c73c afd8 0f3d
00000070: 946a e7bb b0a6 03bd 0637 d43c 8884 213d
00000080: c223 2f3d 79a7 34bd d4f4 2cbd 701e 283d
00000090: 53df 6a3c 3d0d 3d3d 3cf3 9b37 0040 6d3d
000000a0: 168e 59bc dae0 633c 3a06 903c b099 01bc
000000b0: 97ed ba3a ee3f d13c 11fe 45bd c30d 253c
000000c0: 7ff1 f73c 6e35 debb 14f2 cb3c 153a 68bc
000000d0: e67f bfbc 06d5 493c 4385 40bd 7108 7ebb
000000e0: dda2 cabc be88 41bd 7436 6bbc 9751 063d
000000f0: 596b fe3c 1501 4b3d aa21 0cbc 5f1c 353d

fc1.1.weight f4 [64]
1.1259977 0.909341 0.9640062 0.9586058 0.89390856 1.0508976 0.8526303 0.9895045
1.0774361 0.98571104 1.1962712 0.87012243 0.81290984 0.9624083 0.98058134 0.8238878
1.1163363 1.080311 0.94154876 0.862403 0.97969383 0.9591326 0.8060287 0.86183846
1.0896779 1.0247953 0.9832376 1.096119 0.917288 0.9708063 1.0512787 1.1148126
0.9687119 0.9470672 0.912704 0.9539653 0.85049903 1.0114076 0.854053 1.180505
1.2001572 1.1197193 0.9725916 0.9368297 0.9232763 0.9064598 0.8368187 0.7875678
0.9862951 0.95217866 0.9935525 0.96926045 1.1686875 0.9530633 0.8401656 1.0236104
0.77418655 1.2052616 1.0462126 0.99677 0.995322 0.7769318 0.8823519 1.2062562
00000000: b120 903f 92ca 683f 1cc9 763f 3167 753f
00000010: 31d7 643f d083 863f fb45 5a3f 2b50 7d3f
00000020: 6de9 893f 8f57 7c3f 6a1f 993f 58c0 5e3f
00000030: dc1a 503f 6460 763f 6107 7b3f 50ea 523f
00000040: 1ce4 8e3f a147 8a3f 5709 713f 71c6 5c3f
00000050: 37cd 7a3f b789 753f e657 4e3f 72a1 5c3f
00000060: 917a 8b3f 7e2c 833f 76b5 7b3f a14d 8c3f
00000070: 63d3 6a3f c386 783f 4d90 863f 2eb2 8e3f
00000080: 81fd 773f ff72 723f f8a6 693f 1237 743f
00000090: 4eba 593f ce75 813f 38a3 5a3f ca1a 973f
000000a0: c09e 993f f652 8f3f c3fb 783f 12d4 6f3f
000000b0: d65b 6c3f c00d 683f c039 563f 0b9e 493f
000000c0: d67d 7c3f fbc1 733f 7559 7e3f 7421 783f
000000d0: 8d97 953f f5fb 733f 1815 573f aa05 833f
000000e0: 1731 463f 0346 9a3f 4bea 853f 522c 7f3f
000000f0: 6ccd 7e3f 01e5 463f d0e1 613f 9a66 9a3f

fc1.1.bias f4 [64]
0.09343774 -0.076500446 -0.16097546 -0.10267161 -0.22993654 0.05717744 -0.093358114 -0.107024804
-0.23774567 -0.075638056 0.052391585 -0.21929033 -0.024594715 -0.10149479 -0.07398802 -0.14730443
-0.015089682 -0.030673942 -0.18583968 -0.17811352 -0.185028 -0.26969078 -0.37773547 -0.19361942
0.0608779 -0.06954676 -0.09115161 -0.091939144 -0.012620765 -0.030642504 -0.08858175 -0.029291144
-0.05314488 -0.04899995 0.050534695 -0.05439145 -0.099464625 -0.19422017 -0.17937993 -0.036486354
-0.040571403 -0.078379676 -0.07543458 -0.09784453 -0.070101306 -0.11305414 -0.101201996 -0.15617447
-0.044905122 0.01768387 -0.00695416 -0.120747 -0.038182177 -0.048336867 -0.2501094 0.025722379
-0.20418583 -0.024026388 -0.15865414 -0.12469499 -0.12593499 -0.3378778 -0.14415298 0.13074617
00000000: 495c bf3d 44ac 9cbd c0d6 24be 7e45 d2bd
00000010: 7c74 6bbe e432 6a3d 8a32 bfbd d22f dbbd
00000020: 9a73 73be 20e8 9abd 8f98 563d a58d 60be
00000030: db7a c9bc 80dc cfbd 0887 97bd f9d6 16be
00000040: b73a 77bc eb47 fbbc c24c 3ebe 6463 36be
00000050: fb77 3dbe e914 8abe 8b66 c1be 2b44 46be
00000060: 1b5b 793d 886e 8ebd b2ad babd 974a bcbd
00000070: 53c7 4ebc fd05 fbbc 596a b5bd fbf3 efbc
00000080: 72ae 59bd 2cb4 48bd 78fd 4e3d 92c9 5ebd
00000090: 1cb4 cbbd a7e1 46be 5faf 37be b772 15bd
000000a0: 332e 26bd 8685 a0bd 727d 9abd b762 c8bd
000000b0: 4691 8fbd ee88 e7bd fe42 cfbd 33ec 1fbe
000000c0: 6fee 37bd c3dd 903c b9df e3bb 344a f7bd
000000d0: ea64 1cbd e1fc 45bd 570e 80be bdb7 d23c
000000e0: 1716 51be fdd2 c4bc 3b76 22be 1660 ffbd
000000f0: 1af5 00be 52fe acbe d79c 13be 53e2 053e

fc1.1.running_mean f4 [64]
4.0225534 -1.2396387 3.0951505 2.3681598 0.7426204 -3.2536578 -4.3588643 0.5679245
2.3292553 0.015329981 2.2641087 1.9868213 4.3516426 1.8222963 0.21759872 3.4661436
-1.049554 -0.20772977 1.1661538 2.1884058 3.619965 -0.47795933 -2.96354 -1.8694
-1.2522738 -1.4304037 -3.0036023 -0.2947024 1.4206345 -0.98299545 -0.5999012 1.7456291
1.037206 2.5918376 5.1463914 -5.6719565 -2.0866241 2.6080382 1.1534978 2.4741924
1.9443511 1.0665824 1.3447521 -1.4854653 2.5305824 -2.8775623 2.0208144 1.7456471
-4.6167135 -3.0212462 -3.6690912 1.1135902 -0.49983677 -2.6765141 1.2886045 6.4400935
0.83431774 -2.9211414 -0.06959011 1.6961998 -2.675888 -1.031069 -1.2430499 2.6710572
00000000: c2b8 8040 7bac 9ebf f216 4640 ee8f 1740
00000010: 5f1c 3e3f ee3b 50c0 d17b 8bc0 8063 113f
00000020: 8512 1540 9a2a 7b3c 28e7 1040 2950 fe3f
00000030: a840 8b40 0141 e93f 33d2 5e3e 4cd5 5d40
00000040: c957 86bf 1db7 54be 8744 953f d70e 0c40
00000050: 82ad 6740 16b7 f4be a4aa 3dc0 8048 efbf
00000060: 824a a0bf 7817 b7bf 053b 40c0 3ce3 96be
00000070: 5ad7 b53f 97a5 7bbf 2093 19bf c670 df3f
00000080: 2bc3 843f abe0 2540 3daf a440 ab80 b5c0
00000090: 408b 05c0 19ea 2640 d1a5 933f 2b59 1e40
000000a0: 7fe0 f83f c685 883f d620 ac3f ba23 bebf
000000b0: 10f5 2140 fb29 38c0 0655 0140 5d71 df3f
000000c0: 1ebc 93c0 195c 41c0 64d2 6ac0 208a 8e3f
000000d0: 9bea ffbe 024c 2bc0 fef0 a43f 3f15 ce40
000000e0: d995 553f fbf3 3ac0 4285 8ebd 131d d93f
000000f0: c041 2bc0 12fa 83bf 421c 9fbf 9af2 2a40

fc1.1.running_var f4 [64]
2.6392972 1.9542524 2.343792 2.1161633 1.3130335 1.5018247 2.0044487 5.1783156
2.1763144 1.8473415 4.6411614 2.8194184 1.5508974 2.2158313 3.7834158 3.492059
1.954342 3.6961675 2.2668762 2.9081812 3.9405847 1.5749376 2.1059058 1.781448
4.2855444 1.7794195 1.6310301 2.2613113 2.968427 1.9414929 1.8131698 3.4582574
2.1194706 2.7970543 3.9379358 2.4114225 1.6462778 1.2432808 2.4217942 4.683956
5.1019034 5.2095027 2.9428527 1.9461316 1.9719069 2.0585139 1.8301841 2.2321792
2.4665384 2.398694 3.5083904 6.3946958 3.7168698 1.1332169 3.5081723 4.9340925
1.8979897 2.5454006 1.5525903 2.3578904 1.9548752 1.4068694 2.2896955 6.8502736
00000000: 3fea 2840 f124 fa3f b000 1640 386f 0740
00000010: 7b11 a83f cb3b c03f e348 0040 c3b4 a540
00000020: bc48 0b40 b075 ec3f 6584 9440 5a71 3440
00000030: ce83 c63f 2ed0 0d40 7c23 7240 e57d 5f40
00000040: e127 fa3f 028e 6c40 8014 1140 a41f 3a40
00000050: 8a32 7c40 8e97 c93f 29c7 0640 7d06 e43f
00000060: 2e23 8940 05c4 e33f 98c5 d03f 53b9 1040
00000070: b5fa 3d40 d782 f83f f315 e83f 1754 5d40
00000080: 68a5 0740 f002 3340 2407 7c40 bf54 1a40
00000090: 3bb9 d23f d323 9f3f adfe 1a40 f8e2 9540
000000a0: cb42 a340 3fb4 a640 b357 3c40 d71a f93f
000000b0: 7267 fc3f b1be 0340 7943 ea3f 06dc 0e40
000000c0: c4db 1d40 3484 1940 7889 6040 59a1 cc40
000000d0: 32e1 6d40 400d 913f e585 6040 16e4 9d40
000000e0: 54f1 f23f d8e7 2240 47bb c63f ade7 1640
000000f0: 5a39 fa3f 4c14 b43f 5f8a 1240 7135 db40

fc2.0.weight f4 [32, 64]
0.05904005 0.16526826 0.034081426 0.076752014 -0.11988286 0.17368507 0.222935 -0.15533623
-0.08872479 -0.06685895 0.062253244 -0.0681116 -0.0930622 -0.069082074 0.112288624 -0.23702699
0.0271427 -0.014533329 -0.051550828 -0.12047479 -0.08658061 -0.11149703 -0.10310286 -0.008327422
0.28912723 0.15512404 0.18544737 -0.01735041 -0.008483818 -0.0050398414 -0.26663437 -0.05632462
0.20176078 -0.19343767 -0.011981892 0.21937013 -0.08174434 0.0023343845 -0.12240549 -0.058230467
-0.17409769 -0.036815565 -0.012806527 -0.16843939 0.11309631 0.08379764 0.13675843 0.14399935
0.35075393 0.07707609 -0.04217016 0.14374903 -0.107520096 0.0456546 -0.1045427 -0.2435673
-0.13930029 0.07637561 0.2446563 0.016499454 -0.027616391 -0.05768832 0.06452932 -0.21394956
0.14790057 0.08327819 -0.21247624 0.04317433 -0.052373577 -0.07757717 -0.14096394 -0.07791589
-0.20976017 0.003366732 -0.25399226 -0.038622897 -0.1441598 0.04250128 -0.0062035704 0.09266454
-0.21757132 0.23586503 0.03379381 0.056924567 -0.16402088 -0.017656144 -0.08083942 -0.112591885
-0.09302878 -0.13321795 -0.045798216 0.063900016 -0.0927737 -0.1264455 -0.034110777 -0.019428035
0.14877933 0.0057213907 0.096802995 -0.078576826 0.0661114 -0.02501536 0.092495285 -0.16433874
0.069355406 -0.15928662 0.0659443 -0.04914858 -0.12903652 -0.084811606 -0.18341677 0.10533364
-0.092024945 -0.05167946 -0.21521753 0.08936281 -0.17337269 0.017047992 -0.06521142 0.13136214
0.03081283 -0.05990957 -0.042378325 -0.090262674 -0.11542679 -0.19399305 0.0505474 -0.063819356
0.007974732 0.023267247 0.09720105 0.0644902 0.024866037 0.13880225 -0.114009365 0.019373156
-0.12999412 -0.02182464 -0.20319584 -0.16816257 -0.036802728 0.2336656 -0.045388512 -0.040740255
-0.24683279 0.12239423 -0.09848338 0.109170854 -0.07637508 -0.13323985 -0.09026479 -0.055792402
-0.047766693 -0.026275035 -0.070050746 0.11983269 -0.16917428 -0.081171975 -0.085773386 -0.18239465
-0.0161325 0.10561769 -0.020440904 -0.11138878 -0.0055968794 -0.07729008 0.09720918 -0.17873007
-0.23173317 -0.2214985 0.050185114 -0.0630307 -0.047512818 -0.14163071 -0.044801682 -0.021589154
-0.03655436 -0.21025307 -0.15400052 -0.06440297 -0.14529414 0.09185958 -0.07920852 -0.067241624
-0.091175035 -0.12831472 0.045277875 -0.07076817 0.0129463235 -0.07348598 0.15834656 -0.05602635
0.3211074 -0.051656332 -0.0030100225 -0.078857064 0.012095842 0.14003514 0.30188298 -0.061622273
0.14890705 0.063513294 0.14862339 0.040406045 -0.08158239 0.25177306 0.21759789 -0.13507947
0.02863264 -0.0797719 0.0010859397 -0.05055951 -0.13620575 -0.17095198 -0.10776387 -0.088136
0.11725815 0.010777994 0.18805026 0.13707505 -0.067223996 0.28167006 -0.1540324 0.015691936
0.14639325 -0.12772909 -0.042487316 0.058666106 0.10779922 0.06433279 0.026072355 0.12409057
-0.03728248 -0.019968327 -0.102118805 0.04222758 0.15807456 0.20551051 0.25573862 -0.041537665
0.0731895 0.18750225 0.07615463 0.12728041 -0.067366004 -0.005968761 -0.0022234514 0.08602029
0.076427005 -0.3071765 -0.036042992 0.15978037 -0.102446586 -0.050718475 -0.1836309 -0.29150394
00000000: fbd3 713d 153c 293e f798 0b3d 2930 9d3d
00000010: 2585 f5bd 80da 313e 1349 643e 7610 1fbe
00000020: 58b5 b5bd 58ed 88bd 42fd 7e3d 187e 8bbd
00000030: 6597 bebd e77a 8dbd 94f7 e53d 34b7 72be
00000040: 5e5a de3c 331d 6ebc f626 53bd 7dbb f6bd
00000050: 2d51 b1bd 8e58 e4bd 9827 d3bd bd6f 08bc
00000060: 7c08 943e d6d8 1e3e eae5 3d3e 7222 8ebc
00000070: b6ff 0abc 4125 a5bb 4d84 88be a5b4 66bd
00000080: 619a 4e3e 8614 46be b34f 44bc 90a2 603e
00000090: 9469 a7bd 79fc 183b bbaf fabd 1283 6ebd
000000a0: aa46 32be ebcb 16bd 78d2 51bc 607b 2cbe
000000b0: 0a9f e73d 199e ab3d 670a 0c3e 9174 133e
000000c0: 0596 b33e 12da 9d3d 9eba 2cbd f232 133e
000000d0: 7f33 dcbd 5100 3b3d 7c1a d6bd b569 79be
000000e0: bca4 0ebe d16a 9c3d 2e87 7a3e dd29 873c
000000f0: c53b e2bc 964a 6cbd f327 843d 9815 5bbe
00000100: 3f73 173e c18d aa3d 5f93 59be 91d7 303d
00000110: ad85 56bd c8e0 9ebd da58 10be 5e92 9fbd
00000120: 5fcb 56be 64a4 5c3b 460b 82be 0b33 1ebd
00000130: a09e 13be d215 2e3d 5247 cbbb e8c6 bd3d
00000140: 04cb 5ebe 9a86 713e 616b 0a3d bc29 693d
00000150: 17f5 27be 9ea3 90bc 238f a5bd 9396 e6bd
00000160: df85 bebd 496a 08be e996 3bbd 03de 823d
00000170: 2300 bebd ee7a 01be beb7 0bbd 8b27 9fbc
00000180: 9c59 183e 817a bb3b a640 c63d e3ec a0bd
00000190: 6a65 873d 03ed ccbc 2b6e bd3d 6a48 28be
000001a0: 350a 8e3d 081c 23be ce0d 873d 0550 49bd
000001b0: 2622 04be b5b1 adbd 9bd1 3bbe 2ab9 d73d
000001c0: 9377 bcbd d7ad 53bd fc61 5cbe d903 b73d
000001d0: 9c88 31be 3ba8 8b3c 918d 85bd cc83 063e
000001e0: 306b fc3c bd63 75bd e594 2dbd a3db b8bd
000001f0: e264 ecbd 1da6 46be ca0a 4f3d b9b3 82bd
00000200: 73a8 023c f49a be3c 5811 c73d 7013 843d
00000210: dcb3 cb3c 2d22 0e3e be7d e9bd 74b4 9e3c
00000220: 2e1d 05be 96c9 b2bc 9212 50be cf32 2cbe
00000230: 75be 16bd 0946 6f3e 4ee9 39bd 41df 26bd
00000240: bcc1 7cbe d3a9 fa3d a8b1 c9bd f894 df3d
00000250: 8a6a 9cbd 0770 08be bfdc b8bd 9386 64bd
00000260: 02a7 43bd be3e d7bc c476 8fbd d76a f53d
00000270: 063c 2dbe 7e3d a6bd f5a9 afbd aac5 3abe
00000280: 4e28 84bc 164e d83d af73 a7bc cd1f e4bd
00000290: 0766 b7bb 434a 9ebd 9b15 c73d 0405 37be
000002a0: 764b 6dbe 81d0 62be e88e 4d3d 3d16 81bd
000002b0: cd9c 42bd a407 11be f881 37bd bddb b0bc
000002c0: 06ba 15bd 954c 57be 50b2 1dbe b4e5 83bd
000002d0: fdc7 14be e020 bc3d 1438 a2bd fab5 89bd
000002e0: fab9 babd ef64 03be 4b75 393d e7ee 90bd
000002f0: d11c 543c d17f 96bd 9a25 223e e37b 65bd
00000300: 3068 a43e 9795 53bd cc43 45bb d07f a1bd
00000310: a32d 463c 5f65 0f3e 6890 9a3e a367 7cbd
00000320: 177b 183e 4213 823d bb30 183e cf80 253d
00000330: ab14 a7bd 66e8 803e fbd1 5e3e 4652 0abe
00000340: 008f ea3c 735f a3bd 1756 8e3a 7d17 4fbd
00000350: 8579 0bbe 090e 2fbe 4eb3 dcbd a680 b4bd
00000360: 0a25 f03d 2f96 303c 3f90 403e 675d 0c3e
00000370: bcac 89bd 0f37 903e abba 1dbe 608c 803c
00000380: 1de8 153e 6acb 02be 2e07 2ebd df4b 703d
00000390: d6c5 dc3d e9c0 833d b195 d53c 3223 fe3d
000003a0: 84b5 18bd 9e94 a3bc aa23 d1bd d4f6 2c3d
000003b0: 4cde 213e 5971 523e 2cf0 823e 6623 2abd
000003c0: 60e4 953d 9700 403e f5f6 9b3d cc55 023e
000003d0: 30f7 89bd 9995 c3bb 53b7 11bb 682b b03d
000003e0: c385 9c3d 3d46 9dbe d1a1 13bd 779d 233e
000003f0: 84cf d1bd 2dbe 4fbd bd09 3cbe 0140 95be

fc2.0.bias f4 [32]
0.05583761 0.016673416 -0.077487715 0.044375945 0.04181722 -0.026727036 0.08177346 -0.054538652
0.029762976 -0.112247154 0.010212674 -0.057425372 0.011787871 -0.07539612 0.047921427 -0.027790042
0.036556233 0.111289226 -0.07335367 -0.009761568 0.067213774 0.11205043 0.048061907 0.056105763
0.038651533 -0.013676694 -0.09997294 -0.08702104 0.06598824 0.018535718 -0.1025576 0.027109377
00000000: fab5 643d b096 883c e1b1 9ebd 8dc3 353d
00000010: 8948 2b3d a8f2 dabc d878 a73d ec63 5fbd
00000020: 7cd1 f33c d6e1 e5bd 0f53 273c de36 6bbd
00000030: ea21 413c 4869 9abd 4249 443d f1a7 e3bc
00000040: fdbb 153d 9beb e33d 733a 96bd fcee 1fbc
00000050: 60a7 893d b27a e53d 90dc 443d 28cf 653d
00000060: 1251 1e3d 3614 60bc 9dbe ccbd 1638 b2bd
00000070: d824 873d 38d8 973c b809 d2bd 7c14 de3c
