Models/stat_dict_AlexNet.pth (torch, 713663 bytes, 10 tensors)

conv1.0.weight f4 [32, 1, 2, 2]
0	0x3ea2929a	0.31752473
1	0x3ebc1fe0	0.3674307
2	0x3d7044c3	0.058659326
3	0x3e8c0159	0.27344778
4	0xbe207c92	-0.1567252
5	0x3e1382a4	0.14405304
6	0x3eaae758	0.33379626
7	0x3eba47df	0.36382958
8	0x3d79d03a	0.060989596
9	0x3ecc6328	0.399194
10	0x3e8814db	0.2657841
11	0xbe523530	-0.20528102
12	0xbedd88f2	-0.43268543
13	0xbe0bfbbc	-0.13670248
14	0xbeef8272	-0.4677921
15	0xbeb9b1b4	-0.3626839
16	0x3eaf264a	0.342089
17	0xbea2b690	-0.3177991
18	0xbe46bf38	-0.19408882
19	0x3ed29090	0.41125917
20	0x3eccbb53	0.39986667
21	0x3d99fbd4	0.075187355
22	0xbea275ab	-0.317304
23	0x3dc01e7a	0.09380813
24	0x3dcc6d7e	0.099818215
25	0x3e8897a4	0.26678193
26	0xbe5ce122	-0.21570256
27	0x3be63d1e	0.0070263287
28	0xbefbbb38	-0.49166274
29	0xbe980f01	-0.29698947
30	0x3de9ed29	0.11422188
31	0x3ecb38e9	0.39691857
32	0xbd43db23	-0.047816407
33	0xbed2fdfa	-0.41209394
34	0x3e8b3b30	0.27193594
35	0xbec75306	-0.3893053
36	0x3eacb0aa	0.33728534
37	0x3eff1fca	0.4982894
38	0x3e999d2b	0.30002722
39	0x3e926314	0.28591216
40	0x3ed8320e	0.4222569
41	0x3d060a85	0.032724876
42	0x3e656b45	0.22404201
43	0x3cffdf0a	0.031234283
44	0xbef67fa0	-0.48144245
45	0x3eadf1c4	0.33973515
46	0xbdb986f4	-0.090589434
47	0x3e492bbe	0.19645593
48	0xbef18713	-0.47173366
49	0x3eceb16d	0.4036974
50	0x3e10a945	0.14127071
51	0x3ebd5e11	0.3698583
52	0xbee0d54a	-0.43912727
53	0xbd8b4c90	-0.068017125
54	0xbeb55446	-0.35415858
55	0xbeb97428	-0.36221433
56	0xbe16eb8a	-0.14738289
57	0x3c7e7c9c	0.015532639
58	0x3e7abe55	0.24486668
59	0x3ea2713f	0.31727025
60	0x3e6039be	0.21897027
61	0x3ed23c87	0.41061804
62	0x3e82c15d	0.2553815
63	0xbea86585	-0.32889953
64	0x3c92262c	0.017840467
65	0xbe1c5a14	-0.15268737
66	0xbed5b5c6	-0.41740245
67	0x3e8c9fb8	0.27465606
68	0x3e34c0cf	0.17651676
69	0x3d61b1be	0.05510115
70	0xbdcd5cf0	-0.10027492
71	0xbe184bce	-0.14872667
72	0x3ed5a76d	0.41729298
73	0x3dfb03d6	0.12256591
74	0xbe2d9497	-0.16951214
75	0xbec09efd	-0.37621298
76	0xbd8fcf48	-0.07021958
77	0xbeeac648	-0.45854402
78	0x3dd113b8	0.10208839
79	0xbeceb372	-0.4037128
80	0x3e97f1a0	0.29676533
81	0xbddc1ac9	-0.10747296
82	0x3dd7b4c7	0.105325274
83	0xbddf6c03	-0.109092735
84	0x3d8cdf48	0.06878525
85	0x3e0e6a64	0.13907772
86	0xbe5d9984	-0.21640593
87	0xbe57686c	-0.21035928
88	0xbec35d25	-0.38157
89	0xbe0ad743	-0.13558678
90	0x3c5d47e9	0.013505914
91	0x3ee8a997	0.45441887
92	0x3ee9c162	0.45655352
93	0x3e6da00b	0.23205583
94	0x3e24712c	0.16058797
95	0x3e8c7dcd	0.27439728
96	0xbd16e8b5	-0.03684302
97	0xbef8f316	-0.4862296
98	0x3ea5148a	0.32242233
99	0x3ee03f78	0.43798423
100	0x3df97dc4	0.12182191
101	0x3e72f0ed	0.23724718
102	0xbea5a57b	-0.32352814
103	0xbef4688b	-0.4773601
104	0x3ddc0822	0.10743739
105	0xbeb627d7	-0.3557727
106	0xbe765c73	-0.24058704
107	0x3ea5fb7a	0.32418424
108	0x3eab8bf7	0.33505222
109	0x3e99c2cd	0.30031434
110	0xbe7e7502	-0.24849322
111	0x3e83f7d6	0.2577502
112	0x3d754154	0.059876755
113	0xbe8f83ae	-0.2803015
114	0xbdb44788	-0.08802706
115	0x3ee89fe7	0.45434496
116	0x3e6f0d48	0.2334491
117	0xbe12f6be	-0.14351937
118	0x3e485493	0.19563513
119	0x3ef05823	0.46942243
120	0xbd2431df	-0.040086623
121	0xbe6b1039	-0.22955407
122	0xbe983202	-0.29725653
123	0x3ee79e6a	0.45238048
124	0xbef950ef	-0.4869456
125	0x3d852da7	0.06502848
126	0x3ea64217	0.32472298
127	0x3e1094a4	0.14119202

conv1.0.bias f4 [32]
0	0xbe5411fd	-0.20709987
1	0x3ecb7388	0.3973658
2	0x3e9f3c23	0.31100568
3	0xbca5e460	-0.0202505
4	0xbe821bec	-0.25411928
5	0xbe7f318e	-0.24921247
6	0xbe2e7740	-0.17037678
7	0x3e977bcd	0.2958664
8	0xbd0a7cb0	-0.033810318
9	0xbe800ae3	-0.25008306
10	0x3e0041b4	0.12525064
11	0x3e65f676	0.22457299
12	0xbee6656a	-0.44999248
13	0xbef7c51c	-0.4839257
14	0xbe8a440d	-0.27005044
15	0xbe9343a1	-0.28762534
16	0x3e8d622f	0.2761397
17	0x3d74e16f	0.059785303
18	0x3ba90dc8	0.0051591136
19	0xbeed7dd2	-0.46385056
20	0x3d2f0914	0.042733267
21	0xbec1154a	-0.37711555
22	0x3e608444	0.21925455
23	0x3e0562e4	0.13026005
24	0x3e857cea	0.26071864
25	0x3e86b341	0.26308635
26	0x3e0f8cca	0.1401855
27	0xbea9349b	-0.33047947
28	0x3e8dff0d	0.2773365
29	0x3bfc4e4e	0.0076997643
30	0x3eeb5623	0.45964155
31	0xbca64953	-0.020298636

conv2.0.weight f4 [16, 32, 2, 2]
0	0x3daf1ee6	0.08550815
1	0xbced4fe5	-0.02896876
2	0xbbb4cbe3	-0.0055174693
3	0x3d5d2651	0.05399162
4	0x3d3fbc9c	0.04681073
5	0x3cef0e0a	0.029181499
6	0xbdd17414	-0.10227218
7	0x3d413a4f	0.047174748
8	0xbd82f9c7	-0.063952975
9	0xbd93ff17	-0.07226389
10	0xbda11e8f	-0.07867157
11	0xbd996078	-0.07489103
12	0x3d88f617	0.06687563
13	0xbd165098	-0.036697954
14	0x3c30c1e0	0.010788411
15	0xbd8e4c82	-0.069481865
16	0xbd480a0e	-0.048837714
17	0x3e10cf8c	0.14141673
18	0x3e843e37	0.25828716
19	0x3e824b0e	0.25447887
20	0x3e24b9c0	0.16086483
21	0xbd362f1b	-0.044478517
22	0x3e658588	0.2241422
23	0x3e47bfd6	0.19506773
24	0x3e0e3272	0.13886431
25	0xbdad0996	-0.08449094
26	0x3e6e3b24	0.23264748
27	0x3e6542c0	0.22388744
28	0x3c05dc26	0.008170163
29	0x3d398251	0.045290295
30	0xbd96db7d	-0.07366083
31	0x3e0df450	0.13862729
32	0x3e596dd7	0.21233307
33	0x3d12d528	0.035847813
34	0x3dc5d28a	0.09659298
35	0x3a2ac236	0.0006513925
36	0x3da3b4ab	0.07993444
37	0xbd86547d	-0.065590836
38	0xbd91a327	-0.07111197
39	0x3ccc6fef	0.024955718
40	0x3cd24abb	0.0256704
41	0xbced6883	-0.0289805
42	0x3a93c47c	0.0011273767
43	0x3d843981	0.064562805
44	0xbd42faec	-0.04760258
45	0x3a9da069	0.0012025955
46	0xbd89a655	-0.067211784
47	0x3c4a8f78	0.012363307
48	0xbd87b501	-0.06626321
49	0xbd69243f	-0.056919333
50	0xbe35c6e7	-0.17751656
51	0x3e012d18	0.12614858
52	0xbb48a4c0	-0.0030615777
53	0xbd090520	-0.033452153
54	0xbcb8c4e8	-0.02255483
55	0xbd56ea1c	-0.052469358
56	0xbc8aa7de	-0.016925748
57	0xbcc8af34	-0.024497606
58	0x3b356dec	0.0027683927
59	0xbd50380e	-0.050834708
60	0xbd37c56f	-0.04486602
61	0x3d896993	0.0670959
62	0x3c9cfbbe	0.019163009
63	0xbc3ace29	-0.0114016915
64	0xbc734976	-0.014849057
65	0x3dd34364	0.10315588
66	0x3e2964f2	0.16542414
67	0x3de5a6a4	0.11213425
68	0xbc4b6091	-0.01241316
69	0x3d07b2d9	0.033129547
70	0x3e18ada1	0.14909984
71	0x3cc69b80	0.02424407
72	0x3c9c2917	0.019062562
73	0x3d7d680c	0.061866805
74	0x3e856092	0.2605024
75	0x3d966d1c	0.0734503
76	0x3ca8556c	0.020548545
77	0xbd262e29	-0.040571366
78	0xbd934ec8	-0.07192761
79	0x3d905fab	0.07049497
80	0xbd075507	-0.033040073
81	0x3dc4dd4c	0.096125215
82	0xbca4b562	-0.020106021
83	0xbdca2f8f	-0.09872352
84	0x3c1995c8	0.00937409
85	0x3cf4c468	0.02987881
86	0x3db13351	0.08652366
87	0xbda8cded	-0.08242402
88	0xbdaa0a75	-0.08302776
89	0xbd22b549	-0.03972367
90	0xbcc2ca69	-0.023778157
91	0xbb343640	-0.0027498156
92	0xbd522691	-0.05130631
93	0x3dac2f72	0.08407487
94	0xbdc1f04d	-0.09469662
95	0x3d220e0c	0.039564177
96	0x3d17af36	0.03703233
97	0x3d4a5863	0.0494007
98	0xbd1ba6b5	-0.03800078
99	0xbd58599d	-0.052819837
100	0x3ac01886	0.0014655746
101	0xbda8a34b	-0.08234271
102	0x3e605080	0.21905708
103	0x3cdf8a7b	0.027287712
104	0xbd22962d	-0.039694
105	0x3e41d619	0.18929328
106	0x3e3156aa	0.17318216
107	0x3daa61aa	0.08319409
108	0x3ddbdfdd	0.10736058
109	0xbd735d52	-0.05941517
110	0x3d887672	0.06663217
111	0xbc03ab79	-0.008036488
112	0x3d0c089a	0.03418789
113	0xbc257f2a	-0.010101119
114	0x3c2a4f5e	0.010394899
115	0x3caac188	0.020844236
116	0xbc4240ba	-0.011856252
117	0x3dc4f113	0.09616294
118	0xbcf169f6	-0.029469471
119	0xbd42751e	-0.047474973
120	0x3c53b2e2	0.012921067
121	0x3d8f282e	0.069900855
122	0x3c05322f	0.0081296405
123	0x3d36fc3d	0.044674147
124	0xbda50e27	-0.0805934
125	0xbd0e6824	-0.034767285
126	0x3ca3fb60	0.020017326
127	0x3df16073	0.11785974
128	0x3bcd2d80	0.0062615275
129	0x3cdc65d0	0.026904017
130	0x3cf2d74c	0.029643677
131	0xbd96fb94	-0.073722035
132	0xbd97eb63	-0.07417943
133	0xbd7bc900	-0.061470985
134	0xbc4fd4a8	-0.012684979
135	0xbd645975	-0.055749375
136	0xbb43f480	-0.0029900372
137	0xbdae669e	-0.085156664
138	0xbd8a8700	-0.067640305
139	0xbd9f59a7	-0.07780772
140	0xbc76cd80	-0.015063643
141	0x3d5f4052	0.0545047
142	0xbd5dd4af	-0.05415791
143	0xbd071bf3	-0.03298564
144	0xbd76a7c0	-0.060218573
145	0xbc89e6b8	-0.016833648
146	0xbd584ed0	-0.052809536
147	0xbd88524f	-0.06656324
148	0x3d4063ae	0.046970062
149	0x3d18cf5a	0.03730712
150	0xbc1f61c0	-0.009727895
151	0x3d13eec8	0.03611639
152	0x3d472e76	0.048628293
153	0x3d95bf69	0.07311899
154	0xbd9f38b3	-0.077744864
155	0x3c8136bc	0.01577317
156	0xbd9cd0f3	-0.076570414
157	0xbd19e669	-0.037573252
158	0xbd5c73d4	-0.0538214
159	0xbd362324	-0.044467106
160	0xbc1e3b60	-0.009657711
161	0x3d836db7	0.06417411
162	0x3cc1d334	0.02366028
163	0xbd41eb86	-0.047343753
164	0x3d4e0876	0.050301038
165	0xbda7af77	-0.08187764
166	0x3c38d338	0.011280827
167	0x3c6b9558	0.014378868
168	0xbd21b665	-0.039480586
169	0x3d78387e	0.06060075
170	0x3ca391d4	0.019966997
171	0xbbd942c0	-0.0066302717
172	0x3c17a1a8	0.00925485
173	0x3ccdf928	0.025143221
174	0xbd9da50b	-0.07697495
175	0xbd292f16	-0.04130467
176	0x3daccdf3	0.08437719
177	0x3d62d806	0.055381797
178	0x3b2c5280	0.002629429
179	0x3d2c27aa	0.042030014
180	0xbce4dbaa	-0.027936775
181	0x3da1c5f7	0.07899087
182	0x3ca78c40	0.020452619
183	0xbd682edd	-0.056685317
184	0xbd621327	-0.055194046
185	0x3db27b8d	0.08714972
186	0x3db31537	0.08744281
187	0x3d8a0ddb	0.06740924
188	0xb8d01000	-9.921193e-05
189	0xbb22c240	-0.002483502
190	0x3c6422c8	0.013924308
191	0xbd7e5e7a	-0.06210182
192	0xbda63159	-0.08114881
193	0x3d26dafa	0.040736176
194	0x3d7a4e56	0.061109863
195	0xbd1ea940	-0.038735628
196	0xbcb3fd88	-0.021971479
197	0x3d5c7f72	0.05383248
198	0xbd9a2cba	-0.07528062
199	0x3baba860	0.0052385777
200	0xbd823227	-0.06357222
201	0x3d32851a	0.043583967
202	0x3b90e520	0.004421845
203	0x3a3cd280	0.0007202998
204	0xbd6f32b8	-0.05839798
205	0xbc8df1c0	-0.01732719
206	0xbb7f6020	-0.0038967207
207	0xbd96d370	-0.07364547
208	0xbc06f080	-0.008236051
209	0x3cc231bc	0.023705356
210	0x3d039106	0.032120727
211	0x3d504712	0.050849028
212	0xbdab63e6	-0.083686635
213	0xbd12e96e	-0.035867147
214	0x3c283988	0.010267623
215	0x3d6ba696	0.057531916
216	0xbd05df91	-0.032683913
217	0x3d14aac6	0.036295675
218	0x3d1b4c2a	0.037914433
219	0xbd8d2e9e	-0.06893657
220	0xbce96ad4	-0.028493322
221	0xbd709415	-0.058734972
222	0xbd350ce7	-0.044201758
223	0xbccf3788	-0.025295034
224	0xbda230bf	-0.07919454
225	0x3cddfa1c	0.0270968
226	0xbcb83598	-0.022486493
227	0x3d585106	0.052811645
228	0xbd8dfa42	-0.069324985
229	0xbd3ae1a4	-0.045625344
230	0xbd710a2c	-0.05884759
231	0xbd13aec2	-0.036055334
232	0x3d11c57c	0.035588726
233	0xbd0f77ab	-0.035026234
234	0xbce998f8	-0.028515324
235	0x3cf050c4	0.029335387
236	0xbd78dff8	-0.06076047
237	0xbcd8f70a	-0.026484985
238	0xbd5e14b9	-0.05421898
239	0xbbf7e0c0	-0.007564634
240	0x3c96ccf0	0.018408269
241	0x3d2c0c02	0.04200364
242	0x3cfc1444	0.030771382
243	0x3c34ce40	0.011035502
244	0xbc564c38	-0.013079695
245	0x3c188438	0.009308867
246	0xbd8032f4	-0.062597185
247	0x3d73151a	0.059346296
248	0xbca01cec	-0.019545041
249	0xbd939e66	-0.072079465
250	0x3b3123a0	0.002702929
251	0x3cf8c078	0.030365214
252	0xbcc5eba4	-0.024160214
253	0x3d3e3c3e	0.04644417
254	0x3d90c105	0.070680656
255	0xbb9110e0	-0.0044270605

conv2.0.bias f4 [16]
0	0x3d0897d7	0.03334793
1	0xbd75b53a	-0.059987284
2	0x3d6cd7c9	0.057822976
3	0x3c1e08ad	0.009645623
4	0xbc9e518f	-0.019326
5	0xbd90deee	-0.070737705
6	0xbc3f080a	-0.0116596315
7	0x3d8980d1	0.06714023
8	0x3d807423	0.06272151
9	0xbcbe1e6d	-0.023207868
10	0x3a94e9de	0.0011361202
11	0x3b0e0cf4	0.00216752
12	0xbce5d70c	-0.028056644
13	0xbd7f1d82	-0.062284
14	0x3cde12b7	0.027108533
15	0x3b8283d2	0.0039829994

fc1.0.weight f4 [64, 2704]
0	0xbb88092e	-0.004151485
1	0xbce2d7c1	-0.02769077
2	0xbd319666	-0.04335632
3	0x3ceff307	0.02929069
4	0x3e09e532	0.13466337
5	0x3db56682	0.088574424
6	0x3d19fd87	0.0375953
7	0x3d8c8083	0.06860449
8	0x3d330964	0.043710127
9	0xbbed24a5	-0.0072370344
10	0x3d52b100	0.05143833
11	0x3d7fa388	0.062411815
12	0x3d8d2f3c	0.06893775
13	0x3a830ec5	0.0009998908
14	0xbbd3f68d	-0.0064686
15	0xbca90c48	-0.020635739
16	0x3dad0ed4	0.08450094
17	0x3ddb2ef8	0.10702318
18	0x3d93737c	0.07199761
19	0x3d6ed0cf	0.058304604
20	0x3d75457f	0.05988073
21	0xbbfd28f8	-0.007725831
22	0x3cf012f0	0.029305905
23	0x3d7e5d52	0.062100716
24	0x3d80ab62	0.06282689
25	0x3d6f2e6f	0.058393892
26	0x3be2deaf	0.0069235186
27	0xbcb03e4e	-0.021514084
28	0x3ba37f66	0.0049895523
29	0xbc9957c5	-0.01871861
30	0xbba7331e	-0.005102529
31	0x3a69e9da	0.0008923091
32	0x3d4308ac	0.047615692
33	0x3d2021f4	0.03909488
34	0x3bbd0fa3	0.0057696863
35	0xbcff21f4	-0.03114412
36	0x3c8eb9e1	0.017422618
37	0x3d2d7a94	0.042353228
38	0x3d42c977	0.047555413
39	0x3c294763	0.010331961
40	0x3c8343e5	0.016023586
41	0x3cef9a12	0.029248271
42	0xbbf76bca	-0.0075506913
43	0xbd363af3	-0.044489812
44	0x3d1479e4	0.036249056
45	0x3d1a5795	0.03768118
46	0xbc3b684b	-0.01143844
47	0x3d96c922	0.07362582
48	0x3d98467c	0.07435319
49	0xbc095c08	-0.008383758
50	0x3d73fcbe	0.059567206
51	0x3dc2eba1	0.09517599
52	0xbc526f17	-0.012843869
53	0x3c84c9e3	0.016209548
54	0x3cfc561d	0.03080278
55	0xbc383e41	-0.011245311
56	0x3a80a30b	0.0009814216
57	0x3d970463	0.073738836
58	0x3c2df1fb	0.010616775
59	0xbcb3dd4d	-0.02195611
60	0x3d605f7d	0.054778565
61	0x3bf1a588	0.007374469
62	0xbc13f588	-0.009030707
63	0x3d512165	0.051057238
64	0x3cb709ce	0.022343542
65	0x3bf4479b	0.007454825
66	0xbd12559f	-0.035726186
67	0xb99c5162	-0.00029815274
68	0xbc92e04d	-0.01792922
69	0xbd38ea31	-0.045145217
70	0x3d017628	0.031606823
71	0x3d8977de	0.06712316
72	0x3db63816	0.08897416
73	0x3ccb823b	0.024842372
74	0x3d3d8f75	0.04627939
75	0x3d910a93	0.07082095
76	0x3d57cd7f	0.05268621
77	0x3d2957b9	0.041343424
78	0x3c5f8ab2	0.013643907
79	0x3b9f43fc	0.0048603993
80	0x3d0feeb2	0.035139747
81	0x3c0dc2ef	0.008652433
82	0x3c269e34	0.0101695545
83	0xbcfc3830	-0.030788511
84	0xbd22b905	-0.03972723
85	0xbcd623d2	-0.026140127
86	0x3cf42db0	0.029806942
87	0x3d31eff7	0.04344174
88	0x3c75d337	0.015003971
89	0x3dc516e6	0.09623508
90	0x3d76228c	0.06009154
91	0x3c4977fe	0.012296675
92	0x3a73afb5	0.0009295897
93	0x3bd570d0	0.0065136924
94	0x3b7610d7	0.0037546658
95	0x3d42396e	0.04741805
96	0xbc3f0f88	-0.011661418
97	0xbd2f50d4	-0.042801693
98	0xbd8491e5	-0.0647314
99	0xbd130952	-0.03589756
100	0xbcbaa5b6	-0.022784095
101	0xbd0b3ba5	-0.03399243
102	0xbd2cd342	-0.04219366
103	0xbd88b660	-0.0667541
104	0x3c757edd	0.01498386
105	0x3ca74e16	0.020422976
106	0xbc2a80fa	-0.010406727
107	0x3b334ca6	0.0027358918
108	0x3cc33cbb	0.02383267
109	0x3c875001	0.016517641
110	0xbc461510	-0.012089983
111	0x3c6cef79	0.014461392
112	0x3b03c48c	0.0020106165
113	0xbb7dc8de	-0.0038724463
114	0xbb7e8c80	-0.0038841069
115	0xbd110a97	-0.03541049
116	0xbcbb546e	-0.022867408
117	0x3b69d941	0.0035682472
118	0xbbf3703d	-0.0074291513
119	0xbc130e5c	-0.0089755915
120	0xbae282d9	-0.0017281427
121	0xbc96dff3	-0.018417334
122	0xbc28ede9	-0.010310628
123	0x3c85666d	0.016284192
124	0xbc28af07	-0.010295636
125	0x3c5c8058	0.013458334
126	0x3d3a869a	0.045538522
127	0x3c9005af	0.017580835
128	0xbc9de1d6	-0.019272726
129	0x3d230fca	0.03980998
130	0x3c8e5214	0.017373122
131	0x3aebfdd0	0.0018004719
132	0xbaaa5859	-0.00129963
133	0xbccb64a3	-0.02482826
134	0x3c9c3844	0.019069798
135	0x3c632563	0.013863894
136	0x3c9db0cb	0.01924934
137	0x3baea981	0.005330265
138	0x3bc4b5b0	0.006003104
139	0xbb6d7d65	-0.003623807
140	0xbc8766cc	-0.01652851
141	0x3c23e9a8	0.010004438
142	0x3d7e7c28	0.062130123
143	0x3c9b24cf	0.01893845
144	0x3c9fd344	0.019509919
145	0x3cd068e9	0.02544065
146	0x3c77b49d	0.015118745
147	0x3b8ed00d	0.0043582977
148	0xbb8bfd74	-0.0042721573
149	0xbc5e996e	-0.013586385
150	0x3c897626	0.01677997
151	0x3c6e219d	0.014534381
152	0x3cc3fac1	0.02392328
153	0x3cba587a	0.022747267
154	0x36d67af0	6.392009e-06
155	0x3c180f1c	0.009280946
156	0x3c01f21d	0.007931259
157	0x3cbdf29c	0.023186974
158	0xbc61d229	-0.013783016
159	0xbb92f512	-0.004484781
160	0x3b0a5bf0	0.0021111928
161	0x3c03fbef	0.008055671
162	0x3c0d78bf	0.008634745
163	0xbbaa29b9	-0.005192962
164	0xbcfbf7c5	-0.030757794
165	0xbbc638e1	-0.006049261
166	0xbc003b36	-0.007826617
167	0x3c932ed0	0.017966658
168	0x3cddfcde	0.027098116
169	0xbc201dfb	-0.009772773
170	0x3b2f3750	0.002673585
171	0x3b9eae24	0.0048425365
172	0x3bfb1cb0	0.007663332
173	0xbc0b768f	-0.008512153
174	0x3b158080	0.0022812188
175	0xbc05f7e5	-0.008176778
176	0x3b75b400	0.0037491322
177	0xbc616a00	-0.0137581825
178	0xbc980bd4	-0.018560328
179	0xbb5746e0	-0.0032848641
180	0xbc492c90	-0.012278691
181	0xbc4572f6	-0.012051335
182	0xbc5bc170	-0.013412818
183	0x3b374c98	0.0027969237
184	0x3c622cde	0.0138046425
185	0x3c4bd486	0.012440806
186	0xbb29d2d0	-0.0025913008
187	0xbc57cbe0	-0.013171166
188	0x3bce42c0	0.0062945783
189	0x3c8a64ab	0.016893705
190	0x3a8ecb50	0.0010894332
191	0x3c6f83de	0.014618842
192	0xbb624b70	-0.0034529828
193	0x3ac8cdb0	0.0015320089
194	0xbb8970ec	-0.0041943695
195	0x3c753486	0.014966136
196	0xbc3a2019	-0.011360192
197	0xbc7530f7	-0.014965287
198	0x3ba7d840	0.0051222146
199	0x3aec9320	0.0018049218
200	0x3c1397f2	0.009008395
201	0x3c6efc32	0.014586495
202	0xbc17b67e	-0.009259818
203	0xbc5c4d3c	-0.0134461485
204	0xbb4c1618	-0.0031141099
205	0xbb67bf60	-0.003536187
206	0xbbf5ab5a	-0.0074972333
207	0x3c221472	0.00989257
208	0xbc953ff6	-0.018218976
209	0x3bb113d4	0.005403975
210	0xbc83e5ba	-0.016100753
211	0x3c81caf5	0.015843848
212	0x3ba6feb0	0.005096279
213	0x39400580	0.00018312596
214	0x3c2e8326	0.010651385
215	0xbc72a4a6	-0.014809763
216	0x3c5a397e	0.013319371
217	0xbb59be70	-0.0033225082
218	0x3be7a2cc	0.0070689674
219	0x3c5e6c36	0.013575604
220	0x3c9b4dbf	0.01895797
221	0xbc3b5cf6	-0.011435738
222	0xbb9466fc	-0.0045288783
223	0x3c106c34	0.00881486
224	0xbc0ebe2d	-0.008712334
225	0x3bdfa92c	0.006825587
226	0xbc9863cf	-0.01860228
227	0x3c91aa71	0.017781468
228	0xbc1318b7	-0.00897806
229	0x3c216d30	0.0098526925
230	0x3c371450	0.0111742765
231	0xbc882d86	-0.01662327
232	0x3c654b6e	0.013995035
233	0x3c8fdf1f	0.017562447
234	0xbc0caf9b	-0.0085867895
235	0x3bde2b90	0.0067800954
236	0xbc87a7f5	-0.01655958
237	0xbc3ab108	-0.011394747
238	0xbc06480d	-0.008195889
239	0x3c902be1	0.017599048
240	0xbb25fbe0	-0.002532713
241	0xbc5d7ed4	-0.013519008
242	0xbc523026	-0.012828862
243	0xbb4ece60	-0.0031556115
244	0x3c1cf1a8	0.0095791
245	0xbb123060	-0.0022306666
246	0x382a7400	4.0639192e-05
247	0x3a936b00	0.0011247098
248	0xbc9c04cd	-0.019045258
249	0xbbc97b54	-0.006148735
250	0xbb8eea80	-0.0043614507
251	0x3c8cdf4d	0.017196322
252	0xbb99b5de	-0.0046908697
253	0x3aac4f70	0.0013146233
254	0xbbf95b14	-0.0076097343
255	0x3c38d8f6	0.011282196

fc1.0.bias f4 [64]
0	0x3c8e408a	0.017364759
1	0x3bd041a9	0.0063554836
2	0xbafaab06	-0.0019124455
3	0x3cc1ab67	0.023641301
4	0xbcc9bf42	-0.024627332
5	0xbbdb31ae	-0.006689272
6	0x3bf448ea	0.007454981
7	0xbb9fd02a	-0.00487711
8	0x3c233b0e	0.00996281
9	0xbc53480a	-0.012895593
10	0xbc3114cd	-0.010808182
11	0x3c88dbe9	0.016706424
12	0xbc987d97	-0.018614573
13	0xbc59dbd1	-0.013297037
14	0x3c0f7d3c	0.008757886
15	0xbc815c45	-0.015791068
16	0xbc8e2842	-0.01735318
17	0x3c0f9360	0.008763164
18	0xbc9d2b87	-0.019185795
19	0xbcd22bd7	-0.02565567
20	0xbcb72f0f	-0.022361306
21	0x3c1fb340	0.009747326
22	0x3c8adfd1	0.016952427
23	0x3b454921	0.0030103403
24	0xbc6a89da	-0.014315093
25	0xba3f44b4	-0.00072963093
26	0x3c242f3e	0.010021029
27	0x3c5607fb	0.013063426
28	0xbbbaefb1	-0.005704843
29	0x3b6088ee	0.0034261304
30	0xbb925f2a	-0.004466911
31	0xbb8ea23c	-0.004352836
32	0xbc5d6b89	-0.013514408
33	0x3cabc23a	0.020966638
34	0xbc3b6030	-0.011436507
35	0x3bd92a36	0.0066273464
36	0xbcbfc5aa	-0.023409683
37	0x3c884146	0.016632687
38	0xbca11c57	-0.019666834
39	0x3c39ebef	0.011347755
40	0x3c421ebe	0.01184815
41	0xbbd3e62b	-0.006466647
42	0x3b78af77	0.0037946382
43	0x3b239e2a	0.00249661
44	0x3bb1b061	0.0054226373
45	0xbcc7c858	-0.024387524
46	0x3be9d3a9	0.0071358276
47	0xbc60dd0f	-0.0137245795
48	0x3cb0e8a3	0.021595305
49	0x3cd5fc43	0.026121264
50	0xbcba69da	-0.022755552
51	0xbc10eb44	-0.008845154
52	0x3c3af2b6	0.011410406
53	0xbab741b2	-0.0013981371
54	0xbc68e17a	-0.014213914
55	0x3ced058a	0.028933305
56	0xbc006c4e	-0.007838322
57	0xbc3f2074	-0.011665452
58	0x3b0b995b	0.0021301124
59	0xbc7d4a26	-0.015459573
60	0xbca6436e	-0.020295825
61	0xbc8b5b57	-0.017011328
62	0xbc992aaf	-0.018697111
63	0x3cc748cb	0.024326703

fc2.0.weight f4 [32, 64]
0	0x3bcc4466	0.0062337397
1	0xbd554204	-0.05206491
2	0x3bf8c960	0.007592365
3	0xbdf7b3df	-0.120948546
4	0x3d95fb52	0.07323326
5	0x3da83994	0.08214107
6	0x3d65dc44	0.056118265
7	0x3d8b4794	0.06800762
8	0x3d6523bc	0.055942282
9	0xbdc41da0	-0.09575963
10	0x3b822340	0.0039714873
11	0x3dbcfae5	0.09227542
12	0xbdcf300d	-0.10116587
13	0xbda31698	-0.07963294
14	0xbc9b0538	-0.018923387
15	0x3ceb9ed0	0.028762251
16	0x3d0bac9c	0.03410016
17	0x3d88cad0	0.066793084
18	0xbda56e58	-0.08077687
19	0xbd8b596c	-0.06804165
20	0x3d21837d	0.039432038
21	0x3dd4ec2f	0.10396611
22	0x3d9a3502	0.07529642
23	0x3df0b82a	0.117538765
24	0xbaae678f	-0.0013306009
25	0x3de5fa10	0.11229336
26	0xbb22cb09	-0.0024840257
27	0x3d9102e2	0.07080628
28	0x3d265734	0.040610507
29	0x3d45304c	0.048141763
30	0xbd6d0efc	-0.05787562
31	0x3df3ece9	0.119104214
32	0xbd81c0c6	-0.06335597
33	0x3cc7064b	0.024294993
34	0xbdcf58f4	-0.10124388
35	0x3c915fa0	0.017745793
36	0x3d4a9858	0.049461693
37	0xbd8d6ed1	-0.06905902
38	0xbdb8b955	-0.09019724
39	0x3e3bf0ff	0.18353651
40	0xbe307fcb	-0.17236249
41	0xbdf05bf4	-0.11736289
42	0xbd482c40	-0.048870325
43	0xbe19a6f3	-0.15005092
44	0x3c9f6820	0.01945883
45	0x3d939c31	0.072075255
46	0x3c09d060	0.008411497
47	0xbdf6f9c0	-0.12059355
48	0xbdf1b46c	-0.11801991
49	0xbd9d2236	-0.07672541
50	0xbd644e38	-0.055738658
51	0x3c357ee4	0.011077616
52	0xbcf04498	-0.029329583
53	0xbd69d744	-0.05709006
54	0x3dec91fa	0.1155128
55	0x3d09f101	0.033677105
56	0x3dc9b802	0.0984955
57	0xbcdbcb81	-0.026830437
58	0x3c845ae8	0.016156629
59	0x3e471964	0.1944328
60	0x3d826d8a	0.06368549
61	0x3c95ef93	0.018302714
62	0xbde782d0	-0.113042474
63	0x3d632536	0.05545541
64	0x3de80b11	0.11330236
65	0x3dd530a0	0.10409665
66	0xbdda086d	-0.10646138
67	0x3e0b4c5d	0.13603349
68	0x3d80a53c	0.06281516
69	0x3d08ca70	0.033396184
70	0xbdeed9ae	-0.11662613
71	0xbda04f3e	-0.07827614
72	0xbddf9890	-0.10917771
73	0x3c4e4480	0.012589574
74	0xbdc9197c	-0.09819314
75	0xbdd77cc9	-0.10521848
76	0x3c01c1f2	0.007919775
77	0xbcc5df1a	-0.024154235
78	0xbb070342	-0.0020601307
79	0xbd9efc04	-0.07762912
80	0x3dc3e65a	0.095654204
81	0x3dbe89c1	0.09303618
82	0x3d4a1820	0.049339414
83	0xbddb037f	-0.10694026
84	0xbd50479f	-0.050849553
85	0x3daaa8bc	0.08332965
86	0x3db6be7a	0.08923049
87	0xbb0f23dd	-0.0021841445
88	0xbe1f5a05	-0.15561683
89	0x3cd97a6f	0.026547639
90	0x3aa9693f	0.0012925043
91	0xbd234a14	-0.03986557
92	0xbde69396	-0.112586185
93	0x3c6ad400	0.014332771
94	0x3de91a24	0.11381939
95	0xbcf59ab6	-0.029980998
96	0x3cf2e89e	0.029651936
97	0x3d10fa7b	0.035395127
98	0x3e37552f	0.17903589
99	0x3dba6e7a	0.09103103
100	0xbdfca212	-0.123356
101	0x3e159904	0.14609152
102	0x3d9772d4	0.073949486
103	0x3d5f332e	0.054492168
104	0x3d9a8542	0.07544948
105	0x3d575ec0	0.052580595
106	0xbdde8215	-0.10864655
107	0xbc138635	-0.009004165
108	0x3df71a98	0.12065619
109	0xbdcdf733	-0.10056915
110	0xbdd06835	-0.10176126
111	0xbd6de434	-0.05807896
112	0x3de4c489	0.111702986
113	0x3d571270	0.052507818
114	0xbd9b860e	-0.07593928
115	0xbdfd360c	-0.12363824
116	0xbdeb617c	-0.11493203
117	0x39c54e00	0.00037632883
118	0x3de777ac	0.113021225
119	0x3df3d68e	0.119061574
120	0xbc09f090	-0.008419171
121	0x3e145841	0.14486791
122	0xbd6f898e	-0.05848079
123	0xbe1b34ac	-0.15156811
124	0x3d069088	0.03285268
125	0xbd9019e7	-0.070361905
126	0x3d14785e	0.036247604
127	0x3d24e77a	0.040259816
128	0xbd6b4025	-0.05743422
129	0x3ca6cc18	0.020360991
130	0x3d0e5cbc	0.034756407
131	0x3d442757	0.04788908
132	0x3dfec59a	0.12440033
133	0xbbced9e0	-0.006312594
134	0xbce81c88	-0.028333917
135	0x3dd812ee	0.105504856
136	0x3bcf3de0	0.0063245147
137	0xbd2f6e80	-0.04282999
138	0xbc5cb690	-0.013471261
139	0x3da82b85	0.08211426
140	0xbae39800	-0.0017364025
141	0xbda8d902	-0.08244516
142	0x3dd20afa	0.10256
143	0x3c57fcc0	0.013182819
144	0xbca0de70	-0.019637316
145	0x3ddabeb0	0.10680902
146	0x3d90d884	0.07072547
147	0x3c78e6b0	0.015191719
148	0x3d99dded	0.07513032
149	0x3de9b835	0.11412088
150	0x3c9781a2	0.01849443
151	0x3d299660	0.041403174
152	0xbd631899	-0.05544338
153	0xbdb9299e	-0.09041141
154	0xbd6386c4	-0.055548444
155	0x3dd2c87c	0.102921456
156	0xbd75f064	-0.060043707
157	0xbdf61538	-0.12015766
158	0x3dca1eec	0.09869179
159	0xbd58717c	-0.052842602
160	0x3dd25822	0.10270716
161	0xbdb5d6bd	-0.08878849
162	0x3e3545dd	0.17702432
163	0x3da1468a	0.078747824
164	0xbca1ce28	-0.019751623
165	0x3ddfb03d	0.10922287
166	0x3e02369c	0.12716144
167	0xbc4b38ae	-0.01240365
168	0x3e15d8d3	0.14633493
169	0x3d3ffb6c	0.046870634
170	0xbdb122d8	-0.08649224
171	0x3e1efa42	0.15525153
172	0x3d5d45d4	0.05402167
173	0x3cd4df87	0.025985492
174	0x3d47d404	0.04878618
175	0xbddf58d6	-0.10905616
176	0x3d2353c6	0.039874814
177	0x3dc7f397	0.09763258
178	0x3dae3714	0.08506599
179	0xbd939e82	-0.07207967
180	0xbdfea4e6	-0.12433796
181	0x3d1fe134	0.03903313
182	0x3d835d86	0.064143226
183	0x3dd2dec7	0.10296398
184	0x3d1f7718	0.038931936
185	0x3e23dbbf	0.16001795
186	0xbd97decc	-0.07415542
187	0xbdab8398	-0.08374709
188	0xbbdd3c80	-0.006751597
189	0xbdeed0d3	-0.11660924
190	0xbd7ad7c9	-0.061240945
191	0x3bd69b76	0.006549294
192	0xbdbe467c	-0.092907876
193	0xbd9dd718	-0.077070415
194	0x3dd0e2ec	0.10199532
195	0x3b85d3a9	0.0040840697
196	0x3d7b8978	0.061410397
197	0xbd858c9c	-0.0652096
198	0xbd390833	-0.045173835
199	0x3d03040b	0.031986278
200	0x3d8d893a	0.069109395
201	0x3cfa2407	0.030534757
202	0xbc703810	-0.014661804
203	0xbdcfe9e3	-0.10152032
204	0xbce17029	-0.027519302
205	0xbdeb655a	-0.11493941
206	0xbc978bc8	-0.01849927
207	0x3dce1929	0.10063393
208	0x3b006a00	0.001959443
209	0x3dc7cb3a	0.09755559
210	0x3d5fe421	0.05466092
211	0x3d479f13	0.04873569
212	0xbd87c2ec	-0.06628975
213	0x3dfa9ea6	0.12237291
214	0x3c77519b	0.01509514
215	0xbd19f116	-0.037583433
216	0x3d4fe35f	0.050753947
217	0xbe0e476c	-0.13894433
218	0xbdb79a80	-0.089650154
219	0x3d7ae247	0.06125095
220	0xbd4e97e5	-0.050437827
221	0x3d8ad0bb	0.067780934
222	0xbc3dd503	-0.0115864305
223	0xbd23116b	-0.039811533
224	0x3dff3768	0.1246174
225	0xbe0a1f42	-0.13488486
226	0xbdfa81b5	-0.12231771
227	0x3c45ae80	0.01206553
228	0x3d0c32f1	0.03422827
229	0xbdb313aa	-0.08743985
230	0xbd04a5c1	-0.032384638
231	0xbd48f462	-0.049061187
232	0x3d6bba56	0.05755075
233	0x3dda1b46	0.10649733
234	0x3dbfc38d	0.0936347
235	0x3d9ddd42	0.07708217
236	0xbd70ff42	-0.058837183
237	0x3dbdf1a5	0.09274606
238	0xbdacd4ae	-0.08439003
239	0x3dbcaf42	0.09213115
240	0xbcba11f4	-0.022713639
241	0xbb35b303	-0.0027725108
242	0xbc9e2a00	-0.019307137
243	0xbde46a50	-0.1115309
244	0x3de2bc61	0.11071087
245	0x3ddb513c	0.107088536
246	0x3d21f43c	0.03953956
247	0xbe0d3a01	-0.13791658
248	0x3ca57044	0.020195134
249	0x3cf83bda	0.030301977
250	0x3d5b5542	0.053548105
251	0xbdcaa52a	-0.09894784
252	0xbd9404a7	-0.0722745
253	0xbde51e43	-0.111874126
254	0x3de71934	0.11284104
255	0xbc2b3986	-0.010450726

fc2.0.bias f4 [32]
0	0xbcd3ee6e	-0.025870528
1	0xbc82fd3a	-0.015989888
2	0xbd96304a	-0.07333429
3	0x3d649f18	0.055815786
4	0x3c816492	0.015795026
5	0x3c762e69	0.0150257135
6	0x3a744699	0.0009318381
7	0x3d25a946	0.040444635
8	0xbdac381a	-0.08409138
9	0x3cecf6b7	0.028926237
10	0xbd232095	-0.039825995
11	0x3c9e60ac	0.019333206
12	0x3dad8899	0.084733196
13	0x3d512927	0.051064637
14	0x3ce4d341	0.027932765
15	0x3d0d809b	0.034546476
16	0x3d088a7a	0.033335187
17	0xbdd87d1a	-0.10570736
18	0x3d185517	0.037190523
19	0x3cd99053	0.026558077
20	0xbc0327ab	-0.008005063
21	0xbb98b83e	-0.0046606353
22	0x3d2443de	0.040103786
23	0xbd9edde7	-0.07757168
24	0xbc85a61f	-0.016314564
25	0xbd5640a1	-0.05230773
26	0xbbfbfc78	-0.0076900087
27	0xbd908044	-0.07055715
28	0x3daafeee	0.08349405
29	0xbad38cf4	-0.001614003
30	0x3cf66ce3	0.030081218
31	0xbd9cc5bc	-0.07654902

fc3.weight f4 [2, 32]
0	0xbe1d358c	-0.15352458
1	0x3dae4c35	0.08510629
2	0x3e4618ef	0.19345449
3	0xbd59e38b	-0.053195518
4	0x3e42d88e	0.19027922
5	0x3e17cc60	0.14824057
6	0xbe19e0fe	-0.15027234
7	0xbde96377	-0.113959245
8	0x3e4e4d77	0.20146738
9	0xbe341d0e	-0.17589208
10	0xbd61c205	-0.055116672
11	0xbe3e1ecd	-0.18566437
12	0x3e4f3bed	0.20237704
13	0xbce0e8cb	-0.027454754
14	0xbe0fbb39	-0.14036264
15	0xbe497f19	-0.1967739
16	0x3d036779	0.0320811
17	0x3e8d778f	0.27630278
18	0x3e5ff08a	0.21869102
19	0x3dfdc47f	0.12390994
20	0x3e716e92	0.23577335
21	0xbcdd1bbb	-0.026990762
22	0xbe2a396d	-0.16623469
23	0xbe361511	-0.17781474
24	0xbe3dcf2a	-0.18536058
25	0x3e0611b1	0.13092686
26	0xbea5e91e	-0.32404417
27	0xbd9dda0e	-0.07707606
28	0xbe1649d4	-0.146766
29	0xbdabe7ef	-0.08393847
30	0x3e29ed10	0.16594338
31	0x3e1df8c8	0.15426934
32	0x3e25c4a1	0.16188289
33	0xbe20ec55	-0.15715154
34	0xbe40197d	-0.18759723
35	0x3d4675a3	0.04845203
36	0xbe1911ff	-0.14948271
37	0xbe4fff3f	-0.20312212
38	0x3e19e873	0.15030079
39	0x3d692c98	0.056927294
40	0xbde7ef87	-0.11324983
41	0xbd798ea6	-0.060927056
42	0x3e323d2f	0.17406152
43	0xbd91b494	-0.07114521
44	0x3ccefb08	0.025266185
45	0x3d365196	0.0445114
46	0x3e28b31a	0.16474572
47	0x3dde5102	0.10855295
48	0xbe0084f4	-0.12550718
49	0x3d7c1935	0.061547477
50	0xbc4f4eb8	-0.012653045
51	0xbe4bfbbe	-0.19920251
52	0xbd13f6ed	-0.03612416
53	0x3d979707	0.07401853
54	0x3d689f26	0.0567924
55	0x3da1cff5	0.07900993
56	0x3c6399f5	0.013891687
57	0xbe858985	-0.26081482
58	0xbc89cd7e	-0.01682162
59	0x3df74a14	0.12074676
60	0x3e014d64	0.12627178
61	0x3e47893f	0.19485949
62	0xbd3ffd15	-0.046872217
63	0xbe010d17	-0.1260265

fc3.bias f4 [2]
0	0x3d1c9009	0.0382233
1	0x3ce728ea	0.028217752
