Models/stat_dict_0.95.pth (torch, 648447 bytes, 10 tensors)

conv.0.weight f4 [6, 1, 3, 3]
000000 2c 8b 88 3e 4c 78 9d be 32 82 82 3e 9d b5 8e be
       0.2666868 -0.30755842 0.25489956 -0.27872935
000010 d6 96 76 3d 02 ad 5b be 48 76 61 3e 72 d7 48 3e
       0.060202442 -0.21452716 0.22017777 0.19613436
000020 0b e2 52 bc db 74 b5 be dc b3 c1 3e 1f 51 9c 3d
       -0.012871276 -0.35440716 0.37832534 0.0763266
000030 c9 b0 d0 bd d4 32 af 3d 1c cd 52 be 67 1f e7 bc
       -0.10189969 0.085546166 -0.20586056 -0.028213216
000040 c6 70 32 be 42 7b e0 bd 5e 95 9f bd 99 b8 51 3e
       -0.17425832 -0.109610096 -0.077921614 0.20480575
000050 39 70 11 be 5b fc 18 be 43 76 b5 3e f2 b9 5c 3e
       -0.14202966 -0.14940016 0.3544179 0.21555308
000060 2b a5 3d 3e 32 14 2d bd 31 1f 97 bc 20 2d 35 3e
       0.18520038 -0.042255588 -0.01844749 0.17692995
000070 1d e4 74 be 61 46 8b 3e f3 9c 55 3e 1c 4e 70 be
       -0.23915143 0.27202132 0.20860653 -0.23467296
000080 11 b1 80 be 36 9b b6 3c 28 43 3a be dc bd 12 3e
       -0.2513509 0.022290807 -0.1818968 0.14330238
000090 9c f6 bd 3d 85 68 0e 3d a5 e3 8c be 7d 8b 60 3d
       0.09275553 0.034767646 -0.2751743 0.054820526
0000a0 5d ea 40 3d 6a e6 49 be 72 d9 7f be 76 88 1b 3e
       0.047098506 -0.19716802 -0.24985293 0.15188774
0000b0 db 76 0c 3d c6 54 80 3e b3 9d 5e be e7 ab a5 3c
       0.034293037 0.25064677 -0.21739845 0.020223571
0000c0 de 51 9f 3e b2 90 a6 3e 2b 09 7c 3e 29 2c 49 3d
       0.31117147 0.3253227 0.24612872 0.04911438
0000d0 ce 5e 69 3d c1 42 63 bd
       0.05697518 -0.055483583

conv.0.bias f4 [6]
000000 8d e1 28 be ae 0c 05 3e 75 92 ca 3c f8 02 b5 3d
       -0.16492291 0.12993118 0.02472804 0.08838457
000010 5a fc 92 3e c8 57 83 be
       0.28708154 -0.2565291

conv.2.weight f4 [16, 6, 3, 3]
000000 fa c2 9f 3d 35 69 48 3d 9d ac 18 bd 04 24 3c be
       0.07800861 0.04892846 -0.03727399 -0.18373114
000010 67 a3 93 bc 68 3d e1 3c 35 46 bf bd 7b 34 e6 bc
       -0.018022252 0.027495101 -0.09339563 -0.028101197
000020 7a 4a d2 3d b4 6f 39 3d 3c 03 64 bd d0 dd a7 bb
       0.102681115 0.045272544 -0.055667147 -0.0051228777
000030 4e 8a ec bd 56 2a 67 bd 7f 3d e3 3d 54 fb 87 3d
       -0.11549817 -0.05643686 0.11095714 0.06639734
000040 22 1a 00 3d 51 ca a2 bc 0f c5 78 bd c3 a4 28 bb
       0.031274922 -0.019871863 -0.060734805 -0.0025732971
000050 5c 7c d0 bd 02 5b ac 3d 4c 66 fa 3d b5 94 b3 bc
       -0.1017997 0.08415796 0.12226543 -0.021921495
000060 21 81 27 3d 0d ee fb 3c 25 87 ea 3d 0c ca fe 3b
       0.04089463 0.03075316 0.11451558 0.0077755507
000070 e0 7d a4 3d 46 de 0f be 8d 6f ad bd 8c e8 ab 3d
       0.08031821 -0.14049634 -0.08468542 0.08393964
000080 ed 7d 85 bd dc 05 93 3c 96 54 26 3c ea c0 ec bd
       -0.06518159 0.01794713 0.010152003 -0.11560233
000090 3c fb de bc e4 fd e3 bd 28 ed 0b be ba 94 b8 3d
       -0.027219407 -0.1113241 -0.13664687 0.09012742
0000a0 de c6 dd 3d 91 73 11 bb 97 2a 1b be e6 62 23 be
       0.108289465 -0.0022194127 -0.15152965 -0.15955696
0000b0 85 37 9a 3d 91 b7 13 ba 3d fe 03 3e 3f 0b e0 bd
       0.07530121 -0.00056349585 0.12889953 -0.10939645
0000c0 f8 1d 5d 3d be cb 05 3e e0 37 18 3e 55 f0 71 bc
       0.05398366 0.13066003 0.14865065 -0.014766772
0000d0 37 ad 89 3c fa 29 06 3e a2 d9 31 3c 78 dc 02 be
       0.016806228 0.1310195 0.01085511 -0.12779415
0000e0 dc f5 ae 3c 7c c0 cd bd d9 1e e3 3c 18 7e 99 bc
       0.02135747 -0.10046479 0.02772467 -0.018736884
0000f0 2d 30 a4 3c 33 58 4a bc 39 4b 7f 3c ad 58 97 3d
       0.020042503 -0.01235013 0.015581899 0.073899604
000100 f6 e2 e6 3c 0f 42 fa bd 5b ae ff bc 10 a6 8e bd
       0.028184395 -0.12219631 -0.031211069 -0.06965268
000110 5a c4 25 bd 7f 53 f0 3c 0c c5 0a bd 1a 87 11 be
       -0.04047046 0.029336689 -0.033879325 -0.14211693
000120 36 8d bc 3d 9e 27 90 bd f2 3a ec 3d 91 86 84 3d
       0.09206621 -0.070388064 0.115346804 0.06470979
000130 a1 e7 cb bc 60 0f a3 3d dc b6 ee 3d 39 0f da bd
       -0.024890723 0.07961917 0.116559714 -0.10647435
000140 f6 55 96 3d 49 0a c0 3d 1f d6 f5 bd 7e ce 12 be
       0.073406145 0.09376962 -0.12003731 -0.14336583
000150 57 df 96 bd 48 71 14 3e 47 1f 1d be bc 25 9c bc
       -0.073668174 0.14496338 -0.15343963 -0.019060962
000160 82 d1 20 be 2b 6f 56 be 73 26 9c 3c 96 8d fc bd
       -0.15704921 -0.20940845 0.019061303 -0.12331693
000170 a9 2b 94 3d e8 58 7f 3c 13 d9 e9 3d 28 af 8e 3d
       0.0723489 0.015585162 0.11418357 0.06967002
000180 85 a5 2a be 3d dc cb bd 64 fe bb bd c6 51 08 3d
       -0.16664703 -0.099541165 -0.091793805 0.03328111
000190 f0 a0 18 3e f5 43 82 3d 75 0c fc 3d 53 ad 62 bd
       0.14905143 0.06360618 0.123070635 -0.055341076
0001a0 30 32 87 3d 9e fe 2d bc 94 70 25 3d 36 92 12 3e
       0.066013694 -0.0106197875 0.040390566 0.14313588
0001b0 87 ac 2c 3b 57 00 42 bd 9e 52 13 3e b8 f5 0e be
       0.0026347951 -0.047363605 0.14386985 -0.13960922
0001c0 6d 29 14 3e 07 13 8f bd ee 67 1f 3c 09 3c e8 bd
       0.14468928 -0.06986051 0.009729369 -0.11339576
0001d0 c7 52 db 3d 0a cc 13 be 0b 8a f2 bd 66 37 07 3e
       0.10709148 -0.14433303 -0.11842736 0.13204727
0001e0 5c 0c 16 ba 67 9f ac 3d c1 9b 62 bc b5 80 cd bd
       -0.00057238876 0.08428841 -0.01383108 -0.100343145
0001f0 f2 c2 ce bd 57 3d a8 3d cc db 92 bc 68 bd 71 bd
       -0.100957766 0.08214825 -0.017927073 -0.059018523
000200 36 f7 7a bd a2 bc c5 3d be 8f ec 3c f3 69 a1 3d
       -0.061270915 0.096551195 0.028877135 0.07881536
000210 9f 33 da 3d 82 29 03 be c8 72 f6 bd 33 54 45 bb
       0.10654377 -0.12808803 -0.120336115 -0.003011
000220 0e 4b 38 3e 22 32 54 3e c3 e9 0d 3c fa 35 cc 3d
       0.17997381 0.20722249 0.00866169 0.09971233
000230 f2 f3 d5 3c f8 e7 1e 3e d1 12 fe bc 26 13 44 3e
       0.026117299 0.15518177 -0.031014832 0.1914793
000240 5b 94 d5 ba 8a 6d a9 3d 02 b8 9f bc c7 0b 24 3e
       -0.0016294824 0.08272846 -0.019496921 0.16020118
000250 45 a5 a0 3b b8 66 a4 3d b6 52 be 3d 9e 1c bb 3d
       0.004902514 0.080274045 0.092931196 0.09136318
000260 f4 54 09 3d 67 9a 5b bd aa d5 a8 bd c5 aa c7 3d
       0.033528283 -0.053614046 -0.08243878 0.097493686
000270 a3 4e 23 bd 6b ff 0e 3e 04 79 32 3c 31 f8 e9 3d
       -0.039869916 0.13964622 0.01089311 0.11424292
000280 48 4c a1 bd 4a c4 9a 3d 52 0f d2 3d 2a d7 26 3e
       -0.078758776 0.075569704 0.10256828 0.16293016
000290 55 20 c7 3d f8 17 08 bd 8f 7a c0 3c 9d 76 af bd
       0.09722964 -0.033225983 0.02349594 -0.085675456
0002a0 ab 92 c2 bc 11 51 8f bd 5f 80 b8 3d 37 87 5b 3d
       -0.023751577 -0.06997884 0.0900886 0.053595748
0002b0 29 6f 21 3e 2e 4f 7e 3d cb 86 0f bd 05 f3 f3 3d
       0.1576506 0.06208723 -0.035040658 0.11911587
0002c0 2e 6e cd bd 62 01 43 3d 03 49 ba bd 21 f7 82 bd
       -0.10030781 0.04760874 -0.09095957 -0.06394792
0002d0 bc 92 14 be e0 03 47 3b 32 08 2b 3d 49 3c 21 3d
       -0.145091 0.00303673 0.041755863 0.039364133
0002e0 89 d8 47 bd 5e 7e c3 3d ad 06 b3 bd a4 84 2f bc
       -0.04879049 0.09545587 -0.08741508 -0.010712776
0002f0 d0 e3 88 3c fa 75 32 3e 6c f6 ea bc c2 cb 56 3e
       0.016710192 0.17427817 -0.028681956 0.20976165
000300 3a 5a 6c bd f1 59 2a 3e 79 69 3a 3e b1 70 a3 bc
       -0.057703234 0.16635872 0.18204297 -0.019951196
000310 e6 22 a6 bb 91 5b 28 3e 60 2f 8a 3d 82 57 8f 3d
       -0.005070078 0.1644118 0.06747317 0.06999113
000320 4e 20 39 bd d9 7c 12 bd 48 dc 7d 3d f7 1a d1 3d
       -0.045196824 -0.035763595 0.061977655 0.10210221
000330 a3 dd d2 3d 84 2a 2b 3c 98 ad de 3d 91 22 28 3c
       0.1029618 0.010447148 0.10872954 0.0102621475
000340 af 54 8c bd f9 2b c3 3d 9b ff ba bc 36 b1 63 3d
       -0.068520896 0.095298715 -0.02282696 0.055588923
000350 80 dc c1 bd f3 1b 79 bd b4 a8 f9 3c f5 f2 a3 bc
       -0.09465885 -0.06081767 0.030475952 -0.020013312
000360 6e 54 03 3e 17 fe f2 bd b0 4b af bd 3d f3 4c 3d
       0.12825176 -0.1186487 -0.08559358 0.050036658
000370 3e 62 93 3d df dd 1a 3d e2 a6 ef 3c 17 d2 89 3b
       0.071964726 0.03780925 0.02925438 0.004205953
000380 9c 52 08 3d 03 48 b8 3d 65 d3 05 3e 0b 35 83 bd
       0.033281907 0.0899811 0.13068922 -0.064066015
000390 35 4d 5f 3e bd 5d d5 bc 5c 95 58 bd fe e3 55 3e
       0.21806796 -0.026045674 -0.052876815 0.20887753
0003a0 62 3e 35 bd fc 23 d1 3d 02 e9 c5 3d a2 20 c2 bc
       -0.044248946 0.102119416 0.09663583 -0.023697201
0003b0 0f 8a 00 3e 2e b5 bf bd 1c 60 a2 bd d1 6c 1a 3e
       0.12552665 -0.09360729 -0.07928488 0.15080573
0003c0 f1 b7 99 3d c0 0a ac bd 3e e2 00 3e a1 99 76 bc
       0.07505787 -0.08400488 0.12586305 -0.015051276
0003d0 a0 4e af bc e3 8d c4 3d 2d c9 1e 3d 97 2b af 3d
       -0.021399796 0.09597375 0.038766075 0.08553236
0003e0 51 db e8 3d 6d 1e fd 3a 2f 54 85 3e 0d 20 2d be
       0.11369956 0.0019311436 0.2604079 -0.16906758
0003f0 47 87 04 3d ca 24 41 3e c1 6a 96 3d a6 4c d4 3d
       0.032355573 0.1886169 0.073445804 0.10366182

conv.2.bias f4 [16]
000000 cc 85 d9 3d 48 97 35 bd c1 00 cf bd 37 ea b3 3d
       0.10621223 -0.044333726 -0.10107566 0.08784907
000010 1b 24 08 bd bd a7 f8 3d ee f4 fb bb 69 df c0 bd
       -0.033237558 0.121413685 -0.00768911 -0.09417612
000020 80 7b e8 3d ac c1 91 bd cd 0d 95 3d e3 da 80 bd
       0.11351681 -0.07117018 0.07278023 -0.06291749
000030 42 eb b6 3c bf e9 9b bc 5a ff 07 3e 86 63 ba 3d
       0.022328977 -0.019032357 0.13281003 0.09101014

fc.0.weight f4 [80, 1936]
000000 46 b5 47 bb 4c bb 86 bc ef c1 9b bc 3e 02 bd bb
       -0.0030473038 -0.016446732 -0.019013373 -0.0057680896
000010 ef e6 29 bb b5 94 06 bb d4 85 76 bc 71 f3 31 bc
       -0.0025925 -0.0020535414 -0.015046556 -0.010861264
000020 da 5d 6e 3c d8 ba 24 bb 61 82 06 bb e1 1f 45 bc
       0.014548743 -0.0025135782 -0.002052449 -0.012031526
000030 6e c5 81 3c 73 da 13 bc ae c9 93 bb 70 67 9c 3a
       0.015841212 -0.00902425 -0.004510126 0.0011932682
000040 15 af 9f bc 7b c8 32 3c 61 14 60 bc a6 f3 4c bb
       -0.019492665 0.010912056 -0.013676734 -0.0031273155
000050 90 08 bf ba 91 5f 67 bc d7 40 34 3c 08 1e 6f 3a
       -0.0014574695 -0.014121906 0.011001787 0.00091216015
000060 90 ce cc bc f6 9a 6e 3c d3 09 c2 bc 39 81 a4 3c
       -0.02500084 0.014563313 -0.023686325 0.02008115
000070 95 0f 12 3c cd 92 c2 3c e1 4c dc 3b 2d 4f 51 bc
       0.008914848 0.02375164 0.006723032 -0.012775225
000080 78 ae e2 3a f2 56 ae bc 87 22 4a bc e3 d7 8b bc
       0.0017294427 -0.021281693 -0.0123373335 -0.017070716
000090 52 15 d2 3b 60 bf 84 3c 7d 84 c4 bb ec a7 35 bc
       0.006411233 0.016204536 -0.005997239 -0.011087399
0000a0 f0 9c 85 b9 07 1b af bb 25 0c 84 bc a5 01 ae bc
       -0.00025484664 -0.005343798 -0.016119072 -0.021241019
0000b0 73 89 e0 3b 2c 85 07 3c 9c 23 b5 3a 41 58 bf bb
       0.0068523227 0.008271497 0.0013819817 -0.005839378
0000c0 99 ed 81 3c fc b9 56 bc 37 66 83 bb 37 5b 75 3c
       0.015860366 -0.013105866 -0.0040099877 0.014975361
0000d0 36 1d 40 3a 8d a7 27 bc c3 39 dd 3c 5e 60 13 3c
       0.00073285715 -0.010232818 0.027005082 0.008995144
0000e0 60 eb 24 3c 26 8f 42 3c 5b 79 90 3c 2a ed 0e bc
       0.010065883 0.01187495 0.017635992 -0.0087235365
0000f0 b4 dc 35 3c f8 db c4 bc a9 4d 87 3c 61 85 8b 3c
       0.011099983 -0.02403067 0.016516523 0.017031373
000100 ac af c6 3a 74 3e 90 bb 5d 84 80 3c 94 22 79 bc
       0.0015158555 -0.0044019762 0.015688116 -0.015205998
000110 cb 27 09 3c cc 57 9b 3c e0 fe ce 3c 14 8e c9 3c
       0.008371304 0.018962763 0.025268018 0.024603881
000120 b3 9c ac bb 42 fd cf bb 27 23 48 3c 30 fb 91 bb
       -0.0052677034 -0.0063473294 0.012215412 -0.0044549927
000130 6e cd 52 3c 52 ec a1 3c 26 3b 3e bb df 07 60 bc
       0.012866361 0.019766007 -0.0029026954 -0.013673752
000140 83 20 b5 3a 5e b4 05 3c 10 c2 e8 3c 16 1d d5 bb
       0.0013818893 0.008160679 0.028412849 -0.0065037115
000150 75 21 6d bc 66 01 78 bc 68 ad de 38 66 89 24 bc
       -0.014473309 -0.015137052 0.00010618084 -0.010042524
000160 cd 76 91 bc 22 4a 03 3d ba e6 bb 3c ac 20 e1 3a
       -0.017756844 0.03205312 0.022937167 0.0017175875
000170 6a c6 59 3b b2 31 39 3c 47 fe a9 bb 04 35 ab 3c
       0.0033229836 0.011303352 -0.005187783 0.020899303
000180 2e 9d c3 bb fb e6 48 b8 36 eb e2 3c e8 4e 15 bd
       -0.005969665 -4.7898833e-05 0.027700048 -0.036452204
000190 3e 43 3b 3d c0 3b 35 3d 34 c1 c5 bb 50 e2 8c bc
       0.045718424 0.044246435 -0.0060349945 -0.017197758
0001a0 f8 5d 9d 3c a3 6b 98 3c 64 7b ae bb 86 81 3b 39
       0.019209847 0.018606013 -0.005324768 0.00017881961
0001b0 80 46 99 3c 24 1f 9c 3b 61 0b 01 bd f1 b8 e3 bc
       0.018710375 0.0047644544 -0.031504992 -0.027798148
0001c0 71 0e d9 3c 69 00 49 3d d0 33 b0 3b de b3 00 bd
       0.026496144 0.049072657 0.0053772703 -0.031421535
0001d0 65 f8 07 bc 8e d1 23 bc cd 93 ef 3b ae d7 ac 38
       -0.008298968 -0.009998692 0.0073113204 8.2417726e-05
0001e0 05 f0 82 3b a4 43 bc 3c e5 36 11 bd 24 53 2c bd
       0.0039958977 0.022981472 -0.035452742 -0.042071477
0001f0 58 8b 39 bd 56 8c cb bc eb 02 44 ba c8 f3 4a bb
       -0.045298904 -0.02484719 -0.00074772415 -0.003096806
000200 f3 f8 8c bc f9 f0 0c bd 3d d8 cc bc e2 23 7f 3c
       -0.017208552 -0.034409497 -0.025005454 0.01557252
000210 09 f4 63 bb 0b 83 e2 bc 69 35 10 bd 7c c8 36 bc
       -0.0034782907 -0.027650377 -0.035207186 -0.011156198
000220 48 78 81 bb 8d 02 93 3c 20 91 cd bc 83 a4 97 bb
       -0.003951106 0.017945552 -0.025093615 -0.0046277656
000230 6a 89 ea bc af 20 9c bc b9 f6 e0 3b 9e b5 1d bb
       -0.028629977 -0.019058554 0.006865349 -0.002406455
000240 b0 23 b9 bc 8a 63 33 3b 09 50 19 bc 5b ea 78 bc
       -0.022600025 0.0027372562 -0.009357461 -0.015192593
000250 f4 fe 93 bc a8 30 b5 bc 2e e3 4b bc 41 1a 09 bc
       -0.018065907 -0.022117928 -0.012444301 -0.008368076
000260 d9 37 46 bc d8 f5 48 3c cc 38 50 bc a7 bb 72 3c
       -0.012098276 0.012265645 -0.012708854 0.014815248
000270 14 9d 18 ba eb 5c a1 bc 33 48 09 3c b0 eb b6 bb
       -0.00058217463 -0.019697627 0.00837903 -0.0055822954
000280 b0 39 4e bc dc de d3 bb f6 4a 13 b8 0b cc 0f bc
       -0.012586996 -0.006465776 -3.5117344e-05 -0.008776675
000290 91 53 d3 3b 9d 33 b6 bc 86 ab 4a 3c c0 46 43 bc
       0.006449171 -0.022241408 0.012369996 -0.011918724
0002a0 ba f9 f5 ba b8 a8 11 3c ee 9a 8b 3c de 8a b3 bc
       -0.0018766441 0.008890323 0.01704165 -0.021916803
0002b0 43 85 6f bb 2f 2d 12 3c c8 bf 82 3b ef ce 68 bc
       -0.0036547936 0.008921905 0.0039901473 -0.014209493
0002c0 b8 01 e0 3c 63 7c 0c bb d8 ce 1d 3d ef d3 84 bb
       0.02734457 -0.0021436445 0.03852734 -0.0040535848
0002d0 65 db c3 bb bf 16 3d 3c c3 5e 9f bc 9f a4 62 bc
       -0.0059770816 0.011541068 -0.019454366 -0.013833194
0002e0 b0 a4 ea bc 77 5d 74 bc ff 59 9d bb df f4 a1 3c
       -0.028642982 -0.014914862 -0.004801988 0.019770084
0002f0 ab c3 33 3c 33 a7 0c bd 8a 43 15 3d b1 e7 0f bc
       0.010971944 -0.03433914 0.036441363 -0.008783267
000300 d6 41 54 3b 5e e9 63 bc 28 fa f2 3b 1a e7 c8 3a
       0.0032387874 -0.01391062 0.007415075 0.0015327663
000310 38 f0 46 bb 92 85 c0 bc 26 cd 36 bc c2 e3 07 3d
       -0.0030355584 -0.023501191 -0.01115731 0.03317619
000320 58 fb e1 bc 57 e4 29 bc 0d 3d 02 3d e6 12 ab 3c
       -0.02758567 -0.010369382 0.031796504 0.020883035
000330 66 1b 02 3b 26 58 3f bc fc 9a b1 3c 73 32 e7 bc
       0.0019852757 -0.011678731 0.021680348 -0.028222298
000340 b8 1f 02 3c ac 09 a4 3c 87 47 a4 3b be f3 44 3c
       0.007942133 0.020024143 0.0050134095 0.012021003
000350 7d 03 9a ba f7 ea 99 3c 72 83 50 b9 6b 40 c0 39
       -0.0011750307 0.018788798 -0.00019885393 0.0003666909
000360 3c bc 07 3a 4f 7b 80 3b de c6 9c 3c 69 ae fa 3b
       0.00051778904 0.0039209495 0.019137796 0.007650186
000370 b7 91 03 be e7 36 75 3d 8a 0e f0 3c 5e ab 97 bb
       -0.12848555 0.059866812 0.029303808 -0.004628583
000380 a1 3a 12 bd 68 ce 36 bc 54 6e 95 3c 43 be db 3c
       -0.035700444 -0.0111576095 0.018241085 0.026824122
000390 a6 be 90 bb 28 5b 81 3c f5 76 00 3d 83 2c c0 3d
       -0.0044172583 0.015790537 0.031363446 0.0938349
0003a0 fb 1a 65 bb 76 7e a6 3c 17 71 e4 3c 89 59 fb 3c
       -0.0034958709 0.020323973 0.027885957 0.030682342
0003b0 29 c7 07 bc 3e 1f ea bc 85 cc 08 3d 4e 09 c3 3c
       -0.00828723 -0.02857935 0.03339817 0.023808148
0003c0 95 9c 87 3a 8e 08 b0 3c dd b9 b8 3d 5f 5c da 3c
       0.0010346348 0.021488454 0.090198256 0.026655374
0003d0 54 54 06 bb cd d5 48 bc c8 1b b0 bc 83 6f 1a bc
       -0.002049704 -0.012258005 -0.021497622 -0.0094260005
0003e0 67 f6 96 3c 80 30 74 39 cd a7 8a ba b7 b5 d1 bb
       0.01842804 0.00023287721 -0.0010578573 -0.006399836
0003f0 0b 19 e2 3b 77 0a be 3b c6 dd ca 3d d4 28 88 3d
       0.006899958 0.0057995874 0.09905581 0.06648412

fc.0.bias f4 [80]
000000 f6 0b a8 3b 7e 18 8b 3c 6e f6 01 3b 2e c0 9d 3b
       0.005128379 0.016979452 0.0019830721 0.0048141694
000010 f5 65 82 3c 43 f2 94 bc 8a 42 41 3c d7 af c9 bc
       0.015917758 -0.018181926 0.011795649 -0.02461998
000020 ca c4 ac bc de eb 07 3c e3 1b 0b 3c 08 5d 65 bc
       -0.02108993 0.008295981 0.008490535 -0.013999231
000030 0f b6 b7 3b ce cc 6f bb 26 54 84 3c 4f 85 d3 3c
       0.00560642 -0.003659058 0.016153406 0.025820402
000040 f5 82 b7 bc 3e b6 aa 3c 45 e4 03 3c 16 75 9d 3c
       -0.022401312 0.020838853 0.008050029 0.01922087
000050 b8 f1 6a 3c 96 bb 68 3c 7f 75 dc bb a6 ba 6b bc
       0.014339857 0.01420488 -0.006727874 -0.014387762
000060 a2 3a 1e 3c fb d8 65 3c 24 ae 18 bc b4 97 03 3c
       0.009657534 0.014028783 -0.009318862 0.008031774
000070 5e 76 a8 3c cf d7 1f bc 77 ac d5 bb 5b eb 6c 3c
       0.020564254 -0.009756043 -0.0065208036 0.01446041
000080 3d 98 41 bb 29 8c 03 3c a2 13 09 3c cc 75 1f 3a
       -0.0029540204 0.008029022 0.008366497 0.0006082922
000090 1a 6a 0a bb 4c bd 9f ba 28 77 7c 3b bb d1 cc bc
       -0.002112037 -0.0012187152 0.003852317 -0.025002351
0000a0 0c f6 c8 bc 08 dc 1a 3b d6 ce 9a 3c 91 2e 69 3c
       -0.024531387 0.0023629684 0.018897455 0.014232294
0000b0 d7 31 c7 bb 87 75 30 3b 62 e3 75 bc 7d cb 6a bb
       -0.0060789394 0.002692552 -0.015007826 -0.0035826855
0000c0 09 84 96 bc f2 bc 5b bc 78 38 b2 3c c0 dc ef b9
       -0.018373506 -0.013411747 0.021755442 -0.00045750104
0000d0 73 29 ad 3c fc 76 1c bc d6 ce b7 bb 27 22 29 bb
       0.021137929 -0.009549852 -0.0056093736 -0.002580771
0000e0 ff 29 2f 3c 6d 6f da 3b f8 ba 45 bb 7f 0e 09 3c
       0.010691165 0.006666115 -0.0030171257 0.008365273
0000f0 51 10 0f 3b 48 c3 36 3b 12 bc 82 3c 20 68 41 3c
       0.0021829794 0.0027887393 0.01595882 0.0118046105
000100 92 28 8b 3c 82 63 0d bb 58 b9 a2 bb 4c 11 e7 3c
       0.016987119 -0.0021574204 -0.0049659424 0.02820649
000110 26 3c 08 3d 4b 78 98 bb 82 34 26 3b d2 b8 18 3c
       0.033260487 -0.004653012 0.0025360887 0.009321408
000120 a2 e8 d4 bb c8 2c 61 3b bd 8f 55 3c ff cb cd 3c
       -0.0064974586 0.0034358967 0.013034758 0.025121687
000130 aa 16 d4 bb 4c b5 25 bc 29 49 da bc 4f f4 82 3b
       -0.0064724283 -0.010114025 -0.026646214 0.003996409

fc.2.weight f4 [64, 80]
000000 fe 4e c3 3c 2d 73 de 3c 71 6e d0 bc 76 3b 5c 3d
       0.023841377 0.02715453 -0.025443288 0.053767644
000010 47 02 9c bd 0b 39 e3 3c f0 c0 e7 bd e8 07 4a 3d
       -0.07617622 0.027737161 -0.11316097 0.049323946
000020 5b 26 b6 3b 4a 37 da 3d ab 8a 07 3d 76 6a c9 bd
       0.0055587715 0.10655077 0.03309123 -0.09834759
000030 cd 8e 0d 3d e0 85 54 3c 91 28 3a bd 9c 00 53 3d
       0.034560014 0.012971371 -0.045448843 0.051514253
000040 00 b0 19 3a e0 c6 88 3d 37 63 db 3d 3a 4b 11 3e
       0.0005862713 0.066785574 0.10712283 0.14188853
000050 34 1a 7b bd 4f 51 19 3d 44 22 c1 bc 1c 0c a0 3d
       -0.061304286 0.037431058 -0.02357591 0.0781481
000060 e2 26 0c be 95 09 ac 3d 33 4f 99 3d df 24 a8 bd
       -0.13686708 0.08400265 0.07485809 -0.082101576
000070 50 93 0e 3d 41 dc a2 bd 86 03 ae 3d 2f fe 8d bc
       0.034808457 -0.07952166 0.08496766 -0.017333118
000080 f9 d7 f9 3b d7 b7 1d 3e aa 15 c6 3d 64 48 12 be
       0.007624623 0.1540216 0.09672101 -0.14285427
000090 15 66 12 be 7c f0 4b 3d 1d 48 a6 bd 42 b1 89 bd
       -0.14296754 0.04978989 -0.08119223 -0.06723262
0000a0 f4 12 7d 3d 5a 39 e9 3d d1 69 0c bd 25 1c d5 bc
       0.061785653 0.11387892 -0.034280602 -0.026014397
0000b0 78 53 bb 3d 73 42 86 bb c3 fd 6d bb f6 84 b2 3d
       0.0914678 -0.004097277 -0.0036314584 0.087167665
0000c0 b8 6d 8f bd 69 88 66 3d a0 4b 07 be 91 1c d3 bd
       -0.07003349 0.056282435 -0.13212442 -0.10308183
0000d0 97 a1 2a 3d 8d a0 59 bd ac a6 4e 3c 1e b8 13 3e
       0.04165801 -0.05313163 0.01261298 0.14425704
0000e0 45 ee f4 3c 04 94 f6 3d 69 c5 ab bc d8 03 c5 bd
       0.029898772 0.120399505 -0.020968156 -0.09619874
0000f0 f4 3d 2b bc dc 9d 42 bd e3 75 c4 3d 04 b3 1e bc
       -0.0104517825 -0.047513828 0.095927976 -0.009686235
000100 6d 31 14 3d bc f6 81 bd 6b ac c1 bc 60 81 30 3d
       0.03617995 -0.06345889 -0.023641786 0.04309213
000110 6c ad e7 bd f3 9d 99 3d c0 fa b3 3c cc 97 36 be
       -0.113123745 0.075008295 0.021970153 -0.17831343
000120 87 07 55 3d d3 f7 99 3d dd c3 cd bd 3d 63 c0 bb
       0.05200913 0.07517972 -0.100471236 -0.005871205
000130 16 4d e3 bc e5 43 eb bd 6d 80 c7 bc 3e 59 24 be
       -0.027746718 -0.11487559 -0.02435323 -0.16049668
000140 6b 0c 8e bd 7b 28 c2 bd fa 6f 73 bd 50 75 4b 3d
       -0.06935962 -0.09480377 -0.05943296 0.049672425
000150 0c 80 8a bd b4 bb 38 bd 53 f7 8b bd 0f 3a e3 bd
       -0.06762704 -0.045100883 -0.06834283 -0.11095058
000160 34 46 b9 3d e4 4b 03 3d 12 65 45 bd c6 40 a6 3d
       0.09046593 0.032054797 -0.04819209 0.08117823
000170 b7 91 3e bd c4 c3 dd bc 9d f6 6f bd e8 b2 a6 3d
       -0.046525683 -0.027070887 -0.058584798 0.081395924
000180 00 a2 85 ba 87 40 9c 3c 49 1f 19 bd c4 40 69 bc
       -0.0010195374 0.019073738 -0.03738335 -0.014236633
000190 e2 a6 98 3d 41 7d 61 3c 10 65 01 bd d2 91 e4 3d
       0.07453705 0.013762773 -0.03159052 0.111606255
0001a0 5a 98 ab 3d 73 62 6f 3d e8 8b 2b bc e3 26 d9 3d
       0.08378668 0.058443498 -0.010470368 0.1060312
0001b0 e6 3d 3e bd 09 cc 3f 3d d4 a1 3f bd c1 42 87 3d
       -0.04644575 0.046825442 -0.04678519 0.06604529
0001c0 7b c4 3a 3d 01 f8 7b 3c 93 bd b1 3d 21 5b 8e bd
       0.045597535 0.015378953 0.086787365 -0.06950975
0001d0 93 eb 86 3d 31 16 9e 3d 72 2c c1 bd 09 70 b9 3d
       0.06587901 0.077190764 -0.094323054 0.09054572
0001e0 10 f6 00 bb ac c2 43 bd d1 c3 9b bd e3 6c 4a 3d
       -0.0019677915 -0.047793075 -0.076057084 0.04942025
0001f0 e9 8e 2b bd 52 67 85 3d c6 ab a1 3d 38 cd d6 bd
       -0.041884337 0.065138474 0.07894091 -0.10488361
000200 f4 aa b6 bd fc 0a ff 3a f4 b4 ae bb 28 66 b7 bc
       -0.089193255 0.001945823 -0.00533163 -0.02238758
000210 8c ac 8a bd a7 9f 93 bc 45 a6 ef bd a9 be 9c bc
       -0.06771192 -0.018020464 -0.11701635 -0.019133883
000220 0a e6 a0 bd 7b a0 81 3d 5f 08 76 bd a0 7d 6b bd
       -0.078563765 0.06329437 -0.060066577 -0.057492852
000230 09 90 ad 3d 40 77 f8 3c 5f 41 c3 3d 4c 02 85 bd
       0.08474738 0.0303303 0.09533953 -0.06494579
000240 48 7a 43 3c da 29 d8 bc 34 8a c7 bd 31 4a cc 3d
       0.01193101 -0.026387144 -0.09743157 0.099750884
000250 2e 6f d8 bc c8 64 93 3d 4a b1 a2 3d cb bb af bc
       -0.026420202 0.07196957 0.079439715 -0.021451851
000260 e2 f0 19 3c 93 00 f2 3c 6d 91 98 bd ba f3 49 3d
       0.00939581 0.02954129 -0.07449613 0.0493047
000270 d5 7e ba 3d 34 e7 c9 bd bc 80 bd 3d 9a 3b fc 3c
       0.091062225 -0.098585516 0.0925307 0.030790139
000280 a6 e6 e5 bd 7f 9b 17 bd f0 90 b9 3c 7a a3 e0 3d
       -0.11225633 -0.037013527 0.02265212 0.10968681
000290 52 16 b7 3d 87 6a ea bd 3b 09 c8 3d c1 17 58 bd
       0.08939804 -0.114461 0.097673856 -0.05275703
0002a0 97 9f bd bc d8 6f 9c 3c cf 8f 21 bd e2 b8 0a 3d
       -0.023147387 0.0190963 -0.039443787 0.033867724
0002b0 1b b1 84 bd e2 43 21 bd 98 84 de bd 5e 89 95 3d
       -0.06479093 -0.03937138 -0.10865134 0.07301591
0002c0 f9 cd ae bd 5c a8 d9 bd 34 6e 88 3d a2 c6 05 bb
       -0.0853538 -0.10627815 0.066616446 -0.0020412584
0002d0 0a a0 0d bd 9a 9a 57 bb a2 1c d3 bd 00 c1 a7 39
       -0.034576453 -0.0032898546 -0.10308196 0.00031996518
0002e0 6b 69 9f 3d 10 50 a0 bd ae 18 0b 3d 22 40 70 3c
       0.07783779 -0.07827771 0.033959083 0.014663728
0002f0 96 18 85 bc e0 6a f3 bd d7 1c a2 3d fb 26 0e bd
       -0.016247075 -0.11885619 0.07915657 -0.034705143
000300 be 42 b7 bd 17 bf 97 3d 9f 48 99 3d 41 e7 33 3d
       -0.08948277 0.07409494 0.074845545 0.043921713
000310 7f ad bd bb b8 88 b0 bc 9f 97 92 3d 82 bc 86 bd
       -0.0057885046 -0.021549568 0.07157826 -0.06578924
000320 ca 10 88 3d 15 4c 9c bd 0c ee b9 bd b0 a0 02 3d
       0.06643827 -0.07631699 -0.09078607 0.031891525
000330 cd a4 cc bd 5b 0b c7 3d 62 07 49 bd e7 3e a7 3d
       -0.09992371 0.09718963 -0.049079306 0.081662945
000340 84 e2 c5 3d 8a b2 e2 3d d7 f3 ab bd 24 ed 7a 3d
       0.09662345 0.1106921 -0.08396118 0.06126131
000350 42 fb 49 bd 98 f0 38 bc b1 e6 89 3c 60 a3 bb bd
       -0.049311884 -0.011287831 0.016833635 -0.09162021
000360 95 d9 73 bd a1 d0 8b 3d 69 db 6f bd 40 9b e3 bc
       -0.059533674 0.06826902 -0.058558855 -0.02778399
000370 ae c3 75 bc f0 4a 14 bd 99 21 c7 3c 9f 01 06 bd
       -0.015000267 -0.03620428 0.024308013 -0.03271639
000380 6d 03 b8 bd 1c b0 86 3d 6c 88 ea 3b e7 53 cc 3d
       -0.089850284 0.06576559 0.007157376 0.099769406
000390 ac 6e 2a bd ae 3c da bd f0 d3 e3 3d e8 4e 74 3d
       -0.04160945 -0.10656105 0.11124408 0.059645563
0003a0 53 62 01 bd 64 0c 41 bd 58 aa 26 bd 86 ef ca 3d
       -0.03158791 -0.047130957 -0.040689796 0.09908967
0003b0 63 37 ed bd ca 63 74 bd 51 b8 e8 3d b1 51 72 bd
       -0.1158283 -0.05966548 0.113632806 -0.05915994
0003c0 e2 35 c3 3a 0c 95 33 3d fb 72 bc 3c af a1 e5 3a
       0.0014893378 0.043843314 0.023004046 0.0017519499
0003d0 be 8a fd bd c3 7c e4 3d 2a cc 23 bd dc 18 a3 bd
       -0.123799786 0.11156609 -0.039989628 -0.07963726
0003e0 c1 e5 b9 bb 94 07 a4 3d 20 c1 82 3d aa 3b 2a bd
       -0.0056731408 0.08009258 0.06384492 -0.041560806
0003f0 e4 fe a0 bd a6 2d 4c 3d 71 ca 84 3d c1 e1 33 be
       -0.078611165 0.04984822 0.06483925 -0.17566587

fc.2.bias f4 [64]
000000 43 e0 71 3d 7f 98 00 3d eb 8b d9 3d 47 64 1e 3d
       0.059051763 0.03139543 0.1062239 0.03866985
000010 0c 1a 8a 3c 88 46 0e bd 15 af cc 3d 72 a1 d2 3c
       0.016858123 -0.034735233 0.09994332 0.025711749
000020 0a 98 9b bd 25 1c 8d 3d 46 d0 6c 3d 01 96 08 bd
       -0.075973585 0.06890134 0.057815813 -0.03334618
000030 b6 7b c7 bd ce 31 c3 3d 1a f2 7f 3d cd 09 62 3d
       -0.09740393 0.09530984 0.062486745 0.055185128
000040 56 ef 05 3d e4 cc 6b 3d 8d d2 12 3d ac a2 0a bd
       0.03269895 0.057568446 0.035845328 -0.033846542
000050 75 4a ce bd 51 49 a2 3c 1f 9a 46 3d 73 a9 ae 3d
       -0.10072795 0.01981035 0.048486825 0.085284136
000060 60 d7 71 3b de 37 88 3d 5f a7 b7 bd ec 1c 51 3d
       0.0036902055 0.06651281 -0.089674704 0.051052973
000070 1b dd bc 3d 21 07 fc 3c 3c 54 3f 3d 3d 2c 88 bc
       0.0922186 0.030765118 0.04671119 -0.016622657
000080 ca 99 b8 bb f8 50 3f 3d bc 2d 93 bd 00 a4 b9 3d
       -0.0056335675 0.046708077 -0.071864575 0.09064484
000090 ba 94 8f bd 58 96 53 bd c5 f5 25 bd 70 d6 da bd
       -0.07010789 -0.05165705 -0.040517587 -0.10685432
0000a0 40 bc bb bd 26 b6 9b bd c4 38 43 bd de b7 62 bc
       -0.09166765 -0.076031014 -0.047661558 -0.013837783
0000b0 cb 3f a2 bc 2a 28 c6 bd 03 32 9b 3d 0b 4f d7 3d
       -0.01980581 -0.096756294 0.07577898 0.10513123
0000c0 8b 26 93 3b ce 74 42 3d f7 4b 6d 3d 28 54 8b bd
       0.0044906787 0.047474675 0.057933774 -0.06803161
0000d0 f1 96 a3 3d 99 7b 9c 3c de 98 dc 3d a7 85 8c bd
       0.07987774 0.019101905 0.107713446 -0.0686143
0000e0 d1 04 7b bd e7 60 80 bd 0d f4 b4 3c f2 89 ad bd
       -0.06128389 -0.06268483 0.022089029 -0.084735766
0000f0 f0 bc ae bb 1d dd f2 3c 7e fb 9f bd 0e 62 d1 bd
       -0.0053325817 0.02964645 -0.0781164 -0.102237806

fc.4.weight f4 [2, 64]
000000 ae 80 91 bd 64 2f 47 3d 9b 28 01 3e b2 33 b0 bc
       -0.07104622 0.04862918 0.12613146 -0.021509025
000010 d8 ac 0d 3e 50 d9 b3 3c 01 5c 10 be 80 9e 29 3e
       0.13835466 0.021954209 -0.14097597 0.16564369
000020 04 38 d7 3d 31 95 c9 3d 22 f3 3c be d9 7b 49 be
       0.10508731 0.09842909 -0.18452123 -0.1967615
000030 08 10 25 3d ac a4 49 3b 04 47 0c 3d 25 65 3b bd
       0.04029849 0.0030768318 0.034247413 -0.045750756
000040 be 92 45 3e e2 fa 71 bd 53 a3 ff bd 2e 3a 33 3e
       0.19294259 -0.05907715 -0.124823235 0.17502663
000050 18 db b0 3d 17 6d ad bd d4 4b 2e 3e 37 62 c3 bc
       0.08635539 -0.08468073 0.17021114 -0.023850543
000060 7e 3b f7 bd 61 2f 24 be 60 c8 cd 3d 9b 6a 9e bd
       -0.12071894 -0.16033699 0.10047984 -0.07735177
000070 34 b4 26 3e 05 3b 45 3e df 87 07 3e 3b fc 6d 3d
       0.1627968 0.19260795 0.13235424 0.058101874
000080 19 f3 47 3d 5e 31 a2 bd 6c 69 d7 3d d4 86 2a be
       0.04881582 -0.07919572 0.105181545 -0.16652995
000090 b8 e1 b6 3d 48 e4 ea 3d 06 6a 9f bc d0 e7 90 bd
       0.08929771 0.114693224 -0.019459736 -0.07075465
0000a0 04 f1 c8 bd 50 d2 ad 3d 2a ac 2e be b5 a2 5f bc
       -0.09811595 0.084873796 -0.17057863 -0.013649632
0000b0 a7 36 a5 bd 80 93 74 ba 1e 4f d2 bc ba 89 2d 3e
       -0.08067065 -0.00093298405 -0.025672492 0.1694707
0000c0 12 8b 37 3e 3e ac 41 bd 3a 9d 29 3e 42 f5 c4 bd
       0.17924145 -0.047283404 0.16563883 -0.09617092
0000d0 b1 5a b3 3d 39 15 38 bb 7e 34 07 be 0e 53 af bd
       0.087575324 -0.0028088822 -0.13203618 -0.08560763
0000e0 52 c7 63 bd 78 21 b0 bd c2 91 4f bd 1e 08 1a be
       -0.05561001 -0.08600134 -0.050676115 -0.15042159
0000f0 50 f0 47 3d 0a cf 35 3e bc 7a 69 bd f0 ce b8 bc
       0.048813164 0.1775476 -0.057001814 -0.022559613
000100 94 66 d3 3d e9 e2 c3 3d 06 71 9e 3d c8 98 25 3e
       0.103222996 0.09564764 0.07736401 0.16171563
000110 09 d9 85 bd c0 46 a4 bc 3f 72 d8 3c 86 54 18 be
       -0.06535537 -0.020053267 0.026421664 -0.14875993
000120 c2 9f 3b be bb df 14 be 6c 3b 1b 3e d1 2d 47 3d
       -0.18322662 -0.14538471 0.15159386 0.04862768
000130 3e 4d f2 bc 17 ce 39 be f7 db 1f 3e fa fa e9 3d
       -0.029577848 -0.18145023 0.15611254 0.11424823
000140 64 58 2c bd 24 33 82 bd 12 2d 9b 3d 6e c5 ea bd
       -0.042076483 -0.063574106 0.07576956 -0.11463438
000150 46 0a a8 3d 5f 2b 9d bd ac fe fe bd 20 d8 20 3e
       0.082050845 -0.07674288 -0.124509186 0.15707445
000160 48 cb 84 3d 36 0c aa 3d 44 2a a3 bd 29 22 90 3d
       0.06484085 0.0830311 -0.07967046 0.070377655
000170 f4 cc 72 bd 73 c4 4b bd ee 42 12 bc 17 09 93 3d
       -0.05927749 -0.049747895 -0.00892709 0.07179468
000180 fd a4 2f be 28 d3 2c 3e da 8c e9 bd 34 54 29 3e
       -0.17152782 0.16877425 -0.114038184 0.16536027
000190 50 41 e3 bd e2 27 bd bd c6 2c ba bd 5e 93 9b 3d
       -0.11096442 -0.09236123 -0.09090571 0.075964674
0001a0 37 2a ef 3d a6 52 9b bd 37 de e6 3d af 97 eb 3c
       0.11677974 -0.07584123 0.11272853 0.028758852
0001b0 75 1f 83 3c 63 48 17 3c 47 58 ac 3d a0 1f 0b be
       0.01600621 0.009233567 0.08415275 -0.13586283
0001c0 e3 fc 32 bd fd b3 96 3c 94 a0 31 be 2e b5 b7 bd
       -0.043698203 0.018396372 -0.17346412 -0.08970104
0001d0 a9 3c f3 3a d1 65 15 3e 92 34 ed 3d 36 0e 83 bd
       0.0018557507 0.14589621 0.115822926 -0.06399195
0001e0 37 e2 15 3c 00 5d ea 3a a7 ab 26 3e 82 61 26 3e
       0.009148172 0.0017880499 0.16276418 0.16248134
0001f0 ac 93 21 3e a0 6e 90 bd ec bf bf bd c0 d7 c8 3d
       0.15778989 -0.0705235 -0.09362778 0.09806776

fc.4.bias f4 [2]
000000 fc 83 dd 3d 72 98 27 3c
       0.1081619 0.010229217
