Models/stat_dict__LeNet_1.pth (torch, 648447 bytes, 10 tensors)

conv.0.weight f4 [6, 1, 3, 3]
00000000: 77b1 963e 1176 b5bc b6fb 9ebe 60d8 953e
00000010: e0d6 7cbd af0f 413d 30b3 863e 6e15 9dbe
00000020: ff5a 7cbd 970e cabd 0db7 fd3d c656 ccbc
00000030: a507 6a3e bf9e 3e3e a5e0 5ebd 95ec 9ebd
00000040: cbae 383e d3b1 36be 6577 203e d064 8fbe
00000050: 25fb 773e c7e9 023e 94c5 28be 90cf 263e
00000060: 9a05 d53d dd61 aabe 1da1 843e 7046 77be
00000070: a1a8 cdbb c3f5 903d 8afe 863e 9eba b73e
00000080: cb35 0abe 6c94 8ebd fb86 7a3c 7a00 33be
00000090: ecbb a53e 2d85 213e 4625 683d 9984 373e
000000a0: be2e 363e b42b 3ebe 68f8 b4bd f4c9 4b3e
000000b0: 2958 a83e 1cf9 97be f82b e43d 415f 6cbd
000000c0: 13ce b2be cc14 8f3e 7514 ec3d d4e3 f13d
000000d0: 7a42 a0bd d73b 223e
0.2943227 -0.022151025 -0.31051415 0.29266644 -0.06172836 0.047134098 0.26308584 -0.30680412
-0.06161022 -0.09866064 0.1238843 -0.02494372 0.22854479 0.18615244 -0.054413456 -0.07759968
0.18035428 -0.17841272 0.15670545 -0.280066 0.24216898 0.12784491 -0.1648162 0.16290116
0.10401459 -0.3327779 0.2590417 -0.24147964 -0.0062762056 0.07078125 0.26366073 0.35884565
-0.13497083 -0.06961903 0.015290971 -0.1748065 0.32369936 0.15773459 0.05667617 0.17921676
0.17791268 -0.18571359 -0.08836442 0.19901258 0.3287976 -0.29682243 0.11141199 -0.05770803
-0.34922847 0.27945554 0.11527339 0.11811033 -0.078251794 0.1584314

conv.0.bias f4 [6]
00000000: 08fd 00bd 70c2 92be 9a3a 91be 1a99 b0bd
00000010: 0b6d 023e 5be8 12bc
-0.03149131 -0.2866397 -0.28365022 -0.08622952 0.12736909 -0.008966531

conv.2.weight f4 [16, 6, 3, 3]
00000000: 13c8 a63d 1a8f b9bd 63c9 fd3c 0093 d43d
00000010: 9a12 123d ac67 0cbe 9d63 383c e8fe dc3d
00000020: 6e90 943d eee4 163e ae82 933d 3fe1 bf3c
00000030: a854 bdb9 c764 85bd 552f f93d 6684 003e
00000040: 04dc b53c 57d6 933d c8f0 cebd 63f8 873e
00000050: 215e 05bd 9c40 3f3c ca7d c63d 610a 903d
00000060: a3ac 143e 7006 883e 5b83 583c 3fb8 4d3e
00000070: d213 883d d620 c7bd 73da 0f3e 2fa6 d7bc
00000080: 3319 b13d f430 de3d f7d1 2b3e 6977 54bd
00000090: e695 b73c 09f5 013e f4af 61bd 64a0 ddbc
000000a0: 0ea9 e9bc 6a96 05bd 9387 8cbd e6c6 09be
000000b0: 113a 133e da07 3bbd f39d ecbd d305 cd3d
000000c0: 86c5 143e dc47 babd 39c8 293e 59e9 eb3d
000000d0: 112d 3b3d 3433 943d 57f7 2e3c a586 b63d
000000e0: 44ad 083d 9d8f e03d c261 333d 6655 eb3d
000000f0: 59af a2bd 9394 3ebc 1e3a 1dbd 820b da3d
00000100: 4675 c7bd 1b64 51bd 3a12 173e 5473 54bd
00000110: 7b1a d33d 181b b83d 715f c83b ebdf 103e
00000120: c2a6 2bbe d54b 333d 2822 443e 9e46 18be
00000130: e65e 613e a24d ddbc 4cb8 b9bd 55f4 073e
00000140: 992c de3c 1a0e 083e 361b 903d aee1 85bd
00000150: db24 babc 6438 67bc c95c 4b3d 01fa e53d
00000160: 7b6f 04be bdb1 203d acf8 033e c74f a7bd
00000170: e95f c73d 48f4 01bd c9bb 90bc 3080 613b
00000180: ba4f b0bd c1d8 223d 609c 363d d0e7 58bd
00000190: 9156 3b3c b038 803d 86e3 493e fbfb cfbd
000001a0: ac91 363e afe9 b33d ece5 8d3b 6e4e 2e3e
000001b0: e102 b4bd cef9 343e 6b02 7bbd 7c9b 30bd
000001c0: 37ed 8a3d d6b1 90bb 0c7e bbbd 0453 593d
000001d0: da47 0a3e 4592 433e cb1b aa3d 60fb 043e
000001e0: f2bc ec3c 68c7 223e 7687 fbbb 40b0 a13d
000001f0: a018 1f3e e252 673d 5556 603c c45c 1c3e
00000200: 4c60 733e 3504 3ebe 236f 89bd 8b35 8f3e
00000210: 30e0 643d 3929 9cbc 44f6 7c3e 0b94 b43c
00000220: 296a 863e a707 88bd 5e71 dcbd f24b 163e
00000230: 8d1a 66bd 3924 173d 67a7 583e 64e1 9dbd
00000240: 0ad2 95bc 090e 6bbd 2852 d5bd b270 b43d
00000250: 367e 0f3e db6a 203c 4b43 36bd 75cc f03d
00000260: 83de 95bd 5638 b43d b470 813d 493b b93c
00000270: 8800 afbd 7ea5 c2bd 0ceb fbbd bb0d a6bd
00000280: 8611 ecbc 7d5d 79bd e917 4dbd dd46 c5bc
00000290: 3f49 17bb 45cf f9bc 04c5 90bd d8df 8bbd
000002a0: 6023 073e 5583 8c3d eaea f1bd 900b 573e
000002b0: d0a3 063d 8a6f 073e b5d0 4c3d 58ae a8bd
000002c0: 2d9f f83d a251 033e 9407 d0bd 6308 b03d
000002d0: 8f55 533c b012 43bd bcb3 813e e538 703e
000002e0: aca9 503e ab34 903e b17c 833d dc3d 913d
000002f0: 9c8a 0c3e 7743 883d 8b00 4d3d fb6b 9ebd
00000300: b7aa 403e b904 f33c 2270 e1bd 2c93 5d3e
00000310: d275 03be 2864 463d 8712 843d 725c 17bd
00000320: 1cb1 68bd 8343 793d 0301 79bd d84f 303d
00000330: c1b0 0a3e 44f6 5abd e01b 5ab9 235e a8bd
00000340: f9ef e33d c344 d1bd 5132 9f3d 1105 a3bd
00000350: 2af7 b8bd 4491 cabd bbec ff3d 84ca 6e3e
00000360: 1537 cebd 46e2 103e 9476 e33d 021d 61bd
00000370: 242b 5fbc 5ea1 ad3d 2010 c9bd 0028 ebbb
00000380: 5b8e 573d 8233 453d a176 093e 1f85 ad3a
00000390: 1878 70be 0753 1ebd 031c 6d3c 159d 65be
000003a0: bd40 a7bd 342f a5bd 19e2 35be edb8 87bc
000003b0: 7908 ebbd 6bbe 6d3d d6b8 5bbd 0060 0f3e
000003c0: bc5f 9dba b5e9 8a3d c082 fcbd 85fe 6cbd
000003d0: 2620 d1bd 3542 8fbc 380c 823c 89d4 e93d
000003e0: b7c1 e93d 53ed ecbd 97c2 d6bc 2cf8 2ebd
000003f0: 5621 fe3c f3fb 2cbd 29b0 1d3e 6120 af3d
0.0814363 -0.090604976 0.030979818 0.103796005 0.03566227 -0.13711423 0.011254218 0.10790807
0.0725411 0.14735767 0.072026595 0.023422835 -0.00036111963 -0.065133624 0.12167231 0.12550506
0.022199638 0.072186165 -0.10104519 0.26556692 -0.03256047 0.011673119 0.09691961 0.070332296
0.1451898 0.2656741 0.013214911 0.20089816 0.066444054 -0.0972306 0.14048176 -0.02632436
0.086473845 0.10849181 0.16779314 -0.05187169 0.022410344 0.1269113 -0.055099443 -0.02705402
-0.028522994 -0.03261415 -0.06861796 -0.1345478 0.1437762 -0.045661785 -0.11553564 0.100108765
0.14528474 -0.09095737 0.16580285 0.11519117 0.045697276 0.07236329 0.010679088 0.089124
0.033368364 0.10964892 0.0437944 0.11490898 -0.07943601 -0.011632103 -0.038385503 0.10646726
-0.09739165 -0.05112086 0.14753047 -0.051867798 0.10307785 0.08989543 0.006114893 0.14147918
-0.16762832 0.04377349 0.19153655 -0.14870688 0.22008857 -0.027014557 -0.09068355 0.13276799
0.027120875 0.1328663 0.0703644 -0.065371856 -0.022722652 -0.014112566 0.049649034 0.11229325
-0.12933151 0.039232004 0.1288783 -0.08169513 0.0973509 -0.031727105 -0.017667668 0.003440868
-0.08608957 0.039757494 0.044582725 -0.05295545 0.011434213 0.06260812 0.197157 -0.10155483
0.17829007 0.08784806 0.0043303873 0.17022106 -0.087896116 0.17673418 -0.061281603 -0.04311703
0.067835264 -0.004415731 -0.09154901 0.053057685 0.13503972 0.19098766 0.08306082 0.12986517
0.02889869 0.1589638 -0.0076760603 0.07894945 0.15536737 0.056475528 0.013692458 0.15269762
0.23767203 -0.18556292 -0.06710651 0.27970538 0.055877864 -0.019062625 0.24703318 0.022043249
0.2625287 -0.066420846 -0.107638106 0.14677408 -0.056177665 0.03689978 0.21157609 -0.077090055
-0.018288631 -0.05738643 -0.10416061 0.088105574 0.1401299 0.009791101 -0.04449777 0.11757747
-0.07317831 0.08799808 0.063203245 0.022611277 -0.08545023 -0.095042214 -0.12300691 -0.08108088
-0.02881695 -0.060880173 -0.05007163 -0.024081642 -0.002308443 -0.030494342 -0.07068828 -0.06829804
0.13197088 0.06860987 -0.118123844 0.21000504 0.032871068 0.13226143 0.050003726 -0.082363784
0.12139735 0.12824109 -0.101576954 0.0859535 0.012898817 -0.047625244 0.2533244 0.23459204
0.20377225 0.28165182 0.064202674 0.07091877 0.1372475 0.06653493 0.050049346 -0.077354394
0.18815123 0.029665338 -0.11007716 0.21638173 -0.12837914 0.04843536 0.06448846 -0.036953397
-0.05680953 0.0608554 -0.06079198 0.043044895 0.13543989 -0.053457513 -0.00020800484 -0.0822108
0.111297555 -0.102181934 0.07773269 -0.07959951 -0.09031518 -0.098909885 0.12496325 0.23319441
-0.100691 0.14148816 0.11106601 -0.054959305 -0.013621125 0.08478044 -0.09817529 -0.007176399
0.052625995 0.048144825 0.1342416 0.0013238526 -0.23483312 -0.0386534 0.014472011 -0.22423203
-0.08166645 -0.08065644 -0.1776203 -0.016567672 -0.114762254 0.058042925 -0.05364307 0.14001465
-0.001200668 0.06782857 -0.12329626 -0.057859916 -0.1021121 -0.017487625 0.015874967 0.11417491
0.11413901 -0.115687035 -0.026215835 -0.042717144 0.031021755 -0.042232465 0.15399231 0.08551098

conv.2.bias f4 [16]
00000000: 6898 0a3d aada 453d b97f cbbd c9bf f4bd
00000010: 5855 20bd d79f 4ebd e065 cabd 775c 0a3e
00000020: daa7 a6bd 0300 8e3d 295a 89bc 417b a23c
00000030: da3a 643d 39d6 f53d 8a3a 9cbd da77 8c3c
0.033836752 0.048304237 -0.099364705 -0.119506426 -0.03914389 -0.050445404 -0.09882712 0.13511835
-0.08137484 0.06933596 -0.016766625 0.019834163 0.055720188 0.1200375 -0.07628353 0.017146993

fc.0.weight f4 [80, 1936]
00000000: 0934 bbbb 1865 c83c 3455 d53a 002c a83d
00000010: 18b0 143e 2b59 123e bfae d13d e154 2b3e
00000020: 6474 f83d 1796 bd3d 546a ab3d ae46 2abd
00000030: f7ee 083d e02b e43d bfc1 bc3d f739 0b3e
00000040: 1c29 a63d f289 053e b4bf 313e 3813 ca3d
00000050: 1278 0a3e f19a 243e f442 b8bc 7172 3abc
00000060: 5907 8e3d 8dfb e83c 1328 4b3d 04b8 a63d
00000070: 5e54 813d 86a8 0a3e 0bc9 fb3d f31c 093d
00000080: 6712 0c3e 4d0c 573c a69d 413d 27cf a03c
00000090: 3055 41bc fb47 0b3d db89 e63d 49ae ab3d
000000a0: 272b 953d fa9e d33d 32eb 173d c30b 323e
000000b0: bf37 fcbb ddde cd3c 1784 193d 5744 513c
000000c0: f2ad 36bc 15ab 8a3d 951e 913d 837a 8c3d
000000d0: 64ff c53d 1313 ce3d d54c 3e3e 6ec0 c33c
000000e0: c9df 263d 3fbc 49bd fbe8 b53c 5405 82bd
000000f0: cf95 993c f863 a63c 3c97 c33d c211 a33d
00000100: b688 8bbc 4051 173e 80bd 0abd 1a12 503d
00000110: 042c 62bd 44fb 813d ada4 683b 17b3 c03c
00000120: 574f 7fbd 7e0d b9bc 247d 973d e8d4 0ebd
00000130: 0ce6 a43d 8c58 65bc bcd4 c83a 4c85 a2bd
00000140: 8070 7e3d cd49 13bc 0fa3 6abb 9cc8 c8bc
00000150: 1135 a43c f069 9a3d 87de 9d3c f1c4 41ba
00000160: 4e15 6a3d 8329 633d 462d 89ba fc17 ccbc
00000170: 1845 32bb 0ab6 1e3d 1724 833c 9b13 073d
00000180: 4cc8 2d3d e60a 333c f1a3 70bd 6a74 243c
00000190: 69da 333d 3ff1 963c 2533 64bc c17e efbc
000001a0: 8036 ea3c f827 c4bb e157 203d 9675 d23c
000001b0: 0cba 043b b332 3fbc 81c7 ab3c bb0f 263c
000001c0: 2987 19ba 7376 3a3d 7451 043d 49f3 3cbc
000001d0: b251 ea3c 6772 593d edc1 84bc 9706 abbc
000001e0: 7c48 143b f78f c7bb 9e89 da3a 051c 8abc
000001f0: fb6e 7c3c 596c d8bb e3da e23c 57a4 c83c
00000200: 7ed1 c43c e546 e1bc c483 923c a882 d93d
00000210: d57f 38bb 3ed9 7abc c1af 143d cca3 33bc
00000220: aa4c 5fbc e51f 22bc 4215 643c 2188 483c
00000230: 1e20 5e3b a35a 383c 1614 dd3d 489f 06bd
00000240: 5440 67bb ae4f 86bc b927 a63c 89f6 9c3c
00000250: 2985 c53c 2e75 8f3c 3257 6abb 0e58 91bb
00000260: 2ea9 453c 9718 f03d 5a7d d73b d836 8dbc
00000270: b766 d9bc 6a66 97ba 8db3 96bc 92c6 acbc
00000280: 35fa 0f3c 5f43 90bb 87ab a5bb 62d6 963c
00000290: 6e4a ff3c 0ef5 42bb e5c0 81bc fbe8 aebc
000002a0: 256f fcbb e102 f8ba eaa1 4dbc 4ffd a33b
000002b0: 2a46 ce3c 9328 66bb 464f f6bc f69a 0e3e
000002c0: f395 2cbc ab91 163b eed6 30bd 70d0 323c
000002d0: a2fd c7bc 5c9b b4bb b68c 9cbb a705 983c
000002e0: 4180 e83c 3eef cebc c5bb f63d 54c7 8bbc
000002f0: 7a6a 0d3c 6bd5 86bc e97a 943c c361 39bc
00000300: e716 0fbb 9c18 7dbc 65ee c8bc 85de 8abc
00000310: 4661 cebc 9746 8b3d 962d 2d3b a9e0 413c
00000320: 48c2 513c d816 763c 7a0b 19bc eb05 bcbc
00000330: 9ff6 6cbc cb10 15bc fe5a 813c 8066 873c
00000340: 0bb9 693d 5449 af3c 20a4 153c 3189 9f3c
00000350: b5e6 1d3c 5640 06bc d149 1abc 5772 8ebc
00000360: 2785 833c 230e eb3a ac48 b1b9 1fc4 123d
00000370: 940b b63c bd78 963c f4fa 163d 8b8d 46bc
00000380: 4776 373c 6e2c f73b d408 0b3d 3bee a43c
00000390: 0913 953a 2efc fb3c 59fe 13bb 29b2 6f3d
000003a0: b200 43ba fd36 b73c b23f 253d c5ea 7f3c
000003b0: 1c40 16bc 69cc 213c aa05 423b 5584 92b8
000003c0: 498d 033d f8f3 f6ba 4c65 0e3e 1c40 043e
000003d0: d84b c63d c0a2 e53c b63d 3e3c 65af f13c
000003e0: cf9a b83d 78a1 913d 4057 a13d 8704 4a3b
000003f0: 215d 38bd b1ba be3d ce58 ba3b 4eab 833d
-0.00571299 0.024462268 0.0016276003 0.08211517 0.145203 0.14291827 0.10238408 0.16731597
0.12131575 0.09257143 0.0836989 -0.04157131 0.03343102 0.11141181 0.09216642 0.1359633
0.0811331 0.13040903 0.17358285 0.09866947 0.13522366 0.1607473 -0.022492863 -0.011379824
0.06934995 0.028440261 0.049598765 0.08140567 0.0631492 0.13540849 0.12294205 0.033474874
0.13678895 0.013125491 0.047269486 0.019630028 -0.011800095 0.034004193 0.112567626 0.08382852
0.07283621 0.10333057 0.037089534 0.17387299 -0.007697075 0.025130684 0.037479486 0.012772641
-0.01114987 0.067709126 0.07085911 0.06859305 0.096678525 0.10062232 0.18583997 0.023895469
0.040740762 -0.04925179 0.02220582 -0.063486725 0.018748192 0.02031134 0.0955033 0.079623714
-0.017032962 0.14777088 -0.033872128 0.050798513 -0.055217758 0.06346753 0.0035498545 0.023522897
-0.062331524 -0.022589441 0.073969156 -0.034871012 0.080516905 -0.013998162 0.0015322189 -0.079355806
0.062119007 -0.008989763 -0.0035802757 -0.02450972 0.020044835 0.07539737 0.019271148 -0.0007391712
0.057149224 0.05545951 -0.0010465763 -0.02491378 -0.0027201828 0.038747825 0.01600842 0.03297768
0.042427346 0.010927891 -0.058750097 0.010037521 0.043909464 0.018425582 -0.013928209 -0.029235246
0.02859044 -0.00598621 0.039146308 0.025690835 0.0020252494 -0.0116698025 0.020969154 0.010135586
-0.0005856627 0.04552312 0.032304242 -0.011532613 0.028603408 0.05308762 -0.016205752 -0.020877166
0.0022626212 -0.00609016 0.0016673093 -0.016859064 0.015407319 -0.006604713 0.027692264 0.024492426
0.024025675 -0.027499625 0.017885096 0.10620624 -0.0028152366 -0.015310584 0.036300424 -0.010964345
-0.013629118 -0.0098953 0.013921084 0.012239487 0.0033893655 0.011252078 0.10794847 -0.032866746
-0.0035286145 -0.016395416 0.020282613 0.019160526 0.024111347 0.01751193 -0.003575754 -0.0044355458
0.012064261 0.1172344 0.0065762224 -0.017238066 -0.026538236 -0.0011550908 -0.018396163 -0.02109078
0.008787681 -0.0044025625 -0.005055848 0.018412773 0.03116342 -0.0029748115 -0.01583905 -0.021351328
-0.007703679 -0.0018921756 -0.01255081 0.005004562 0.025179941 -0.00351194 -0.030067097 0.139263
-0.010533798 0.0022975008 -0.043173723 0.010913953 -0.024412934 -0.0055116843 -0.0047775162 0.018557383
0.028381469 -0.025260564 0.12047533 -0.01706282 0.008631343 -0.016459187 0.018125014 -0.011314812
-0.002183372 -0.015447762 -0.024527738 -0.016951809 -0.025192868 0.06800573 0.0026424876 0.011833348
0.012802668 0.015020095 -0.009341115 -0.02295204 -0.014463096 -0.009098242 0.015790459 0.016528368
0.057061236 0.02139727 0.009133369 0.019474598 0.009637524 -0.00819405 -0.009417013 -0.017388506
0.016054703 0.001793329 -0.00033814216 0.035831567 0.022222318 0.01836812 0.03686042 -0.012118707
0.011197633 0.007543138 0.033943966 0.020133128 0.0011373471 0.030759897 -0.0022582023 0.058519516
-0.0007438763 0.022365088 0.040343948 0.015619938 -0.009170558 0.009875395 0.0029605427 -6.986471e-05
0.032117162 -0.0018841019 0.13905829 0.12915081 0.09682435 0.028031707 0.011611393 0.02950258
0.090139024 0.07110876 0.0787797 0.0030825452 -0.04501069 0.09312952 0.005686856 0.06429158

fc.0.bias f4 [80]
00000000: 8296 703c 5f42 1f3c 703e 893b a6ce f3bc
00000010: 2b5f dcbb 6cc3 bebc 67a3 4c3a 3db1 8abb
00000020: f63b 183b b67a 463c 078e 873c 02a2 003b
00000030: f07a f53b 000b 633b 8e5d 82bc 2ab4 80bc
00000040: dc6c babb 05c6 babc d276 a53c f0fe 753c
00000050: a741 4dbb 6544 3abc c12d 8dbb 719d 663c
00000060: e171 3ebc dcdc 95bc a53c aabb c92e 43bc
00000070: f89a b9bb a3d0 11bc 66dd 633c 8daf 333a
00000080: 7783 813b 5a81 15bc 3008 debc 8f98 2dbc
00000090: a9ab b33b f18f ac3c e600 9abb 5355 773c
000000a0: 42b1 95bc f547 69bc e0d2 323c 5107 d13c
000000b0: 8783 623b 649f 153c 17de 3dbc aeae b43c
000000c0: 4869 123b a809 94bc 9d5c e6bc 00df 023d
000000d0: 7082 543c edab e53b eed2 ddbc 16a5 84bc
000000e0: 9612 583c f0e0 bf3a 9f0f 75bc c82f 66bc
000000f0: 0b5c 293c 087d b7bc 18ec dc3c d45e 2c3c
00000100: 302f 31bb bc39 e339 e429 e93b 6c18 80bc
00000110: d652 823c e388 34bc 9166 c1bb 07ac 5ebc
00000120: 49b2 433d fd62 a83c 38bb c73c 67f0 fb3c
00000130: 559b 8abc 26ba 2fba 2a66 6dba 100c 2f3c
0.014684321 0.009720414 0.0041883513 -0.029761624 -0.006725212 -0.023286544 0.0007806331 -0.004232554
0.00232291 0.0121142175 0.016547216 0.0019627814 0.007491462 0.0034644008 -0.015913751 -0.015710909
-0.0056892466 -0.022799501 0.02019826 0.015014395 -0.003131965 -0.011368846 -0.004308433 0.014075623
-0.011623831 -0.01829379 -0.0051952177 -0.01191301 -0.0056642257 -0.0088998405 0.013907766 0.0006854467
0.0039524394 -0.009125078 -0.027103513 -0.010595455 0.00548311 0.02106473 -0.004699814 0.0150960265
-0.018273 -0.014238347 0.010914534 0.025516184 0.003456326 0.00913224 -0.011588595 0.02205595
0.0022340585 -0.01807101 -0.028120333 0.03195095 0.012970552 0.0070090205 -0.027078118 -0.016192
0.013188025 0.001463918 -0.014957338 -0.014049478 0.010336886 -0.022398487 0.026968047 0.010520656
-0.0027036183 0.0004333983 0.0071155895 -0.015636645 0.01590864 -0.011018964 -0.0059021194 -0.013590819
0.047777448 0.020555014 0.024381265 0.030754281 -0.016919771 -0.00067034585 -0.0009056056 0.010684028

fc.2.weight f4 [64, 80]
00000000: 94db 1e3e 7ab0 adbd 3b36 063e a094 bcbd
00000010: 1a8a 8bbd ab3f c9bd cd1f e1bd d14a e1bd
00000020: 98c6 103d e4d3 a6bc 40fe d63b 4028 18bb
00000030: 388b 043d ec30 063d f8fd 313c e23f 5ebd
00000040: 68bc ad3d 03ab 843d 20ef 2b3d 6025 683d
00000050: 443c 013d 6a9c d33d 18d3 853c 28c8 83bd
00000060: 7631 b4bd 90fd b73d 63f5 e0bd aacf ad3d
00000070: 867f bcbd 4d9d 9c3c 102e e73c 50f7 bb3d
00000080: d4bc ca3d a8be e9bc 1230 c3bd cefd b43d
00000090: c83f 8a3d a0af 6f3d 26b0 ab3d c456 25bd
000000a0: 67ef c5bd 07a3 08be d0bb c83c e178 9b3d
000000b0: 91f2 d2bc e1ed c0bd b96f 453e 193d 99bc
000000c0: 1dcf 90bd 3aaa 84bd 032f d5bd 259c da3d
000000d0: e882 bf3d d7c2 97bd 2646 66bb a7f2 8ebc
000000e0: 804f 8b3b 4471 86bd 5ee9 afbd 2f9d d3bd
000000f0: b80d 993a 1033 6bbd 4d98 183b 2de0 69bd
00000100: 6c2e bd3d 125c 9ebd 6304 65bd c239 b23d
00000110: aa92 9d3d a7a8 573e 33df 433e 3ca6 a53d
00000120: a29f b73d 0ff7 fdbc 94c7 09be b7e4 2e3d
00000130: f83a 26bd 096d 54bc e35c f03c 4403 01be
00000140: 9f05 b53b 840a 813d 8f2f 973c c447 67bd
00000150: 91c5 b53c fe00 b7bd 1734 b2bd f0ed 523d
00000160: bd8e 9a3d 40cf b73c 3058 babd 9408 cf3d
00000170: 8308 75bd c43c d6bd 47ab d0bd 7694 10bd
00000180: d8b4 0d3d 0406 9c3d 2ccd 3a3d f82d ba3d
00000190: 2da1 37bd e412 36bd de37 cd3d d566 d5bd
000001a0: c032 d43d 1403 49bd c9f4 94bd 14c4 1a3d
000001b0: 3500 9ebd 191c f6bc d215 be3b 73b6 73bd
000001c0: 7fe3 423d c426 32bd 8513 f23d 6023 c5bd
000001d0: 30d4 e13d 541d 66bd 9168 f83c 9b31 9a3d
000001e0: cec6 663b aa51 a3bd 7f88 a1bd 98e9 dfbd
000001f0: f4ac ce3d 4810 c13c 947f e8bb cff4 20bd
00000200: 16de 96bd 6e21 9b3d 0ee4 c2bd 492d d2bd
00000210: fb52 74bd b84c cf3c 1030 bc3b ef60 9ebd
00000220: de4a 8bbd 582f c63d a101 92bd 8a19 a0bd
00000230: dabc 6a3c 5acf 8e3d 6286 bcbd dd7c f1bd
00000240: e49b 5f3d cf9e 393c 23ac a1bd 5852 10bd
00000250: be01 9d3b 37f8 c43d cc6f 55bc ad2c e9bc
00000260: 25ed 7e3d 67a5 973d 0f2e c73d 5eec 83bd
00000270: d710 d83d 7f5f d3bc a6a3 5fbd 66ad b93c
00000280: dac8 183e fc48 98bc 60e1 d73d 85d7 d63c
00000290: b9ad f13c 3a51 d03d 3940 b1bd d14e 5fbd
000002a0: 4db1 73bd ac53 51bd 6d3e 09bc 3eb8 883d
000002b0: 8517 61bd 38d9 1b3c a064 d23c 69e5 4cbd
000002c0: 5a22 d83c d830 32bd 80c9 0fbb 83d7 cb3d
000002d0: 0ccb 8abc 1d26 113d 8cd9 d53d 14e4 2c3c
000002e0: be68 18bb 78ba d63c 22bc df3d b646 c23d
000002f0: b227 3bbd 3e9f f7bc 71b9 d33a 29b6 793d
00000300: 4f22 c73d 5708 d23d bd85 693c 6e45 8dbd
00000310: 3f6a 1c3c a984 ebbd 245c cfbd 667e 0f3d
00000320: 96ca 71bd 30b6 f6bd 8836 14bc 38d9 95bc
00000330: a430 0bbe 9d9b 8cbd e7e2 383e ce13 b43b
00000340: 5c6b 0abd 32f5 90bd 9e7b eb3d b8c1 9cbc
00000350: 5281 12bb f288 973d bba3 37bd cbe0 0d3d
00000360: cc3b 2a3d 4882 d33d 7cc5 173d df8a de3d
00000370: e46a 593d 4da9 98bd 162f 933d 7544 e33d
00000380: 7fea 5fbd de61 b13d b3b7 1f3c 7c09 673d
00000390: 67b2 8cbc c0da d63c 7115 053e 0947 973d
000003a0: bca5 a63d 773a b63c d1f7 79bb d35a 703d
000003b0: 2a76 cebd 5ef5 01bc 04a4 4239 49ff 00bd
000003c0: 3528 ef3d 64ed d43c aae6 393e a93f c3bd
000003d0: 0532 05bd e45d 17bd a016 923d 9a1a 9bbd
000003e0: 1bbb dcbd 4e77 5ebd 20b7 9ebd b209 ef3b
000003f0: dfd7 bcbd 80c8 e03d 0238 8abd 3f12 8dbb
0.1551345 -0.08480926 0.13106625 -0.092080355 -0.0681345 -0.09826597 -0.10992394 -0.11000598
0.035345644 -0.02036471 0.0065610707 -0.002321735 0.03235933 0.0327615 0.0108637735 -0.054260142
0.08483201 0.064779304 0.041976094 0.05667627 0.031551614 0.10332568 0.016336009 -0.06434661
-0.087984964 0.0898391 -0.10984304 0.084868744 -0.09204011 0.019117976 0.028220206 0.091780305
0.09899297 -0.028533295 -0.09530653 0.08837472 0.067504466 0.0585171 0.08383207 -0.04036595
-0.09664803 -0.1334344 0.024503618 0.07591415 -0.02575043 -0.09420372 0.192809 -0.018705891
-0.07070754 -0.06477781 -0.104093574 0.106743135 0.0935114 -0.074102096 -0.0035137027 -0.01744969
0.0042514205 -0.065645725 -0.08589433 -0.10332715 0.0011677062 -0.057421744 0.0023284138 -0.057098556
0.0923737 -0.07732405 -0.055912387 0.08702423 0.076939896 0.2106043 0.19128112 0.08088347
0.089659944 -0.031001596 -0.1345504 0.04269859 -0.04058358 -0.012965449 0.029341167 -0.12598902
0.0055243517 0.06300834 0.018455295 -0.056464925 0.022188934 -0.08935736 -0.087013416 0.051496446
0.075467564 0.022437692 -0.09098852 0.10109058 -0.05982257 -0.10460809 -0.101889186 -0.035297833
0.034596294 0.07618335 0.045605823 0.09090799 -0.044831444 -0.04445161 0.100204214 -0.10420004
0.10361242 -0.0490752 -0.072732516 0.03778465 -0.07714883 -0.030042695 0.005800941 -0.05950017
0.04758024 -0.043494 0.11820129 -0.09625888 0.110268 -0.056180313 0.030323299 0.07528993
0.0035213712 -0.079745606 -0.07887363 -0.10933226 0.10091582 0.023567334 -0.0070952866 -0.039295968
-0.07366578 0.075747356 -0.09516154 -0.10262544 -0.05964945 0.025305137 0.005743034 -0.07733332
-0.06801389 0.09676999 -0.07129217 -0.07817371 0.014327252 0.06973143 -0.09205319 -0.11791394
0.05459203 0.011329367 -0.078941606 -0.03523478 0.0047914675 0.09617656 -0.013027143 -0.028463686
0.062237877 0.07404595 0.09725582 -0.06441568 0.10550087 -0.025802372 -0.054599427 0.02266569
0.14920369 -0.01858949 0.10541034 0.026225815 0.029501783 0.10171743 -0.086548276 -0.054518525
-0.05949526 -0.051105186 -0.0083767 0.066757664 -0.05495407 0.009512238 0.025682747 -0.05002347
0.026383568 -0.043503612 -0.0021940172 0.09953215 -0.016942523 0.03543674 0.104418844 0.010552425
-0.002325579 0.026211962 0.10924555 0.09486143 -0.045692153 -0.0302273 0.0016153288 0.060964737
0.09723341 0.10255497 0.014253077 -0.06898008 0.009546815 -0.11499912 -0.10124996 0.035032652
-0.05903109 -0.12046468 -0.009046204 -0.018292055 -0.13592774 -0.068656184 0.18055306 0.005495525
-0.033793792 -0.07078017 0.114981875 -0.019135341 -0.0022354913 0.07399167 -0.04483388 0.034638207
0.041560933 0.103275836 0.03705357 0.10866331 0.053080454 -0.074541666 0.07186715 0.110970415
-0.054666992 0.08661245 0.009748387 0.05640553 -0.017174913 0.026227355 0.1299646 0.07386596
0.0813708 0.022244675 -0.0038142095 0.058680367 -0.10081132 -0.007932035 0.00018562382 -0.03149346
0.11677591 0.025992103 0.18154398 -0.095336266 -0.032518405 -0.036954775 0.071332216 -0.07573433
-0.10777875 -0.054312997 -0.07749772 0.007294857 -0.09220862 0.10975742 -0.06748964 -0.0043051536

fc.2.bias f4 [64]
00000000: a52e 99bd 45ae 51bc 7379 333d c3dc 433d
00000010: 044a f13b 3f9b 343d 3b19 933d 513c 3f3d
00000020: 4f64 0d3d 0c1d 6e3d 0e1b 9dbd e093 1fbd
00000030: cd5c b4bd f97f a73d 2e61 a3bd fbc7 003c
00000040: 7ae5 40bd 3dde 903d 786e b9bc e979 8dbd
00000050: c0a7 93bd dccf e0bd 0c15 903d 27a2 5f3c
00000060: 6dca 123d 6089 9cbd 54c6 ad3d 5db9 ae3d
00000070: 58bd 50bd 3fdd 8e3c ad53 f1bc 4a57 a33d
00000080: 8d83 ba3d 40b7 10bd cd25 d23d f61f 91bd
00000090: a108 c6bd 9bc6 a9bd 75cf d9bc 902c 97bd
000000a0: 27dd a03d 7224 ed3d 1181 a53d d6f5 e1bd
000000b0: adfc c6bd 0d6b fd3c 6cff 41bd e0f6 373c
000000c0: 653e a1bd 0e63 3d3c 174b 24bd d22b 973d
000000d0: bad5 69bd 8c15 1f3d bd07 3a3d a048 e5bc
000000e0: 5f39 b43d 6b57 9a3d f093 5b3d 1b52 d43d
000000f0: b4ce 223d a38f e8bc 0311 863d fb2c b13d
-0.074796 -0.012797897 0.043816995 0.047817957 0.0073635597 0.044093367 0.07182547 0.04668838
0.03451949 0.05813317 -0.07671176 -0.038959384 -0.08806763 0.08178706 -0.0797752 0.007860179
-0.047093846 0.070736386 -0.022635683 -0.06908018 -0.0720973 -0.10977146 0.070352644 0.0136495
0.03583758 -0.0764339 0.08485094 0.08531449 -0.050961822 0.017439483 -0.029458845 0.079756334
0.091071226 -0.03533101 0.10261116 -0.07086174 -0.096696146 -0.08289834 -0.026588181 -0.073815465
0.078546815 0.11579217 0.08081258 -0.110332176 -0.09716163 0.030934835 -0.04736273 0.011228293
-0.07873229 0.011559261 -0.040110674 0.07381405 -0.05708859 0.038838908 0.045417536 -0.027988732
0.08800005 0.07536205 0.05360788 0.10367223 0.03974791 -0.028388804 0.065462135 0.086511575

fc.4.weight f4 [2, 64]
00000000: 9169 313e bbf3 46bd 0bb5 8a3d c6f0 903d
00000010: 47db 30bd 1870 323e 049d 5a3e 0a8d 5d3e
00000020: dcb1 2ebd 88ad 6e3c 6b00 15bd 9061 4bbc
00000030: cdf3 a13d 7871 27be 80fd f33d ca73 11bd
00000040: 5adb 0c3d 840e dfbd 0698 59bb 70b1 80bc
00000050: de9b 2fbd a325 463d 4b2e 433e 5d91 043e
00000060: edc7 07be b60f 313d f563 ae3d 0b64 6cbd
00000070: ea77 d3bd 747b 853d 3cba 1ebe a3b6 15be
00000080: 8a62 5abd 1457 fbbc a205 12be 63a8 0f3e
00000090: 0a4c 00be 2660 f53d 2a24 25be 5b01 e63d
000000a0: c839 e8bd 25c3 063e 8646 5c3e 345b bdbd
000000b0: b1c6 eb3d f118 0cbd be47 8abd 8172 b13d
000000c0: 7417 b53d eb11 f6bd a4a5 ee3d c7de 05be
000000d0: 1af2 2ebe a19d e03d 2c25 0a3e 4474 fdbd
000000e0: 1a88 f13d a62d e93d a6cb 1dbe a0c4 053e
000000f0: b242 0ebe 554c ecbd bb6f babd 0288 56be
00000100: 922b 1a3d 5975 84bd 673f c1bd 5fcc d9bd
00000110: 5a9c fd3b 7439 40be 75ad 45be e427 ecbd
00000120: 6ded db3d e361 c6bc 5a33 513e b622 d7bd
00000130: 3d90 debd 3d62 b03d 06ac cb3d fb0c 123e
00000140: 23ba 483d a257 923d 7836 1dbb b0b3 a1bc
00000150: cba0 453e d009 81bd 996a 3cbe db21 60bd
00000160: 94e4 023d 811a 323d 76b5 18b9 9fda 0d3d
00000170: 3c16 13bd 01e4 c43d f391 2f3e d294 413e
00000180: f6d6 073e a403 4fbe 6e57 a53d 84f5 2dbe
00000190: 7e39 633d 4439 f5bd e9cc 803d 9bd6 b4bd
000001a0: 5e13 a53d 45bb 2dbe 9526 32be c0f6 243d
000001b0: 8733 2abd f8dc 203e 9ebf afbd 9ff6 1cbe
000001c0: 70a1 723d fdfb ba3d de76 803b e427 9b3b
000001d0: 618f e23d a483 15be 7f73 2abe 40ac 893d
000001e0: 8387 1abe 05e6 27be 48b2 233e c8d7 9b3b
000001f0: 5657 2f3e 7478 363d 2c05 80bd 2d76 b53d
0.17325427 -0.048572283 0.067728125 0.07077174 -0.04317787 0.17425573 0.21348959 0.21635833
-0.04265009 0.01456774 -0.03637735 -0.012413397 0.079078294 -0.16351879 0.11913586 -0.035510816
0.034388877 -0.108914405 -0.0033202185 -0.015709609 -0.042873256 0.048375737 0.19060628 0.12946077
-0.1325986 0.043227874 0.08515159 -0.057712596 -0.10325606 0.065176874 -0.1550073 -0.14620452
-0.05331663 -0.03068117 -0.14259961 0.14029078 -0.12529007 0.119812295 -0.16127077 0.11230727
-0.11339146 0.13160379 0.21511278 -0.09245911 0.11512507 -0.034203473 -0.06751965 0.08664418
0.08842364 -0.12015136 0.11652687 -0.13073264 -0.17084542 0.10967565 0.13490742 -0.123756915
0.117935374 0.1138566 -0.15409717 0.13063288 -0.1389263 -0.11537997 -0.09103342 -0.2095032
0.03763921 -0.06467695 -0.09435921 -0.10634684 0.007739586 -0.18771917 -0.1930445 -0.11531046
0.10738645 -0.024216598 0.20429745 -0.105046675 -0.10867355 0.086124875 0.0994492 0.14262764
0.04900564 0.07145621 -0.0023988765 -0.019739002 0.19299619 -0.063007 -0.18400039 -0.054719787
0.03195627 0.043482307 -0.00014563449 0.03463232 -0.035909876 0.09613801 0.17145519 0.18904427
0.13265595 -0.20216233 0.080733165 -0.16988188 0.05547475 -0.11973813 0.062890835 -0.08829995
0.080603346 -0.16965969 -0.1739753 0.04027438 -0.041553047 0.15709293 -0.0858147 -0.15328453
0.05923599 0.09130094 0.00392042 0.00473498 0.110625036 -0.14600998 -0.16645621 0.06722307
-0.15090756 -0.16396339 0.15985978 0.0047559477 0.1712316 0.044548467 -0.062509865 0.08860431

fc.4.bias f4 [2]
00000000: 75e4 e33c e57a c0bd
0.027818898 -0.0939844
